session6/vgg11_group/save_model/save_model_state_best.pth (torch, 644812 bytes, 50 tensors)

weight f2 [64, 3, 3, 3]
000000 63 35 d7 b4 32 b7 eb 24 4f b1 c9 b3 d7 b2 0c 34
       0.3367 -0.3025 -0.4497 0.01921 -0.1659 -0.2433 -0.2137 0.253
000010 19 36 a5 35 6c b2 b4 b5 e1 9c a9 28 54 b1 8f b3
       0.381 0.3528 -0.2007 -0.3564 -0.004765 0.0364 -0.1665 -0.2362
000020 25 22 11 32 9b 32 9e b2 98 b7 b1 32 2c b0 8b b4
       0.012 0.1896 0.2064 -0.2068 -0.4746 0.2091 -0.1304 -0.284
000030 87 2e 01 32 92 31 4e 36 29 b9 2c 38 30 37 1d bd
       0.102 0.1876 0.1741 0.394 -0.645 0.5215 0.4492 -1.278
000040 70 38 ca 36 01 bc ed 36 81 35 90 bb 72 31 85 39
       0.5547 0.4243 -1.001 0.4329 0.344 -0.9453 0.1702 0.69
000050 49 bc 90 39 96 39 b7 ba 98 38 b0 35 9e ba d5 35
       -1.071 0.6953 0.698 -0.8394 0.574 0.3555 -0.827 0.3645
000060 b9 38 5b bc bc 38 70 37 03 bc 92 35 75 36 43 34
       0.5903 -1.089 0.592 0.4648 -1.003 0.3481 0.4036 0.2664
000070 0d 36 05 b0 5f b0 5f b0 4b b8 05 b8 a1 b6 51 22
       0.3782 -0.1256 -0.1366 -0.1366 -0.5366 -0.5024 -0.4143 0.01234
000080 5d a1 d2 24 dc a6 2e 2e 4b a5 a4 b0 eb ae 1e ad
       -0.010475 0.01883 -0.0268 0.09656 -0.02068 -0.145 -0.1081 -0.07996
000090 35 21 55 23 ce 18 53 31 ee 29 3e 2c dd b0 a8 b1
       0.01017 0.01432 0.002346 0.1664 0.04633 0.0663 -0.152 -0.1768
0000a0 c1 b0 6d a8 4a ac 2f ae 38 29 86 33 5d 24 ab 38
       -0.1486 -0.03458 -0.067 -0.0966 0.04077 0.2351 0.01704 0.5835
0000b0 1f 39 fa 2e 58 28 ec ad f7 ac 80 25 6f 2c a8 30
       0.64 0.109 0.03394 -0.0925 -0.0776 0.02148 0.0693 0.1455
0000c0 11 33 34 33 60 18 1c 31 be 1f 92 30 24 b3 fa b2
       0.2208 0.2251 0.002136 0.1597 0.00756 0.1428 -0.2231 -0.218
0000d0 5f ae ce b2 36 b1 c3 b3 68 35 34 b8 cd 31 93 37
       -0.09955 -0.2126 -0.1628 -0.2426 0.338 -0.5254 0.1813 0.4734
0000e0 c9 b8 6a 2c 50 36 16 b7 00 a8 9d 34 8d ba 1f 39
       -0.598 0.069 0.3945 -0.4429 -0.03125 0.2883 -0.819 0.64
0000f0 34 36 26 bb f8 38 4b 34 39 ba 7b 35 a5 37 21 bb
       0.3877 -0.8936 0.621 0.2683 -0.778 0.3425 0.4778 -0.891
000100 4e 37 0a 38 ea bb fa 36 32 38 f6 ba cc 35 e4 34
       0.4565 0.505 -0.9893 0.436 0.5244 -0.87 0.3623 0.3057
000110 35 b7 45 30 67 2c 0a b7 46 35 25 b2 21 b5 3a 35
       -0.4504 0.1334 0.0688 -0.44 0.3296 -0.192 -0.3206 0.3267
000120 6e 1b 68 b1 ac 33 9a b3 c2 b2 b8 37 7c b5 42 ad
       0.003628 -0.169 0.2397 -0.2375 -0.2112 0.4824 -0.3428 -0.08215
000130 ab 36 8f b1 7e b2 be 34 14 b6 26 b0 b5 38 56 b7
       0.4167 -0.1737 -0.2029 0.2964 -0.38 -0.1296 0.5884 -0.4585
000140 bd 28 19 39 dc 2c cf ba bf 38 2d 3c d8 ab c3 b9
       0.03702 0.637 0.0759 -0.851 0.5933 1.044 -0.06128 -0.72
000150 2a bb 6a 3a ae 2f 68 b4 b6 bc f9 39 5f 3c 80 b4
       -0.8955 0.802 0.12 -0.2754 -1.178 0.7466 1.093 -0.2812
000160 12 bb d1 b4 da 3b 64 2a e9 b4 56 bb e9 39 d1 3b
       -0.884 -0.301 0.9814 0.04993 -0.307 -0.917 0.739 0.977
000170 53 b2 70 bb bb b6 c0 3b 64 2c 4f 39 9f bb 3b 34
       -0.1976 -0.9297 -0.4207 0.9688 0.0686 0.6636 -0.9526 0.2644
000180 8e bc 19 39 73 3a 83 36 95 38 74 bc aa 39 96 bd
       -1.139 0.637 0.806 0.407 0.5728 -1.113 0.708 -1.396
000190 f6 a8 8a bc d7 35 8f 3a a5 34 73 3a 9a b8 1a 39
       -0.03876 -1.135 0.365 0.82 0.2903 0.806 -0.575 0.6377
0001a0 cf bc db ae 3b bd 80 37 33 3a 9d 35 45 3b 33 b8
       -1.202 -0.1071 -1.308 0.4688 0.775 0.3508 0.9087 -0.525
0001b0 1d b4 4d b3 13 b3 60 b7 ec b4 d3 b3 f2 a6 a1 ac
       -0.257 -0.2281 -0.2211 -0.461 -0.3076 -0.2445 -0.02713 -0.0723
0001c0 db a8 28 b1 c1 af 88 b3 e5 2b be 31 72 2e f7 2e
       -0.03793 -0.1611 -0.12115 -0.2354 0.06168 0.1794 0.1007 0.1088
0001d0 af 2f cd 2f 9b 39 7e 37 55 33 03 36 f3 35 3d 32
       0.12006 0.1219 0.7007 0.4683 0.2291 0.3757 0.3718 0.195
0001e0 f7 ae 47 ac a0 ad 38 af 39 b5 7b af 45 af 34 b0
       -0.1088 -0.06683 -0.0879 -0.1128 -0.3264 -0.1169 -0.1136 -0.1313
0001f0 cd a8 00 34 25 34 fa 33 89 28 b8 b0 2b ad 2f ad
       -0.0375 0.25 0.259 0.2493 0.03543 -0.1475 -0.08075 -0.081

bias f2 [64]
000000 46 b1 2c a8 72 2c 72 2f 1d ab dd 31 5a a6 e8 a9
       -0.1648 -0.0326 0.06946 0.11633 -0.05557 0.1832 -0.02481 -0.04614
000010 b3 2c d8 b1 b7 ae 94 30 f7 b0 73 30 61 ac d7 2e
       0.0734 -0.1826 -0.1049 0.1431 -0.1552 0.139 -0.0684 0.1069
000020 a9 ad 9e ac e5 2e 1c 31 2f 31 03 ae 01 ab 7d 30
       -0.08844 -0.07214 0.1077 0.1597 0.162 -0.09393 -0.05472 0.1403
000030 12 b0 df 2d b6 19 f6 30 1e b0 aa 27 ce a8 65 25
       -0.1272 0.09174 0.002789 0.155 -0.1287 0.02994 -0.03754 0.02107
000040 b4 9b d5 ac 29 2a da a9 13 30 23 b0 fb 31 95 b0
       -0.003761 -0.0755 0.04813 -0.04572 0.1273 -0.1293 0.1869 -0.1432
000050 a4 82 0c b2 00 32 84 a7 f7 1a 84 0b 99 30 67 28
       -4.03e-05 -0.189 0.1875 -0.02936 0.0034 0.0002294 0.1437 0.0344
000060 8d 31 d6 94 f8 aa 13 8e 9a 29 a8 2c 50 b0 69 b0
       0.1735 -0.001181 -0.05444 -0.0003707 0.04376 0.07275 -0.1348 -0.1378
000070 17 2e 58 ac c9 ae 09 a8 06 b2 f1 29 8e a7 38 b1
       0.09515 -0.0679 -0.106 -0.03152 -0.1882 0.04642 -0.02951 -0.1631

weight f2 [64]
000000 6e 38 6d 3b 91 38 7b 38 26 39 6b 38 1f 3c be 3b
       0.5537 0.928 0.571 0.56 0.6436 0.5522 1.03 0.968
000010 98 3a 0d 3c f6 39 b2 38 3f 3a a8 39 3c 38 e4 37
       0.824 1.013 0.745 0.587 0.781 0.707 0.5293 0.4932
000020 04 3c 9a 3b c3 38 0f 35 79 36 23 38 9a 37 00 39
       1.004 0.95 0.595 0.3162 0.4045 0.517 0.475 0.625
000030 eb 35 0f 3a 94 38 78 38 a5 38 83 36 ea 3a 84 3b
       0.3699 0.7573 0.5723 0.5586 0.5806 0.407 0.8643 0.9395
000040 a3 38 c9 37 87 3b 36 3b 73 37 b8 39 a0 39 5b 34
       0.5796 0.4866 0.941 0.9014 0.4656 0.715 0.703 0.2722
000050 e5 37 fa 39 59 39 18 3c 6f 39 3b 39 41 38 87 39
       0.4934 0.747 0.6685 1.023 0.679 0.654 0.5317 0.691
000060 eb 37 7a 38 24 38 19 38 ea 36 32 3a 6e 39 d7 3a
       0.4949 0.5596 0.5176 0.512 0.4321 0.7744 0.6787 0.855
000070 91 38 5f 38 64 3b 3a 3b 26 37 6d 38 c0 37 4c 3a
       0.571 0.5464 0.924 0.9033 0.4468 0.553 0.4844 0.787

bias f2 [64]
000000 fd 35 2d 2f a7 b2 28 ac d0 2f 2c 36 d6 b4 d5 b1
       0.3743 0.1121 -0.2079 -0.06494 0.1221 0.3857 -0.3022 -0.1823
000010 56 34 90 34 77 29 2c ac 3c 31 05 b3 9c 34 5b ae
       0.271 0.2852 0.0427 -0.0652 0.1636 -0.2194 0.288 -0.0993
000020 27 34 16 29 89 35 c4 35 26 2f f3 38 81 2c cc ac
       0.2595 0.03973 0.346 0.3604 0.1117 0.6187 0.0704 -0.07495
000030 77 06 d3 34 8d 2e 3f 33 04 37 12 31 0a 32 90 33
       9.865e-05 0.3015 0.10236 0.2264 0.4385 0.1584 0.1887 0.2363
000040 7d b4 46 2b 31 28 19 2d a8 2c 6e 2f 01 36 ab 30
       -0.2805 0.05682 0.03275 0.07965 0.07275 0.1161 0.3752 0.1459
000050 70 b4 9a 38 9d 26 16 34 eb b4 db 37 af 26 d2 30
       -0.2773 0.575 0.02583 0.2554 -0.3074 0.491 0.02611 0.1506
000060 5e 36 f8 26 b7 b7 5d 38 2b 1b 66 34 c2 32 0d b8
       0.398 0.02722 -0.4822 0.5454 0.0035 0.275 0.2112 -0.5063
000070 e5 b1 4f 38 ab a6 7e a9 aa 30 46 38 e5 33 ed a5
       -0.1842 0.5386 -0.02605 -0.0429 0.1458 0.534 0.2467 -0.02315

running_mean f2 [64]
000000 08 2f 63 34 2c 36 e0 b1 55 32 74 33 7f a1 0f ac
       0.10986 0.2742 0.3857 -0.1836 0.1979 0.2329 -0.010735 -0.0634
000010 8f a6 86 b6 ea 2a c6 32 68 ad 22 33 9e b4 4d b3
       -0.02562 -0.4077 0.05402 0.2117 -0.0845 0.2229 -0.2886 -0.2281
000020 28 35 46 36 66 28 ec 36 05 a8 f6 19 be 31 3c b4
       0.3223 0.392 0.03436 0.4326 -0.0314 0.00291 0.1794 -0.2646
000030 b4 b6 e9 2e 6d 35 94 36 b2 a8 95 ad e8 31 7d 38
       -0.419 0.108 0.339 0.4111 -0.03668 -0.0872 0.1846 0.561
000040 c6 b7 31 b5 38 36 ab 2f ef 33 b5 a8 fc 33 9d b7
       -0.4858 -0.3245 0.3887 0.1198 0.2479 -0.03677 0.2495 -0.4758
000050 0b 35 4f ab 01 2c 1c 36 64 38 1d 26 b4 34 c5 37
       0.3152 -0.0571 0.06256 0.3818 0.549 0.02388 0.294 0.4856
000060 11 b5 19 b0 5f 34 ad 25 e9 ad 9f 2f 18 b1 62 b4
       -0.3167 -0.128 0.2732 0.02217 -0.09235 0.1191 -0.1592 -0.274
000070 e7 30 d9 b8 f5 34 6d 33 52 b2 a7 af 0e 2a de b0
       0.1532 -0.606 0.3098 0.232 -0.1975 -0.11957 0.0473 -0.1521

running_var f2 [64]
000000 19 41 b5 49 c3 42 11 40 05 47 21 44 14 42 b3 41
       2.549 11.414 3.38 2.033 7.02 4.13 3.04 2.85
000010 cf 3e fa 3e 9d 44 45 3e 2a 40 ce 43 2f 3e 24 40
       1.702 1.744 4.613 1.567 2.082 3.902 1.546 2.07
000020 ad 40 ae 42 20 43 c3 42 4d 3e 43 42 03 3d c0 42
       2.338 3.34 3.562 3.38 1.575 3.13 1.253 3.375
000030 73 3e fb 40 5d 41 74 3f 3d 41 c2 3c 22 3e b1 47
       1.612 2.49 2.682 1.863 2.62 1.189 1.533 7.69
000040 63 44 4c 3e 14 44 d9 3d 94 3d b4 42 49 3d 56 3f
       4.387 1.574 4.08 1.462 1.395 3.352 1.321 1.834
000050 3a 40 8a 44 55 44 c8 47 5d 45 11 47 d0 3f ac 43
       2.113 4.54 4.332 7.78 5.363 7.066 1.953 3.836
000060 cc 42 2e 40 26 3f 26 44 31 3d 09 41 8b 3e 43 41
       3.398 2.09 1.787 4.15 1.298 2.518 1.636 2.63
000070 97 40 1c 45 2f 41 93 3d 69 3c d3 40 fd 3d 22 42
       2.295 5.11 2.592 1.394 1.103 2.412 1.497 3.066

weight f2 [128, 2, 3, 3]
000000 f5 36 40 b9 15 b1 51 b9 36 3a 10 34 7e b4 96 38
       0.4348 -0.6562 -0.1588 -0.6646 0.7764 0.254 -0.2808 0.573
000010 6d a9 02 2e 0d ae ea a4 4e b6 05 2f 8c 33 f1 b1
       -0.0424 0.0939 -0.09454 -0.0192 -0.394 0.1097 0.2358 -0.1857
000020 9d ac f4 b0 bb 31 4a ab e8 21 a3 2f 5a b1 36 a6
       -0.0721 -0.1548 0.1791 -0.05695 0.011536 0.1193 -0.1672 -0.02426
000030 6a 2c 34 b4 90 ac 62 23 61 2f 42 38 61 29 97 30
       0.069 -0.2627 -0.0713 0.01442 0.1153 0.532 0.04202 0.1434
000040 86 37 0b a5 1f ac 5d 38 f6 31 59 2c 03 b1 9c ae
       0.4702 -0.0197 -0.0644 0.5454 0.1863 0.06793 -0.1566 -0.1033
000050 05 b6 8a a9 1d ac 3c 31 9c b4 0e b4 50 b7 48 b7
       -0.3762 -0.04327 -0.0643 0.1636 -0.288 -0.2534 -0.457 -0.455
000060 c7 b7 0d b6 86 b5 e7 30 b6 2e 4b 34 87 30 1c 32
       -0.486 -0.3782 -0.3452 0.1532 0.10486 0.2683 0.1415 0.1909
000070 a3 aa f2 a5 19 33 e1 34 37 35 c3 ad 91 b4 52 b6
       -0.05185 -0.02322 0.2218 0.305 0.326 -0.09 -0.2854 -0.395
000080 56 b5 6e b2 7d b1 23 b6 de b5 99 32 93 1e 9a b4
       -0.3335 -0.2009 -0.1715 -0.3835 -0.3667 0.2062 0.00642 -0.2876
000090 05 2c e8 27 ae a8 c4 a2 3e 34 55 36 50 a5 5d aa
       0.0628 0.03088 -0.03656 -0.013214 0.2651 0.3958 -0.02075 -0.0497
0000a0 79 27 00 a8 f1 30 3d 34 41 31 2e 21 76 b2 10 2e
       0.02919 -0.03125 0.1544 0.265 0.1642 0.01012 -0.2019 0.0947
0000b0 52 b4 87 b4 cd b0 5a a9 f6 b1 da b1 92 a9 52 ad
       -0.27 -0.283 -0.15 -0.0418 -0.1863 -0.1829 -0.04352 -0.0831
0000c0 4a 2c d4 a8 e6 ae 02 ac 16 b0 ab a4 88 35 bc 35
       0.067 -0.03772 -0.1078 -0.0626 -0.1277 -0.01823 0.3457 0.3584
0000d0 e8 24 f9 ac 1d ab 7e 25 fd 26 78 b0 e1 29 2f 36
       0.01917 -0.0777 -0.05557 0.02145 0.0273 -0.1396 0.04593 0.3865
0000e0 d9 35 a8 32 fa 2a ad 2e c4 28 53 ac 8d b2 27 af
       0.3655 0.208 0.0545 0.1043 0.03723 -0.06757 -0.2047 -0.11176
0000f0 4e b1 9a b4 b8 af c7 9b 5a 2d 8b a9 fb 2c 77 33
       -0.1658 -0.2876 -0.1206 -0.003798 0.0836 -0.0433 0.0778 0.2333
000100 50 29 b5 b3 c6 b5 3f ad bb ac b6 a8 3a 29 e2 30
       0.0415 -0.2408 -0.3608 -0.082 -0.0739 -0.0368 0.04083 0.1526
000110 b2 38 f2 33 e8 b1 64 b8 b1 b4 2f a8 78 b1 16 2b
       0.587 0.2483 -0.1846 -0.549 -0.2932 -0.03268 -0.1709 0.05536
000120 3e 24 c8 31 73 2e f6 20 a5 32 57 39 a4 2a a1 ad
       0.01657 0.1807 0.10077 0.00969 0.2076 0.6675 0.05188 -0.08795
000130 08 3a b6 2a 92 ac 29 aa 4d b2 cb 37 09 b5 2d ac
       0.754 0.05243 -0.0714 -0.04813 -0.1969 0.487 -0.3147 -0.06525
000140 be 33 b8 ae 1c 30 48 35 73 b5 1e b3 50 b2 63 32
       0.242 -0.105 0.1284 0.33 -0.3406 -0.2224 -0.1973 0.1996
000150 ae 29 a7 b3 41 25 50 b8 93 37 2f 3b 15 38 aa b3
       0.04437 -0.2391 0.02052 -0.539 0.4734 0.898 0.5103 -0.2395
000160 d9 b8 37 17 bb b3 61 af 11 93 9e b7 87 2f 00 24
       -0.606 0.001761 -0.2416 -0.1153 -0.0008626 -0.476 0.1176 0.01563
000170 78 bb c8 39 df ac e0 b4 38 30 64 a8 b7 a8 82 a4
       -0.9336 0.7227 -0.0761 -0.3047 0.1318 -0.0343 -0.03683 -0.01761
000180 fe a5 ff ac 60 33 9f 22 e0 af eb 2e f8 2a 69 35
       -0.0234 -0.07806 0.2305 0.01293 -0.12305 0.1081 0.05444 0.3381
000190 06 24 cc 32 9d 2c 34 2c 8c b3 a3 9f 0c 2c b6 38
       0.01572 0.2124 0.0721 0.0657 -0.2358 -0.007458 0.06323 0.589
0001a0 7b b6 a8 27 79 37 60 b6 2e 2c e8 30 1b ae d7 b0
       -0.405 0.0299 0.467 -0.3984 0.0653 0.1533 -0.0954 -0.1512
0001b0 c0 ac 83 a8 29 34 4b 37 aa a1 c5 2a 5a 3c d5 30
       -0.0742 -0.03525 0.26 0.4558 -0.01106 0.0529 1.088 0.151
0001c0 fe b3 0d 28 b8 29 76 a9 19 b1 ae b2 84 a8 13 b4
       -0.2498 0.03165 0.04468 -0.04266 -0.1593 -0.2087 -0.03528 -0.2546
0001d0 60 ac db b0 28 31 ca b4 ef ac fc 35 9c 34 16 b7
       -0.06836 -0.1517 0.1611 -0.2993 -0.0771 0.374 0.288 -0.4429
0001e0 53 b5 c5 34 7c b3 6a ae 60 b4 1f 36 c7 b8 f2 b1
       -0.3328 0.298 -0.2339 -0.1002 -0.2734 0.3826 -0.597 -0.1858
0001f0 0d 32 d6 b8 62 a1 06 a5 f5 b2 f4 b4 34 b4 90 b7
       0.1891 -0.6045 -0.01051 -0.01962 -0.2174 -0.3096 -0.2627 -0.4727

bias f2 [128]
000000 2f b1 5e 33 a8 2c ef a9 cc b2 e9 aa ae 31 40 ac
       -0.162 0.2302 0.07275 -0.04636 -0.2124 -0.054 0.1775 -0.0664
000010 21 a6 d8 b1 3d 31 7e a2 40 b3 ed ac 99 ac 44 23
       -0.02394 -0.1826 0.1637 -0.01268 -0.2266 -0.07697 -0.07184 0.01419
000020 cc 24 f8 32 14 ae cf 2a 49 2c 54 b2 94 ab ee 2c
       0.01874 0.2178 -0.095 0.0532 0.06696 -0.1978 -0.0592 0.077
000030 d2 30 31 2f c9 15 a6 25 25 b3 27 b1 ad a1 5f 32
       0.1506 0.11237 0.001412 0.02206 -0.2233 -0.161 -0.011086 0.1991
000040 25 2f 7c b0 49 2e e4 2e 66 b2 46 b3 3f 30 11 ae
       0.11163 -0.1401 0.0982 0.10767 -0.2 -0.2273 0.1327 -0.0948
000050 ad 32 50 32 42 ad c4 2c 35 a9 ca ae 29 2c 9d b0
       0.2086 0.1973 -0.08215 0.07446 -0.04068 -0.1061 0.065 -0.1442
000060 fd 30 3c b3 5a 31 51 b2 83 b2 45 32 7a b1 ce 2d
       0.1559 -0.2261 0.1672 -0.1974 -0.2035 0.1959 -0.1711 0.0907
000070 70 33 3e aa 83 a9 dd 32 25 2e e1 b0 98 32 65 b2
       0.2324 -0.04877 -0.04306 0.2145 0.096 -0.1525 0.206 -0.1998
000080 8a b0 a2 21 81 33 05 b1 32 32 47 33 4f b2 71 a8
       -0.1418 0.011 0.2345 -0.1569 0.1936 0.2274 -0.1971 -0.0347
000090 2f 31 38 29 b5 a9 52 33 6a b1 2c b0 81 32 5e 33
       0.162 0.04077 -0.0446 0.2288 -0.1692 -0.1304 0.2032 0.2302
0000a0 04 b1 21 b1 f9 9f 2b 31 ad b1 5c 30 80 a8 19 b1
       -0.1567 -0.1603 -0.007786 0.1615 -0.1774 0.1362 -0.03516 -0.1593
0000b0 fa b0 33 33 78 24 30 ac 0d b0 62 ad 34 af 1f ad
       -0.1555 0.225 0.01746 -0.0654 -0.1266 -0.0841 -0.11255 -0.08
0000c0 dc 2e 30 21 1b 18 ba b2 e8 31 ab ac d7 31 a7 24
       0.1072 0.01013 0.002005 -0.2102 0.1846 -0.07294 0.1825 0.01817
0000d0 c4 b0 ac ad d9 32 ec a8 67 a0 88 27 06 31 a3 ad
       -0.1489 -0.0886 0.214 -0.03845 -0.0086 0.02942 0.157 -0.0881
0000e0 03 b1 4d b2 f2 b2 25 2a 77 2b 2f 2a 13 31 b1 2f
       -0.1566 -0.1969 -0.217 0.048 0.05832 0.0483 0.1586 0.1202
0000f0 38 b3 ae ac 07 b2 e8 ad f5 27 fb 2a 03 b3 7b b1
       -0.2256 -0.0731 -0.1884 -0.0923 0.03108 0.05453 -0.2191 -0.1713

weight f2 [128]
000000 7d 38 64 36 41 3a 06 3a c4 37 82 37 78 39 b5 38
       0.561 0.3994 0.7817 0.753 0.4854 0.4692 0.6836 0.5884
000010 d0 38 c3 38 2c 3d 8d 38 32 36 03 3a 3e 39 32 38
       0.6016 0.595 1.293 0.569 0.3872 0.7515 0.6553 0.5244
000020 58 38 89 38 6c 39 96 38 60 39 82 3a 08 38 ff 38
       0.543 0.567 0.6777 0.573 0.672 0.8135 0.504 0.6245
000030 aa 37 ba 37 cd 38 ee 38 ad 37 fe 38 39 39 fb 38
       0.479 0.483 0.6 0.616 0.4797 0.624 0.653 0.6226
000040 cd 39 26 3c 30 3a 83 3a 54 38 43 39 6b 38 11 3a
       0.725 1.037 0.7734 0.814 0.541 0.6577 0.5522 0.7583
000050 ef 36 ff 34 15 36 13 39 84 38 0b 38 49 38 f3 37
       0.4333 0.3123 0.3801 0.6343 0.5645 0.5054 0.5356 0.4968
000060 61 3c 90 39 2a 39 32 37 df 37 4d 39 ea 38 2a 3a
       1.095 0.6953 0.6455 0.4497 0.492 0.6626 0.6143 0.7705
000070 c4 36 8b 39 73 38 cb 35 03 37 d5 38 d2 37 05 3a
       0.4229 0.693 0.556 0.362 0.4382 0.604 0.4888 0.7524
000080 83 38 60 38 28 37 0f 3a ea 36 e4 36 52 39 84 37
       0.564 0.547 0.4473 0.7573 0.4321 0.4307 0.665 0.4697
000090 2d 3c 87 38 46 3a 0b 3c 22 39 90 38 49 38 8f 3a
       1.044 0.566 0.784 1.011 0.6416 0.5703 0.5356 0.82
0000a0 1c 38 1b 39 35 39 bd 37 a4 3a c7 38 bd 35 82 39
       0.5137 0.638 0.651 0.4836 0.83 0.597 0.3586 0.6885
0000b0 aa 36 28 39 7b 38 aa 35 03 39 69 35 ac 39 00 38
       0.4165 0.6445 0.56 0.354 0.6265 0.3381 0.709 0.5
0000c0 90 36 88 38 0c 37 d3 38 b9 39 eb 36 51 37 20 37
       0.4102 0.5664 0.4404 0.603 0.7153 0.4324 0.4573 0.4453
0000d0 98 36 0e 39 9f 38 d2 38 de 37 c9 38 9a 35 d0 39
       0.412 0.632 0.5776 0.6025 0.4917 0.598 0.35 0.7266
0000e0 4b 38 ab 38 d6 36 d6 38 cd 3b 01 3c 11 3b a4 3b
       0.5366 0.5835 0.4272 0.6045 0.975 1.001 0.8833 0.955
0000f0 bd 39 78 39 f6 39 49 39 4e 38 12 39 d6 38 41 38
       0.7173 0.6836 0.745 0.6606 0.538 0.634 0.6045 0.5317

bias f2 [128]
000000 84 ad 55 33 ee aa 76 b0 62 30 97 a9 24 33 1e b3
       -0.0862 0.2291 -0.05414 -0.1394 0.137 -0.04367 0.2231 -0.2224
000010 9d 37 3b b0 13 b5 39 31 cb 32 5c b0 25 37 4e 35
       0.4758 -0.1322 -0.3171 0.1632 0.2123 -0.1362 0.4465 0.3315
000020 b7 2c 20 ae 6e a8 78 28 67 b6 37 b4 da 2a 21 2e
       0.07367 -0.0957 -0.0346 0.0349 -0.4001 -0.2634 0.05353 0.09576
000030 03 33 29 2e 5e 1e 9a 29 86 35 d6 b4 16 2f 87 2f
       0.2191 0.09625 0.006218 0.04376 0.3452 -0.3022 0.1107 0.1176
000040 6a 2e 31 32 ac 2d 6d b4 9b 26 d0 2c 0c 35 9f b0
       0.1002 0.1935 0.0886 -0.2766 0.0258 0.0752 0.3154 -0.1444
000050 b1 1a 1c 32 99 35 e4 32 a5 b1 a5 2a ac 27 04 2c
       0.003267 0.1909 0.3499 0.2153 -0.1764 0.0519 0.02997 0.06274
000060 88 2c 84 af 38 30 07 b2 57 2c 7b b0 eb a6 93 2e
       0.0708 -0.11743 0.1318 -0.1884 0.0678 -0.14 -0.02702 0.1027
000070 5d 2f 55 aa 2a 9c c0 2b 82 35 6e 36 27 32 a7 ad
       0.11505 -0.04947 -0.004066 0.06055 0.3442 0.4019 0.1923 -0.0883
000080 37 b3 1f 18 8f 2d 40 ab 87 35 76 31 bd ab ed 34
       -0.2255 0.002012 0.08685 -0.05664 0.3455 0.1707 -0.06046 0.3079
000090 c8 30 dd ad 2c 2d fe b0 0a ab 6e 26 4a 2d 80 ad
       0.1494 -0.0916 0.0808 -0.156 -0.055 0.02512 0.08264 -0.08594
0000a0 1e 36 73 ac 50 18 80 31 18 ab e0 b1 1f 2d 54 2c
       0.3823 -0.0695 0.002106 0.1719 -0.05542 -0.1836 0.08 0.0676
0000b0 0b 2d 23 2f b0 2f df 35 b8 2c 1c 2d 05 b2 56 26
       0.0788 0.1115 0.1201 0.367 0.0737 0.07983 -0.1881 0.02475
0000c0 75 34 7d ac 9e 31 b1 a9 0b 34 79 2d 28 32 55 af
       0.2786 -0.0701 0.1755 -0.04446 0.2527 0.0855 0.1924 -0.11456
0000d0 16 2d a6 ab 6c af 3c b2 56 31 46 ad 83 35 0c a9
       0.07947 -0.05975 -0.11597 -0.1948 0.1667 -0.0824 0.3445 -0.03943
0000e0 8b ad 07 33 30 ad a7 32 2d a4 34 b3 a5 a9 ef a9
       -0.0866 0.2196 -0.08105 0.2079 -0.01631 -0.2251 -0.0441 -0.04636
0000f0 15 2b e9 9c 9f 2c 4e a8 40 33 c2 aa 6b 32 77 ac
       0.05533 -0.004795 0.0722 -0.03363 0.2266 -0.0528 0.2006 -0.06976

running_mean f2 [128]
000000 fd b1 4d 3b f2 bc 7c b8 5f ae 9e ad 17 31 e8 b2
       -0.1871 0.9126 -1.236 -0.5605 -0.09955 -0.08777 0.159 -0.2158
000010 91 39 27 b3 0c b4 73 34 9f 2e 62 ba 86 bb a4 39
       0.696 -0.2235 -0.253 0.278 0.10345 -0.798 -0.9404 0.705
000020 22 ac 40 39 43 b8 89 34 37 b7 79 b9 2c 25 3f 34
       -0.0646 0.6562 -0.5327 0.2834 -0.451 -0.684 0.0202 0.2654
000030 ea 36 cd 29 ae b2 0c 28 1d 31 44 b2 35 2c 57 33
       0.4321 0.04532 -0.2087 0.03162 0.1598 -0.1958 0.06573 0.2294
000040 51 b6 c6 35 4e 3a f9 3a 1b 2d f4 34 e0 3b a6 b0
       -0.3948 0.3608 0.788 0.8716 0.0798 0.3096 0.9844 -0.1453
000050 92 37 72 38 51 34 03 b9 8c 33 7a ae 45 b8 62 ac
       0.4731 0.5557 0.2698 -0.6265 0.2358 -0.1012 -0.5337 -0.0685
000060 31 36 f9 b1 84 ad c4 ae 58 a4 7e b1 62 a8 9d 2e
       0.387 -0.1866 -0.0862 -0.1057 -0.01697 -0.1716 -0.03424 0.10333
000070 ca 37 55 a9 89 36 3e 39 8e 3a b4 a1 44 3d 9e bc
       0.4868 -0.04166 0.4084 0.6553 0.8193 -0.01114 1.316 -1.154
000080 dc b1 14 32 c3 34 23 b7 13 3b 38 39 44 b9 11 38
       -0.1831 0.19 0.2976 -0.446 0.8843 0.6523 -0.658 0.5083
000090 da 37 70 a9 57 bb 5a 33 41 b5 5c ba 89 36 0c af
       0.4907 -0.04248 -0.9175 0.2297 -0.3284 -0.795 0.4084 -0.1101
0000a0 31 38 7c b9 40 b5 4e 39 c7 be 1f b6 55 a7 19 bf
       0.524 -0.6855 -0.3281 0.663 -1.694 -0.3826 -0.02864 -1.774
0000b0 a1 b9 0f 37 17 31 ae b8 dd b5 28 35 16 b1 ce 31
       -0.7036 0.4412 0.159 -0.585 -0.3665 0.3223 -0.1589 0.1814
0000c0 ea 38 9c b8 e2 37 af b4 d0 38 d7 b5 6c b2 a9 b2
       0.6143 -0.576 0.4927 -0.2927 0.6016 -0.365 -0.2007 -0.2081
0000d0 8e 25 6c b9 dc b4 56 b3 eb bb 86 b8 ee 3a 2f b4
       0.0217 -0.6777 -0.3037 -0.2292 -0.9897 -0.5654 0.866 -0.2615
0000e0 fc b7 92 2b 70 0b 97 32 60 35 2a 2e 6e 31 4a 39
       -0.499 0.05914 0.000227 0.2059 0.336 0.0963 0.1697 0.661
0000f0 0e b5 2b 34 6c b1 1f af 5d 36 10 27 0b bc 09 34
       -0.316 0.2605 -0.1694 -0.11127 0.3977 0.02759 -1.011 0.2522

running_var f2 [128]
000000 b9 37 b5 3c 72 3c 81 3b 66 2d c4 2c 44 33 a6 2c
       0.4827 1.177 1.111 0.938 0.08435 0.07446 0.227 0.07263
000010 f3 38 29 32 ea 3d f5 35 14 3a 0a 3c 34 3c 29 3c
       0.6187 0.1925 1.479 0.3723 0.76 1.01 1.051 1.04
000020 5e 35 57 36 e1 34 c5 35 d7 37 46 3b d4 38 6a 39
       0.3354 0.3962 0.305 0.3606 0.49 0.909 0.6035 0.677
000030 33 34 1b 35 14 37 12 37 26 30 f2 2a 42 2f f3 2e
       0.2625 0.319 0.4424 0.442 0.1296 0.05426 0.1134 0.1086
000040 44 34 2b 37 08 36 bd 37 eb 30 61 38 0e 33 6e 37
       0.2666 0.448 0.377 0.4836 0.1537 0.5474 0.2205 0.4644
000050 2a 2d 68 30 07 2e c8 34 17 2f 13 2e 59 30 3d 2f
       0.0807 0.1377 0.0942 0.2988 0.1108 0.0949 0.1359 0.1131
000060 3d 34 03 32 c7 2e 3b 29 a7 2f 5b 2e df 2b 7a 31
       0.265 0.1879 0.1059 0.04086 0.11957 0.0993 0.0615 0.1711
000070 98 31 01 34 c4 31 8c 2c bc 39 75 3d de 3b be 3b
       0.1748 0.2502 0.1802 0.07104 0.717 1.364 0.9834 0.968
000080 20 2d 76 2d 0c 2b f2 2c bd 3a 8f 38 81 3b f9 38
       0.0801 0.0853 0.05505 0.0773 0.8423 0.57 0.938 0.6216
000090 9d 39 13 2e dc 37 56 3a 9b 34 d7 32 1e 33 7d 37
       0.7017 0.0949 0.4912 0.792 0.2878 0.2137 0.2224 0.468
0000a0 58 39 98 33 6c 32 be 33 45 40 45 3c 39 36 99 3d
       0.668 0.2373 0.2007 0.242 2.135 1.067 0.389 1.399
0000b0 a5 33 12 34 bf 33 55 30 18 34 57 32 2b 37 79 32
       0.2389 0.2544 0.2421 0.1354 0.2559 0.1981 0.448 0.2023
0000c0 02 34 23 31 7d 31 ed 30 ae 34 13 2c 95 2c 6b 2e
       0.2505 0.1605 0.1715 0.1539 0.2925 0.06366 0.0716 0.1003
0000d0 2e 32 4d 34 c6 33 e0 32 79 36 6b 37 44 35 be 37
       0.1931 0.2688 0.2429 0.2148 0.4045 0.4636 0.329 0.484
0000e0 7d 33 84 34 98 2e a5 35 a2 30 c6 31 dd 30 81 34
       0.234 0.2822 0.103 0.3528 0.1448 0.1804 0.152 0.2815
0000f0 6f 34 f3 2d 36 2e 71 2f c7 35 da 36 27 35 6e 31
       0.277 0.09296 0.09705 0.1163 0.361 0.4282 0.322 0.1697

weight f2 [256, 4, 3, 3]
000000 cc 2f c6 aa a2 26 5d b3 02 b7 80 b4 10 b0 42 b6
       0.1218 -0.05292 0.02591 -0.2301 -0.438 -0.2812 -0.127 -0.391
000010 76 b0 e0 2d e8 2a 55 2f b7 ab d2 ac 29 21 40 b4
       -0.1394 0.0918 0.05396 0.11456 -0.06027 -0.0753 0.01008 -0.2656
000020 78 b3 63 b0 ce ad d0 2b c7 b0 b6 ad a6 20 d1 b2
       -0.2334 -0.1371 -0.0907 0.06104 -0.1493 -0.08923 0.00908 -0.213
000030 be 2d 14 30 11 31 47 33 05 a8 db ab bf ad 6e b4
       0.0897 0.1274 0.1583 0.2274 -0.0314 -0.06137 -0.0898 -0.2769
000040 ad af e7 a7 ce ad 0d a4 1d a4 83 84 bc aa ff a8
       -0.11993 -0.03087 -0.0907 -0.01582 -0.01607 -6.884e-05 -0.0526 -0.03903
000050 34 9c 47 9e a4 29 14 94 93 2b c7 a5 ab b5 5c 28
       -0.004105 -0.00613 0.04407 -0.000996 0.05917 -0.02257 -0.3542 0.03406
000060 be b2 58 b4 c6 b4 a6 2b 52 39 f7 2c 60 b2 30 2c
       -0.2107 -0.2715 -0.2983 0.05975 0.665 0.0776 -0.1992 0.0654
000070 63 27 6a 32 2a 35 20 2a a4 2c d1 ac 21 b5 b1 28
       0.02885 0.2004 0.3228 0.04785 0.0725 -0.07526 -0.3206 0.03665
000080 1c 2e c9 34 97 26 93 ae 81 34 d0 2d 3f b6 02 2c
       0.09546 0.299 0.02574 -0.1027 0.2815 0.0908 -0.3904 0.0626
000090 5d 2b 2d 34 3d 24 1e 2e bd a9 4e ac 46 99 c7 28
       0.05753 0.261 0.01656 0.0956 -0.04483 -0.06726 -0.002575 0.03732
0000a0 1a 27 c8 2c 24 30 6e 25 2e af 6f b3 f7 a4 1f 30
       0.02774 0.0747 0.1294 0.02121 -0.1122 -0.2323 -0.0194 0.1288
0000b0 47 aa 2d 25 88 2c 11 ad bc ab 32 35 fe 36 c8 37
       -0.04904 0.02022 0.0708 -0.07916 -0.06042 0.3247 0.437 0.4863
0000c0 65 af 46 2c 93 30 2b 28 49 1c 55 b0 01 1c 20 30
       -0.11554 0.0668 0.143 0.03256 0.004185 -0.1354 0.00391 0.1289
0000d0 1a 2d 5b b1 f7 26 a6 2e 44 2f ab 29 60 2d db b1
       0.0797 -0.1674 0.0272 0.1039 0.1135 0.04428 0.084 -0.183
0000e0 d5 af 3d 2e 9a b2 fc 1d 65 2a cc 2c 36 b1 d6 aa
       -0.1224 0.0975 -0.2063 0.005844 0.04996 0.07495 -0.1628 -0.0534
0000f0 96 31 9d ab f8 32 57 29 af b0 03 af 95 b2 89 2c
       0.1746 -0.05948 0.2178 0.04172 -0.1464 -0.10956 -0.2057 0.07086
000100 13 33 15 af 26 ae 61 1e c1 ab bf ac 73 a5 ba 2a
       0.2211 -0.11066 -0.09607 0.00623 -0.06058 -0.07416 -0.02129 0.05255
000110 b2 37 a8 33 59 b2 a8 35 8a 2f f3 af ac 32 af 31
       0.481 0.2393 -0.1984 0.3535 0.1178 -0.1242 0.2085 0.1776
000120 67 24 c3 a5 ec ad 68 ae dd 2b 26 30 f8 b1 46 25
       0.0172 -0.0225 -0.0925 -0.1001 0.06143 0.1296 -0.1865 0.0206
000130 dc ac ee 29 4b 28 42 2c 5c 30 3e 32 d2 30 6d b0
       -0.0759 0.04633 0.03354 0.0665 0.1362 0.1951 0.1506 -0.1383
000140 47 ad e8 aa a9 27 39 b5 ac ad 06 b1 aa b5 92 b2
       -0.08246 -0.05396 0.02992 -0.3264 -0.0886 -0.157 -0.354 -0.2053
000150 5c 2c 8b ae 70 27 69 ab b2 a3 d1 a7 3c 2c 83 ad
       0.0681 -0.10223 0.02905 -0.0579 -0.01503 -0.03053 0.06616 -0.0861
000160 93 aa 5d 31 da 2d 37 31 7b a1 c0 ab 11 ad aa ab
       -0.05136 0.1676 0.09143 0.163 -0.010704 -0.06055 -0.07916 -0.05988
000170 2f b3 11 b2 56 b1 b4 b6 02 b6 a0 ab c1 ae db aa
       -0.2245 -0.1896 -0.1667 -0.419 -0.3755 -0.05957 -0.1055 -0.05356
000180 4e 34 a2 34 b6 32 30 31 2d 21 45 2c dc af d7 21
       0.269 0.2896 0.2097 0.1621 0.01011 0.0667 -0.1228 0.011406
000190 12 2f ec 2a ed 2b 77 2c 69 21 12 ad 56 ac 30 ac
       0.1105 0.05408 0.06192 0.06976 0.01057 -0.0792 -0.06775 -0.0654
0001a0 fd 0e fb 23 0e ad 1b b2 15 a8 ab ac 88 b3 26 b2
       0.0004265 0.01559 -0.079 -0.1908 -0.0319 -0.07294 -0.2354 -0.1921
0001b0 f1 2d c6 32 ae 2f 20 2f 59 33 9c 2b 47 28 c4 2c
       0.09283 0.2117 0.12 0.1113 0.2296 0.05945 0.03342 0.07446
0001c0 dc 9c a4 32 6c 28 3a b6 9a 2c ab 28 19 b3 b2 a9
       -0.004745 0.2075 0.03455 -0.3892 0.0719 0.03647 -0.2218 -0.0445
0001d0 3b a8 4a 94 32 30 8d ae 0b 1f 14 32 05 2f 4d a9
       -0.03305 -0.001047 0.1311 -0.10236 0.006878 0.19 0.1097 -0.0414
0001e0 da 29 b3 ad c8 ae 2c b0 f6 ac 06 a8 8d 32 d3 30
       0.04572 -0.08905 -0.10596 -0.1304 -0.0775 -0.03143 0.2047 0.1508
0001f0 0c 31 29 2e 2c 2b c3 b1 dc 2c b1 a8 cc 29 d0 30
       0.1577 0.09625 0.05603 -0.18 0.0759 -0.03665 0.0453 0.1504

bias f2 [256]
000000 18 31 42 2f 1e 31 82 2b 84 b0 14 b1 19 ac e3 27
       0.1592 0.1134 0.1599 0.05865 -0.1411 -0.1587 -0.064 0.0308
000010 46 a4 27 a8 36 2d 76 a8 ea 2f fb 2c 3e af bb 20
       -0.0167 -0.03244 0.0814 -0.03485 0.12366 0.0778 -0.11316 0.00924
000020 75 ac 13 30 cf 2e bb ae 55 b0 47 2f a3 2f c7 af
       -0.06964 0.1273 0.1064 -0.10516 -0.1354 0.1137 0.1193 -0.1215
000030 87 af c6 a5 e6 2c b0 30 ac b0 34 30 19 31 f5 a5
       -0.1176 -0.02255 0.07654 0.1465 -0.146 0.1313 0.1593 -0.02327
000040 50 9a eb b0 50 2e bd 30 93 a8 67 b0 7f af 45 31
       -0.003082 -0.1537 0.09863 0.1481 -0.03574 -0.1376 -0.1171 0.1647
000050 ce ad 45 31 ce 2c 4b b1 71 ab 55 ad 7b 25 06 2d
       -0.0907 0.1647 0.0751 -0.1654 -0.05814 -0.0833 0.02141 0.0785
000060 01 b0 44 23 03 b1 61 b0 ea 2a ad 9d e7 1f cd 2c
       -0.1251 0.01419 -0.1566 -0.1368 0.05402 -0.005543 0.007717 0.075
000070 48 b1 2f a3 10 af f5 af 4d ae 41 ac 97 ac bd ad
       -0.165 -0.01403 -0.11035 -0.1243 -0.09845 -0.06647 -0.0717 -0.08966
000080 69 30 b4 2e 29 b1 5e a0 0a af 2f 31 68 ae 43 ad
       0.1378 0.10474 -0.1613 -0.00853 -0.11 0.162 -0.1001 -0.0822
000090 29 31 3f 2a ab ae 0c a0 bf 92 b8 29 ef 30 cd 23
       0.1613 0.0488 -0.1042 -0.007904 -0.0008235 0.04468 0.1542 0.015236
0000a0 60 ad 4c ab 0e 1f 2a 2c 39 ae c1 9c 0e af 08 27
       -0.084 -0.057 0.00689 0.06506 -0.0972 -0.004642 -0.1102 0.02747
0000b0 6d af 49 ab 2f 28 c0 21 3a 30 ee a8 74 2c 66 b0
       -0.116 -0.05692 0.03268 0.01123 0.1321 -0.0385 0.0696 -0.1375
0000c0 d8 28 ea 30 e5 30 0c ad 9e ac d7 b0 95 28 a0 28
       0.03784 0.1536 0.153 -0.07886 -0.07214 -0.1512 0.0358 0.03613
0000d0 2d 26 a7 a3 34 b0 64 2f 75 ac d5 a1 7f 30 09 ac
       0.02412 -0.014946 -0.1313 0.1155 -0.06964 -0.01139 0.1405 -0.06305
0000e0 55 30 99 af 16 a8 f3 2c 86 ae 22 2a 5c 30 71 30
       0.1354 -0.1187 -0.03192 0.07733 -0.1019 0.0479 0.1362 0.1388
0000f0 9a ae ac ac 68 2e fb 2b 2f 9e 31 b0 20 af 9c aa
       -0.10315 -0.073 0.1001 0.06235 -0.00604 -0.131 -0.1113 -0.05164
000100 ce 22 61 af e1 2b 23 31 ee ac c8 a1 a8 ae d2 b0
       0.01329 -0.1153 0.06155 0.1605 -0.077 -0.01129 -0.104 -0.1506
000110 94 b0 89 a8 cd ae 79 a7 77 af 88 27 e5 2a 4c a4
       -0.1431 -0.03543 -0.10626 -0.02919 -0.11664 0.02942 0.05386 -0.01678
000120 d7 30 52 b0 4c 28 46 29 01 27 6d 95 47 31 3e 2c
       0.1512 -0.135 0.03357 0.0412 0.02736 -0.001325 0.1649 0.0663
000130 c8 2e 3f 26 7f ab b0 2d 6f af 3a af c2 27 22 ac
       0.10596 0.0244 -0.05856 0.08887 -0.11615 -0.1129 0.0303 -0.0646
000140 6f b0 ec ae 35 b0 21 a9 c1 a8 c5 2a ea b0 51 30
       -0.1385 -0.10815 -0.1315 -0.04007 -0.03714 0.0529 -0.1536 0.1349
000150 bc 2d bf b0 e7 ab 7f aa a8 ac 57 af 5e ac 9d ac
       0.0896 -0.1483 -0.06174 -0.05075 -0.07275 -0.1147 -0.06824 -0.0721
000160 ae 2a d3 ad 4c a8 ae 94 c7 2b 57 28 14 ad 1a 31
       0.0522 -0.091 -0.03357 -0.0011425 0.06076 0.0339 -0.07935 0.1594
000170 0e a8 11 2f 3c b1 88 2c 49 ac e5 9c b2 ac 1d 2e
       -0.03168 0.1104 -0.1636 0.0708 -0.06696 -0.00478 -0.07336 0.0955
000180 20 b1 c3 a9 69 25 83 28 45 b0 f8 a6 2a 2d 4e a8
       -0.1602 -0.045 0.02113 0.03525 -0.1334 -0.02722 0.0807 -0.03363
000190 9a b0 59 2e 2a ae 3c 9d be 11 cd ad 47 31 80 30
       -0.1438 0.0992 -0.0963 -0.00511 0.000701 -0.09064 0.1649 0.1406
0001a0 dc a6 b4 b0 80 28 3c 30 94 2d 3b ad cd a9 2c a8
       -0.0268 -0.147 0.03516 0.1323 0.08716 -0.0817 -0.04532 -0.0326
0001b0 31 a8 f8 2d 3a 29 11 b0 3f 2f a0 2b e5 af c3 a0
       -0.03275 0.09326 0.04083 -0.1271 0.1132 0.05957 -0.12335 -0.0093
0001c0 2a 31 8a aa a0 a8 0c ac 2e 27 af b0 6b a6 4c a0
       0.1614 -0.0511 -0.03613 -0.06323 0.02805 -0.1464 -0.02507 -0.00839
0001d0 32 25 a0 2e ee ad 3a 2c b8 a2 58 b0 bf 26 f2 2c
       0.0203 0.1035 -0.09265 0.06604 -0.01312 -0.1357 0.02635 0.0773
0001e0 8e 30 32 29 a1 b0 5c 28 a1 a8 1d 28 05 af 52 a4
       0.1423 0.0406 -0.1447 0.03406 -0.03616 0.03214 -0.1097 -0.01688
0001f0 ef 2f 0e aa 54 a0 27 29 fd 2c f3 2d 02 31 b8 2d
       0.12396 -0.0473 -0.00845 0.04025 0.07794 0.09296 0.1565 0.08936

weight f2 [256]
000000 6b 36 63 38 29 38 bf 39 94 36 c6 35 f6 39 a8 38
       0.4011 0.5483 0.52 0.7183 0.4111 0.3608 0.745 0.582
000010 48 3a 40 38 04 3c 34 3b 4b 3b af 3a e2 3b 45 3a
       0.785 0.5312 1.004 0.9004 0.9116 0.8354 0.9854 0.7837
000020 ce 39 fc 36 fb 35 6a 3a 58 38 73 38 bb 38 55 37
       0.7256 0.4365 0.3738 0.802 0.543 0.556 0.5913 0.4583
000030 39 39 05 36 4d 36 1b 38 3e 38 7a 38 b2 39 1f 38
       0.653 0.3762 0.3938 0.513 0.5303 0.5596 0.712 0.515
000040 ef 3b 98 3b 05 3c a5 3b 0e 3c 9b 3b 35 3b 11 3c
       0.9917 0.949 1.005 0.9556 1.014 0.9507 0.901 1.017
000050 b5 39 93 36 22 3a 8d 36 ae 38 a1 38 c7 36 89 38
       0.7134 0.411 0.7666 0.4094 0.585 0.5786 0.4236 0.567
000060 a2 38 02 37 a4 38 c0 36 3a 35 37 38 78 37 aa 39
       0.579 0.438 0.58 0.4219 0.3267 0.527 0.4668 0.708
000070 f5 38 e3 3a c8 3b 2f 3b b5 39 76 39 48 3c ed 3a
       0.6196 0.861 0.9727 0.898 0.7134 0.6826 1.07 0.8657
000080 13 3b 36 3a 89 3b 01 3c e9 3a a3 3b ad 3b 03 3c
       0.8843 0.7764 0.942 1.001 0.864 0.9546 0.9595 1.003
000090 b4 37 35 38 f5 38 99 37 ac 38 89 39 68 38 43 37
       0.4814 0.526 0.6196 0.4749 0.584 0.692 0.551 0.4539
0000a0 13 39 01 3b d3 3a 0c 3c 1b 39 cd 39 3f 38 47 3a
       0.6343 0.8755 0.853 1.012 0.638 0.725 0.531 0.7847
0000b0 e3 38 02 3c 01 3c 19 3a 52 39 98 3a 91 39 7a 3a
       0.611 1.002 1.001 0.762 0.665 0.824 0.696 0.8096
0000c0 49 39 f3 39 dd 3a d9 3a e6 38 1c 3b 87 3a 11 3c
       0.6606 0.7437 0.858 0.856 0.6123 0.8887 0.816 1.017
0000d0 77 3b 7f 3a ac 3a ad 3b 00 3c da 3b e8 3b ac 3b
       0.933 0.812 0.834 0.9595 1.0 0.9814 0.9883 0.959
0000e0 36 39 bc 3a 1a 3b 72 3a a1 3b f7 38 c4 39 81 3a
       0.6514 0.842 0.8877 0.8057 0.9536 0.6206 0.7207 0.813
0000f0 e5 39 15 39 64 36 18 38 ba 38 02 38 c5 37 1f 37
       0.737 0.6353 0.3994 0.5117 0.591 0.501 0.4856 0.445
000100 4c 3b cf 38 cf 39 2a 3a d6 3b ba 3a f1 3b 0d 3c
       0.912 0.601 0.726 0.7705 0.9795 0.841 0.9927 1.013
000110 8c 38 44 36 95 38 bd 37 77 38 8d 34 02 38 ed 38
       0.5684 0.3916 0.5728 0.4836 0.558 0.2844 0.501 0.6157
000120 35 38 6f 39 73 38 ce 3a 3a 38 3a 38 6b 38 7f 39
       0.526 0.679 0.556 0.8506 0.5283 0.5283 0.5522 0.687
000130 58 38 91 3b 85 3a e0 3b 8f 38 77 3a b6 38 48 39
       0.543 0.946 0.815 0.9844 0.57 0.808 0.589 0.66
000140 d5 37 5a 38 39 38 3d 38 f1 38 4c 38 19 38 4e 38
       0.4895 0.544 0.528 0.53 0.6177 0.537 0.512 0.538
000150 3d 38 0e 38 cf 38 7a 38 12 36 b5 37 7d 38 ff 38
       0.53 0.507 0.601 0.5596 0.3794 0.4817 0.561 0.6245
000160 37 38 be 38 3e 38 9c 38 c5 36 71 39 e4 37 8d 37
       0.527 0.593 0.5303 0.576 0.423 0.68 0.4932 0.472
000170 4a 3a 71 38 45 39 b2 37 68 38 5c 38 45 3a d8 39
       0.786 0.555 0.6587 0.481 0.551 0.545 0.7837 0.7305
000180 45 3b ce 3b f9 3a f2 39 13 3c 00 3b bc 39 8a 39
       0.9087 0.9756 0.8716 0.743 1.019 0.875 0.717 0.6924
000190 68 36 02 38 08 36 cd 37 7a 39 36 37 f4 38 53 38
       0.4004 0.501 0.377 0.4875 0.6846 0.4507 0.619 0.5405
0001a0 57 38 71 39 37 37 31 39 4f 38 cf 3a 4a 38 5d 3a
       0.5425 0.68 0.451 0.649 0.5386 0.851 0.536 0.7954
0001b0 f7 38 32 3a 7b 3a d9 38 1b 39 be 38 de 39 fc 39
       0.6206 0.7744 0.81 0.606 0.638 0.593 0.7334 0.748
0001c0 04 3c f5 39 e1 39 f6 38 25 37 89 38 0e 3c 93 39
       1.004 0.7446 0.735 0.62 0.4465 0.567 1.014 0.697
0001d0 fd 3b f9 3b f3 3b fe 3b f4 3b 00 3c eb 3b 01 3c
       0.9985 0.9966 0.9937 0.999 0.994 1.0 0.9897 1.001
0001e0 f7 3b 1d 3a ad 3b c4 3a cc 3b 69 3b c5 3b e8 3b
       0.9956 0.764 0.9595 0.8457 0.9746 0.9263 0.971 0.9883
0001f0 dd 39 c9 36 66 37 6e 39 cd 36 4c 36 36 38 8f 38
       0.733 0.424 0.4624 0.6787 0.425 0.3936 0.5264 0.57

bias f2 [256]
000000 46 30 33 31 e2 ac f3 b5 60 31 b4 34 81 a8 e3 31
       0.1335 0.1625 -0.0763 -0.3718 0.168 0.294 -0.0352 0.184
000010 08 23 f5 ae 0b 20 6f ac 67 2a 3d a0 c8 2d fe 30
       0.01373 -0.1087 0.0079 -0.0693 0.05002 -0.00828 0.09033 0.156
000020 22 b1 49 a9 9c 2f 84 b6 40 2e 1b 29 da a1 de ae
       -0.1604 -0.0413 0.1189 -0.4072 0.09766 0.0399 -0.01143 -0.1073
000030 02 a4 a3 2e 0b 2f 8a 34 bd 30 90 34 b3 34 f1 21
       -0.01566 0.1037 0.11005 0.2837 0.1481 0.2852 0.2937 0.011604
000040 2d a8 0b a5 85 b1 36 27 a9 2c 37 29 07 b0 7e aa
       -0.03262 -0.0197 -0.1725 0.02817 0.0728 0.04074 -0.1259 -0.05072
000050 05 26 d7 2c bc ac 12 31 d4 34 86 2b 28 30 78 ac
       0.02351 0.0756 -0.074 0.1584 0.3018 0.05878 0.1299 -0.0698
000060 df b0 35 30 a4 b2 ba a6 d6 2a d4 19 55 2d 5f b4
       -0.1522 0.1315 -0.2075 -0.02628 0.0534 0.002846 0.0833 -0.2732
000070 68 2a 16 2e 72 28 94 ae 27 a2 cf 31 23 22 1c 30
       0.05005 0.0951 0.03473 -0.1028 -0.01202 0.1815 0.011986 0.1284
000080 ae b2 81 ac 94 a8 ed ac 7d 16 c6 2e e1 31 e2 31
       -0.2087 -0.0704 -0.03577 -0.07697 0.001584 0.10583 0.1837 0.1838
000090 ad 30 1e a8 46 ab dc a2 ae af 17 b3 86 20 21 a4
       0.1461 -0.03217 -0.05682 -0.0134 -0.12 -0.2216 0.008835 -0.01613
0000a0 d3 a3 1e ac 16 ab 18 2a fc 31 f9 a9 f0 2b 0a 28
       -0.01528 -0.06433 -0.05536 0.0476 0.187 -0.04666 0.062 0.03156
0000b0 b6 b1 a2 28 ef a8 18 ae 55 9e 8c ac bf 21 79 23
       -0.1785 0.0362 -0.03854 -0.0952 -0.006184 -0.07104 0.01122 0.014595
0000c0 01 2f 0e 1c a0 af f0 ac 92 2c 5d a7 fa 27 f8 28
       0.10944 0.00396 -0.11914 -0.07715 0.0714 -0.02876 0.03116 0.03882
0000d0 f7 ab 95 0c b9 28 07 28 0c a6 92 ac 24 1a 28 2e
       -0.06223 0.0002797 0.0369 0.03146 -0.02362 -0.0714 0.002998 0.0962
0000e0 19 2b 15 ad 43 24 c8 31 bd 2e d4 28 b8 ac 01 b0
       0.05545 -0.0794 0.01665 0.1807 0.1053 0.03772 -0.0737 -0.1251
0000f0 16 2d 49 a9 33 2e d4 a3 d7 30 48 2f 98 31 2e 35
       0.07947 -0.0413 0.09686 -0.01529 0.1512 0.1138 0.1748 0.3237
000100 f4 26 30 b0 9e a6 94 ac 04 ab 03 ac 7e ac 25 2e
       0.02716 -0.1309 -0.02585 -0.07153 -0.0548 -0.0627 -0.0702 0.096
000110 7b 9d d4 2f a4 2f 2d 36 d8 34 06 30 7e 30 79 24
       -0.005352 0.1223 0.1194 0.386 0.3027 0.1257 0.1404 0.01747
000120 14 2d c1 2a b6 30 15 ae 53 b0 19 26 52 b2 08 2f
       0.07935 0.05276 0.1472 -0.09503 -0.1351 0.02382 -0.1975 0.10986
000130 05 2b 78 b0 1a 19 88 30 a1 9b b3 af 1d 31 50 a9
       0.05484 -0.1396 0.002491 0.1416 -0.003725 -0.1203 0.1598 -0.0415
000140 40 32 b9 30 6b 32 43 2b dc 30 b7 22 79 30 57 2b
       0.1953 0.1476 0.2006 0.05673 0.1519 0.013115 0.1398 0.05734
000150 a1 2d 78 2a ad a4 14 2c c5 a1 25 a9 b5 2e 07 a4
       0.08795 0.05054 -0.01826 0.0637 -0.01127 -0.0402 0.1048 -0.01573
000160 ee 31 8d 30 d0 a8 e0 ad 7f 32 10 28 8d a7 33 2c
       0.1853 0.1422 -0.0376 -0.0918 0.203 0.03174 -0.0295 0.0656
000170 3b b1 f1 2b 1c a9 66 ab fd a1 05 a7 05 ad 91 29
       -0.1635 0.06204 -0.03992 -0.0578 -0.011696 -0.02742 -0.0784 0.0435
000180 80 2f 88 2f 05 ae c2 af 59 ad ac 24 6a 28 f7 28
       0.1172 0.1177 -0.09406 -0.1212 -0.08356 0.01825 0.0345 0.0388
000190 28 24 79 a2 08 a3 3a 33 6f 99 48 31 3d 30 3f 2d
       0.01624 -0.01264 -0.01373 0.2258 -0.002653 0.165 0.1324 0.082
0001a0 fb 31 c0 a9 11 32 e3 2c 8f 32 f0 b0 9c b2 e5 ac
       0.1869 -0.04492 0.1896 0.07635 0.205 -0.1543 -0.2065 -0.0765
0001b0 28 26 86 2e 87 31 71 26 3e ab 4f 31 8b ad a4 32
       0.02405 0.1019 0.1727 0.02516 -0.05658 0.1659 -0.0866 0.2075
0001c0 3b 30 14 b3 cf 2a 6f b0 3f a6 02 2f d6 a8 56 1f
       0.1322 -0.2212 0.0532 -0.1385 -0.0244 0.1095 -0.03778 0.007164
0001d0 60 a6 88 9d dc 2c 30 2a 10 27 a8 a6 d2 ab 42 94
       -0.0249 -0.0054 0.0759 0.04834 0.02759 -0.026 -0.0611 -0.0010395
0001e0 1c a5 12 2c 42 a4 d9 2e 32 a4 e6 2c 8f a3 de ac
       -0.01996 0.0636 -0.01663 0.107 -0.01639 0.07654 -0.01476 -0.07605
0001f0 81 b1 b2 2f 50 33 52 af fd 28 f3 ae 4a 31 60 ad
       -0.172 0.12024 0.2285 -0.1144 0.03897 -0.1086 0.1653 -0.084

running_mean f2 [256]
000000 32 b9 0a 31 c4 39 32 32 6c b6 0d b8 46 33 09 36
       -0.6494 0.1575 0.7207 0.1936 -0.4014 -0.5063 0.2273 0.3772
000010 87 b4 50 35 e9 a4 10 b5 5d 36 99 36 5b b9 c0 ab
       -0.283 0.332 -0.01918 -0.3164 0.3977 0.4124 -0.6694 -0.06055
000020 cb bb 40 35 27 3a b8 bd ae b4 68 b6 ff ba f0 b5
       -0.974 0.3281 0.769 -1.43 -0.2925 -0.4004 -0.8745 -0.371
000030 6d bb 8f 39 1d 3d b3 b3 40 37 c5 b8 8b be d9 b1
       -0.928 0.695 1.278 -0.2406 0.4531 -0.596 -1.636 -0.1827
000040 5e b4 3f b8 1c 28 6b a8 89 38 7b b4 1a b9 02 32
       -0.273 -0.531 0.0321 -0.03452 0.567 -0.28 -0.6377 0.1877
000050 0c bb 71 33 4c b5 c3 b6 19 b1 00 b9 e9 b6 fc b5
       -0.881 0.2325 -0.331 -0.4226 -0.1593 -0.625 -0.432 -0.374
000060 d0 ba 6a bb cc ba 53 b8 87 38 39 b2 45 b9 cf bc
       -0.8516 -0.927 -0.8496 -0.5405 0.566 -0.1945 -0.6587 -1.202
000070 10 28 71 30 f7 b4 7a b9 85 b4 1e b5 a6 b4 11 af
       0.03174 0.1388 -0.3103 -0.6846 -0.2825 -0.3198 -0.2905 -0.1104
000080 59 3a 06 34 bd ac 93 ab dc 37 97 a6 cb 36 c4 31
       0.7935 0.2515 -0.07404 -0.05917 0.4912 -0.02574 0.4246 0.1802
000090 af b1 19 b9 13 ba 50 31 87 b7 1b b9 e1 b6 70 ba
       -0.1776 -0.637 -0.7593 0.166 -0.4705 -0.638 -0.43 -0.8047
0000a0 65 ae 98 b6 a8 b9 8b b0 6b a9 c1 a5 d6 b8 22 ab
       -0.0999 -0.412 -0.707 -0.142 -0.04233 -0.02248 -0.6045 -0.05573
0000b0 14 26 d9 b6 a6 32 87 2f 87 2e c7 30 d3 34 5f b0
       0.02374 -0.428 0.2078 0.1176 0.102 0.1493 0.3015 -0.1366
0000c0 25 a9 09 32 40 ad 1d b2 27 a7 87 b2 8d ac 24 b5
       -0.0402 0.1886 -0.08203 -0.191 -0.02794 -0.204 -0.0711 -0.3213
0000d0 88 37 ab 30 2a ae 36 34 ec b8 86 b1 d6 33 27 ac
       0.4707 0.1459 -0.0963 0.2632 -0.615 -0.1726 0.2449 -0.0649
0000e0 21 36 78 b6 fb b6 bf b4 a4 b9 0b b2 23 2e d0 b3
       0.383 -0.4043 -0.4363 -0.2966 -0.705 -0.1888 0.0959 -0.2441
0000f0 7d bc ad bd f2 39 3d af db be 85 38 f9 36 c0 b5
       -1.122 -1.419 0.743 -0.1131 -1.714 0.565 0.4358 -0.3594
000100 87 b2 d0 b2 49 2f 04 38 33 b7 b1 28 67 b8 69 2a
       -0.204 -0.2129 0.11383 0.502 -0.45 0.03665 -0.5503 0.05008
000110 d3 b1 cb 38 8f ba 54 2e a8 b8 78 2e 98 b4 2f ba
       -0.182 0.599 -0.82 0.0989 -0.582 0.1011 -0.287 -0.773
000120 51 36 44 2f 82 b4 b9 be ee 29 42 b1 e3 36 f2 b2
       0.3948 0.1135 -0.2817 -1.681 0.04633 -0.1643 0.4304 -0.217
000130 81 a2 74 b3 93 a9 d8 b2 c9 34 94 bb 7b 37 52 37
       -0.0127 -0.2329 -0.04355 -0.2139 0.299 -0.9473 0.4675 0.4575
000140 aa b5 88 2f 7b b3 7b b0 f4 b7 c2 37 42 b6 0b b2
       -0.354 0.1177 -0.2338 -0.14 -0.497 0.4849 -0.391 -0.1888
000150 96 2d df b8 52 b5 23 32 6b 2a 50 b6 0f b5 0f a8
       0.0873 -0.609 -0.3325 0.1918 0.05014 -0.3945 -0.3162 -0.0317
000160 a0 b3 f9 b7 55 31 0c b5 d8 a8 0b ba 11 aa 62 31
       -0.2383 -0.4983 0.1666 -0.3154 -0.03784 -0.7554 -0.0474 0.1682
000170 a3 b7 b2 36 4f b8 4e b7 92 ae 06 2d ce b8 6f a3
       -0.4773 0.4185 -0.5386 -0.4565 -0.10266 0.0785 -0.6006 -0.01452
000180 3e b2 54 b9 b6 b6 ff a3 d0 38 61 22 d6 94 b9 2a
       -0.1951 -0.666 -0.4194 -0.01562 0.6016 0.01246 -0.001181 0.05252
000190 23 28 fe 2d 26 30 3a ad c6 bb c2 af ad 35 1a b0
       0.03232 0.0936 0.1296 -0.08167 -0.9717 -0.1212 0.3547 -0.1282
0001a0 69 ad e2 ba 97 36 bd 32 ed b6 fe b9 ff 2b 57 b6
       -0.08453 -0.8604 0.4119 0.2106 -0.4329 -0.749 0.06247 -0.3962
0001b0 bf ac cc b2 97 b7 ce 2d 17 35 5a 3b ab 2f bc ba
       -0.07416 -0.2124 -0.4744 0.0907 0.318 0.919 0.1198 -0.842
0001c0 d4 a9 72 b4 55 aa 6f ba 5e 36 d6 b3 e9 b5 e4 b2
       -0.04553 -0.2778 -0.04947 -0.804 0.398 -0.2449 -0.3694 -0.2153
0001d0 25 b4 f1 aa 8e b8 22 b6 75 b0 de b1 12 b1 c0 b0
       -0.259 -0.05423 -0.5693 -0.3833 -0.1393 -0.1833 -0.1584 -0.1484
0001e0 3b ac de 33 fa b1 13 ba 70 b6 57 38 f5 b2 e9 b4
       -0.0661 0.2458 -0.1868 -0.7593 -0.4023 0.5425 -0.2174 -0.307
0001f0 eb ba d1 1d 0e ba e8 b4 f6 34 1b 3b 20 bb 39 bc
       -0.8647 0.00568 -0.757 -0.3066 0.31 0.888 -0.8906 -1.056

running_var f2 [256]
000000 6a 31 27 30 97 2f 84 31 e6 2f 5d 2f bc 2f 23 32
       0.1692 0.1298 0.1186 0.1724 0.1234 0.11505 0.12085 0.1918
000010 1f 2d a2 2d 70 2f 1f 30 4a 33 fc 30 63 30 0d 34
       0.08 0.088 0.1162 0.1288 0.2278 0.1558 0.1371 0.2532
000020 7e 3d 0b 37 fe 36 cc 3b bd 39 6b 38 0a 3d 1b 36
       1.373 0.4402 0.437 0.9746 0.7173 0.5522 1.26 0.3816
000030 75 37 0d 34 f5 34 21 36 c6 38 20 38 65 3c b0 35
       0.466 0.2532 0.3098 0.383 0.5967 0.5156 1.099 0.3555
000040 66 33 94 32 2d 2e 91 2e 50 31 08 30 41 31 28 34
       0.2312 0.2056 0.0965 0.1026 0.166 0.126 0.1642 0.2598
000050 da 38 8e 31 65 36 12 32 86 38 3c 35 b0 30 ca 34
       0.6064 0.1736 0.3997 0.1897 0.5654 0.3271 0.1465 0.2993
000060 34 35 e0 34 16 35 1b 35 57 34 15 37 4a 36 f8 37
       0.3252 0.3047 0.3179 0.319 0.2712 0.4426 0.393 0.498
000070 49 33 5c 33 32 34 df 31 67 34 a0 32 b9 37 09 33
       0.2277 0.23 0.2622 0.1835 0.2751 0.207 0.4827 0.2198
000080 aa 35 b8 2f 3b 31 8b 31 c3 33 b0 34 ec 35 a9 34
       0.354 0.1206 0.1635 0.1732 0.2426 0.293 0.37 0.2913
000090 c1 39 8e 37 dd 38 2e 36 00 38 65 38 88 39 16 35
       0.719 0.4722 0.608 0.3862 0.5 0.5493 0.6914 0.3179
0000a0 6c 32 cb 2f d2 30 7e 30 11 30 21 2f 4e 2e de 2f
       0.2007 0.12177 0.1506 0.1404 0.1271 0.1114 0.0985 0.1229
0000b0 da 2e 8a 30 a8 2e e5 2d 47 2d 96 2e 86 2d 92 2e
       0.10706 0.1418 0.104 0.0921 0.08246 0.1029 0.0863 0.10266
0000c0 eb 34 25 34 03 35 a2 36 a6 36 c3 34 88 36 c6 36
       0.3074 0.259 0.3132 0.4146 0.4155 0.2976 0.4082 0.4233
0000d0 38 31 e5 30 d9 2d 21 2f ad 2c 8b 2d fc 2c a7 2f
       0.1631 0.153 0.0914 0.1114 0.07306 0.0866 0.0779 0.11957
0000e0 00 34 f3 2d c9 32 2f 32 bb 34 06 30 19 31 a9 31
       0.25 0.09296 0.212 0.1932 0.2957 0.1257 0.1593 0.1769
0000f0 88 38 4d 35 04 32 d9 32 35 3a c9 34 08 37 fc 35
       0.5664 0.3313 0.188 0.214 0.776 0.299 0.4395 0.374
000100 f9 2d f9 2e a3 30 b6 2e 58 2f 2b 32 3c 31 47 34
       0.0933 0.10895 0.1449 0.10486 0.11475 0.1927 0.1636 0.2673
000110 dc 35 56 35 e0 38 41 38 03 38 1d 31 3b 38 65 36
       0.3662 0.3335 0.6094 0.5317 0.5015 0.1598 0.529 0.3997
000120 7c 37 a7 34 4f 34 0a 3e ba 36 13 36 ff 32 a2 35
       0.4678 0.2908 0.2693 1.51 0.4204 0.3796 0.2186 0.352
000130 86 2e 06 34 69 31 15 2e 13 32 e3 34 83 32 50 2f
       0.1019 0.2515 0.1691 0.09503 0.1898 0.3054 0.2035 0.11426
000140 81 33 78 34 5f 35 ec 32 06 33 a9 33 ef 34 3d 32
       0.2345 0.2793 0.3357 0.2163 0.2195 0.2394 0.3083 0.195
000150 ce 32 20 30 db 31 2c 30 cd 2c 22 2f bd 30 3d 31
       0.2126 0.1289 0.183 0.1304 0.075 0.11145 0.1481 0.1637
000160 03 32 2b 34 f4 31 03 30 e8 30 f8 32 4b 2e 1e 30
       0.1879 0.2605 0.186 0.1254 0.1533 0.2178 0.0983 0.1287
000170 23 31 89 2f 78 30 a8 2f a0 2f 61 2f b2 30 42 2f
       0.1605 0.11774 0.1396 0.1196 0.11914 0.1153 0.1467 0.1134
000180 c8 2e ce 2f 3c 30 34 2f eb 2f 43 2f f8 2e 7f 31
       0.10596 0.12195 0.1323 0.11255 0.1237 0.11346 0.1089 0.1718
000190 65 2b 47 2f 39 32 c2 33 04 36 6a 31 83 34 d7 31
       0.05777 0.1137 0.1945 0.2424 0.376 0.1692 0.282 0.1825
0001a0 6b 2c df 30 a0 2e dd 2d b2 2f 96 31 9c 2b 85 2d
       0.06903 0.1522 0.1035 0.0916 0.12024 0.1746 0.05945 0.08624
0001b0 60 2f d0 2e 26 2f 56 2e 1c 2e 9e 30 5d 2f 9b 31
       0.11523 0.10645 0.1117 0.099 0.09546 0.1443 0.11505 0.1752
0001c0 48 31 31 31 a5 34 70 31 c2 2e 3f 30 88 35 2a 30
       0.165 0.1622 0.2903 0.1699 0.1056 0.1327 0.3457 0.1301
0001d0 40 31 53 31 59 35 5e 33 e0 32 89 34 fc 33 9f 32
       0.1641 0.1664 0.3342 0.2302 0.2148 0.2834 0.2495 0.2069
0001e0 f1 32 cf 34 28 31 37 34 39 33 bd 33 dc 31 5a 30
       0.2169 0.3005 0.1611 0.2634 0.2257 0.2418 0.1831 0.136
0001f0 bf 38 40 35 80 37 4e 37 9e 33 e6 33 90 37 ce 36
       0.5933 0.3281 0.4688 0.4565 0.238 0.2468 0.4727 0.4253

weight f2 [256, 8, 3, 3]
000000 a9 29 4f 30 0f af f7 2c cb 2d 93 2c 3e 2d 27 31
       0.04422 0.1346 -0.1103 0.0776 0.0905 0.0715 0.0819 0.161
000010 8a 30 01 34 87 28 e3 a8 09 34 9a 27 2b 2e 29 32
       0.1418 0.2502 0.03537 -0.03818 0.2522 0.0297 0.0964 0.1925
000020 3b 1c e2 a8 ba 28 6d ab a6 b0 e7 aa ec b0 2d a9
       0.00413 -0.03815 0.03693 -0.058 -0.1453 -0.05392 -0.1538 -0.04044
000030 1c ad 7b ad 1c ac 01 b0 ae af a4 9c f1 b2 ae b0
       -0.07983 -0.08563 -0.0642 -0.1251 -0.12 -0.00453 -0.2169 -0.1462
000040 60 ad 55 ab 62 ad ca af 15 b1 27 b1 67 25 5c b0
       -0.084 -0.05728 -0.0841 -0.1217 -0.1588 -0.161 0.0211 -0.1362
000050 64 b3 85 aa f5 b2 04 b1 af 25 97 a4 c5 ab 18 b1
       -0.231 -0.05093 -0.2174 -0.1567 0.0222 -0.01793 -0.0607 -0.1592
000060 c2 33 82 2f a1 25 b7 2d e2 30 ef 2f a0 ad 70 ae
       0.2424 0.1173 0.02199 0.0893 0.1526 0.12396 -0.0879 -0.1006
000070 87 a9 60 b2 22 b0 f5 a8 e2 a4 33 b0 91 a6 ce 2e
       -0.04318 -0.1992 -0.1292 -0.03873 -0.01907 -0.1312 -0.02565 0.1063
000080 74 2f b8 a8 7f a5 92 aa df ac a7 a4 e6 b1 1e b0
       0.11646 -0.03687 -0.02147 -0.05133 -0.0761 -0.01817 -0.1843 -0.1287
000090 55 b0 90 b0 14 9e 6a a6 a4 a8 28 ad e5 2e 14 aa
       -0.1354 -0.1426 -0.005936 -0.02505 -0.03625 -0.08057 0.1077 -0.0475
0000a0 75 a0 5a 34 e2 31 ba a3 5f 30 0f 34 47 ac 3d ac
       -0.008705 0.272 0.1838 -0.01509 0.1366 0.2537 -0.06683 -0.0662
0000b0 90 25 24 a8 a3 af 4c a8 94 31 29 b1 13 27 6b 31
       0.02173 -0.03235 -0.1193 -0.03357 0.1743 -0.1613 0.02763 0.1693
0000c0 ed ac 32 9f ea 28 51 23 9f a3 98 b1 39 29 f0 a8
       -0.07697 -0.007027 0.0384 0.01429 -0.014885 -0.1748 0.0408 -0.03857
0000d0 9c 28 7e af f2 ad cb 35 3a 24 9e b1 54 ac d5 2e
       0.036 -0.11707 -0.0929 0.362 0.01651 -0.1755 -0.0676 0.10675
0000e0 3f a4 92 ad c9 31 d4 ab d8 af 76 2d 2a 2d b1 2c
       -0.01659 -0.08704 0.1808 -0.06116 -0.12256 0.0853 0.0807 0.0733
0000f0 b9 ac ee a9 6c 9f 10 31 ad 30 39 30 da 2f 15 b0
       -0.0738 -0.04633 -0.007248 0.1582 0.1461 0.132 0.1227 -0.1276
000100 5e af 36 ac 13 ae 4c ad 52 a9 29 2c 66 2c b4 b3
       -0.1151 -0.0658 -0.0949 -0.08276 -0.04156 0.065 0.0687 -0.2407
000110 10 aa 44 a9 08 31 0a b2 bc b0 0f 36 2f b3 3c b1
       -0.04736 -0.04114 0.1572 -0.1887 -0.148 0.3787 -0.2245 -0.1636
000120 2b aa be ae f6 9f dc 2f f4 99 3f 30 4f 2c 5a 29
       -0.0482 -0.10535 -0.007774 0.1228 -0.002907 0.1327 0.0673 0.0418
000130 3e 32 54 a5 1c b1 ea 29 4c af 45 b1 7b a8 04 b2
       0.1951 -0.02081 -0.1597 0.0462 -0.114 -0.1647 -0.035 -0.188
000140 ee ae 06 a8 3d b0 a6 b3 cd af 6d ae 21 b2 df b1
       -0.1083 -0.03143 -0.1324 -0.239 -0.1219 -0.1004 -0.1915 -0.1835
000150 e8 b0 ac b0 da a3 83 ad c3 ac f5 ac b3 aa 22 a9
       -0.1533 -0.146 -0.015335 -0.0861 -0.0744 -0.07745 -0.05234 -0.0401
000160 2e ae 51 a6 74 b3 97 b2 a3 af cf 9e 61 2c 03 2b
       -0.09656 -0.02467 -0.2329 -0.2059 -0.1193 -0.00665 0.0684 0.05478
000170 dd 2f 42 30 30 32 a5 2e 8d 26 99 2f 5e 2a f5 2a
       0.12286 0.133 0.1934 0.1038 0.02559 0.1187 0.04974 0.05435
000180 fc a5 71 af 01 29 58 ac 75 af fd 2a ae 29 9b 2a
       -0.02338 -0.1163 0.0391 -0.0679 -0.1165 0.0546 0.04437 0.0516
000190 4b b1 5f 2d 48 ad bf ad dd af 89 a9 6d 29 91 b0
       -0.1654 0.0839 -0.0825 -0.0898 -0.12286 -0.04324 0.0424 -0.1427
0001a0 b1 a5 41 2d 01 a9 24 af 85 ae 33 24 01 b1 ee 89
       -0.02223 0.0821 -0.0391 -0.1116 -0.10187 0.0164 -0.1564 -0.000181
0001b0 4f b0 c2 af b3 ad 60 a3 94 2c c3 a2 ad 31 5c 32
       -0.1346 -0.1212 -0.08905 -0.014404 0.07153 -0.01321 0.1774 0.1987
0001c0 53 35 f2 ad 2f 33 36 ad 05 b3 50 2c 9e b0 a8 b0
       0.3328 -0.0929 0.2245 -0.0814 -0.2194 0.0674 -0.1443 -0.1455
0001d0 9b b1 8a ae df a3 0f ae 6d 1e 90 2b c4 ab e0 a6
       -0.1752 -0.1022 -0.01537 -0.09467 0.006275 0.05908 -0.06067 -0.02686
0001e0 f2 a8 c8 af 71 9b 1f ac ae a9 94 aa b0 2d 70 a0
       -0.03864 -0.1216 -0.003633 -0.0644 -0.04437 -0.0514 0.08887 -0.00867
0001f0 76 34 13 30 5d af 4c 2e 8f a6 a9 ad 66 2a ce 2e
       0.2788 0.1273 -0.11505 0.0984 -0.02562 -0.08844 0.05 0.1063
