session6/densenet_mini_ref_max_fact/save_model/save_model_state_best.pth (torch, 403258 bytes, 353 tensors)

weight f2 [3, 1, 3, 3]
000000 58 39 9b bd 38 3d 17 c0 ec b9 df bb f0 3a f8 b4
       0.668 -1.401 1.305 -2.045 -0.74 -0.984 0.867 -0.3105
000010 8e 3a b5 26 02 3a 50 38 4b 39 0c c6 d2 3a 7c 34
       0.8193 0.0262 0.751 0.539 0.6616 -6.047 0.8525 0.2803
000020 1c 38 25 38 c5 b8 53 38 c8 b4 de 41 3d 39 c5 b4
       0.5137 0.518 -0.596 0.5405 -0.2988 2.934 0.655 -0.298
000030 0c ba 59 29 8c b8
       -0.756 0.04178 -0.5684

weight f2 [20, 3, 1, 1]
000000 c2 35 c8 36 17 36 0d aa 96 35 cb b1 a9 ae 1c 3a
       0.3599 0.4238 0.3806 -0.04727 0.349 -0.181 -0.10406 0.7637
000010 19 2c 8b 38 19 bb a4 ab 31 b8 7d 35 21 b9 5c 36
       0.064 0.568 -0.887 -0.0597 -0.524 0.343 -0.641 0.3975
000020 a4 bc 22 ba 07 b6 be b5 19 ba 22 bd 4b 39 c6 b1
       -1.16 -0.7666 -0.3767 -0.359 -0.762 -1.283 0.6616 -0.1804
000030 1c 39 44 b9 25 b8 fa ad d4 34 a8 b5 e6 ae 2d b4
       0.6387 -0.658 -0.518 -0.0934 0.3018 -0.3535 -0.1078 -0.261
000040 c4 b9 77 b0 4a b6 94 34 8b ae d1 37 7c 23 9a b8
       -0.7207 -0.1395 -0.393 0.2861 -0.10223 0.4885 0.01462 -0.575
000050 22 3d 1d 36 da 1c d4 39 02 3c 6f 3b 3f b4 21 33
       1.283 0.382 0.004738 0.7285 1.002 0.929 -0.2654 0.2228
000060 0d b5 1b b8 90 2d 22 b1 a4 b0 4a bb 9f 3b 05 b1
       -0.3157 -0.513 0.0869 -0.1604 -0.145 -0.911 0.9526 -0.1569
000070 5d 3b 89 30 90 29 1c b5
       0.9204 0.1417 0.04346 -0.3193

weight f2 [20]
000000 d2 38 46 35 f6 38 7c 36 98 36 a3 38 2f 34 40 37
       0.6025 0.3296 0.62 0.4053 0.412 0.5796 0.2615 0.4531
000010 a3 36 dc 36 50 37 92 38 24 37 e0 39 22 37 92 36
       0.4148 0.4287 0.457 0.5713 0.4463 0.7344 0.4458 0.4106
000020 5b 37 4a 39 f0 36 58 34
       0.4597 0.661 0.4336 0.2715

bias f2 [20]
000000 43 b5 bc b5 ce b4 ad 36 63 31 97 33 50 36 46 39
       -0.3289 -0.3584 -0.3003 0.4172 0.1683 0.2372 0.3945 0.659
000010 2f b5 22 b1 8e b5 3d 39 4f b3 82 3a 7f 32 a6 a8
       -0.324 -0.1604 -0.3472 0.655 -0.2284 0.8135 0.203 -0.03632
000020 73 38 60 b4 f0 29 d9 30
       0.556 -0.2734 0.0464 0.1515

running_mean f2 [20]
000000 38 04 fe 10 16 18 08 9c e8 16 fa 9c ed 8e e8 1d
       6.44e-05 0.0006094 0.001995 -0.003937 0.001686 -0.00486 -0.0004227 0.005768
000010 80 9c 1b 0f bc 94 8d 08 9a 15 56 1d df 19 6b 9b
       -0.004395 0.0004337 -0.001156 0.0001389 0.001368 0.00521 0.002867 -0.003622
000020 47 0c 1c 94 1a 99 51 93
       0.000261 -0.001003 -0.002491 -0.000893

running_var f2 [20]
000000 4a 39 62 38 f3 3c c5 39 d1 38 5e 3c 1a 36 ef 38
       0.661 0.548 1.237 0.721 0.602 1.092 0.3813 0.6167
000010 67 38 55 39 a0 35 89 3d c2 37 15 3e c5 39 83 37
       0.5503 0.6665 0.3516 1.384 0.4849 1.5205 0.721 0.4695
000020 85 3f 1e 3a fe 37 02 37
       1.88 0.7646 0.4995 0.438

weight f2 [40, 20, 1, 1]
000000 20 22 ed 9d 91 aa 0b ac 2d 30 62 af 4c ae c4 b1
       0.01196 -0.005787 -0.0513 -0.0632 0.1305 -0.11536 -0.0984 -0.1802
000010 5f 2c 6b 28 a9 2c 82 b2 6d a4 72 b0 c8 b2 27 32
       0.0683 0.03452 0.0728 -0.2034 -0.01729 -0.1389 -0.2119 0.1923
000020 30 b2 4c 2d 18 ad 49 31 87 22 19 ad 81 b1 56 b5
       -0.1934 0.08276 -0.0796 0.1652 0.01275 -0.07965 -0.172 -0.3335
000030 d6 25 b8 b1 9a b3 1f 35 32 b0 f6 ae 29 b0 ca 2a
       0.0228 -0.1787 -0.2375 0.32 -0.1311 -0.10876 -0.13 0.05304
000040 27 30 1b 36 ee 31 98 2f bf ad 3e b3 23 26 16 aa
       0.1298 0.3816 0.1853 0.11865 -0.0898 -0.2263 0.02397 -0.04755
000050 08 b4 8a 2e 6a 30 ad b0 0a 36 a8 2d 89 2e 20 35
       -0.252 0.1022 0.138 -0.1461 0.3774 0.0884 0.1021 0.3203
000060 f2 b0 35 2c 41 31 4e b3 4e 2c 95 2b 05 ab 0d b5
       -0.1545 0.06573 0.1642 -0.2283 0.06726 0.05923 -0.05484 -0.3157
000070 d3 ad bd 34 d2 a8 0e 2e b8 34 a7 29 1e 30 09 ae
       -0.091 0.2961 -0.03766 0.0946 0.295 0.04416 0.1287 -0.0943
000080 03 b0 cd ae 9c ab 56 a9 04 ac c4 29 5a 20 0e 9a
       -0.1254 -0.10626 -0.05945 -0.0417 -0.06274 0.04504 0.0085 -0.002956
000090 ed 28 fe 2e ed 2f e5 15 00 28 3b b0 1c 2f 9a 28
       0.03848 0.10925 0.12384 0.001439 0.03125 -0.1322 0.1111 0.03595
0000a0 61 b1 49 b0 c2 ab c1 29 32 b0 8a b4 e6 af 8d 30
       -0.1681 -0.1339 -0.0606 0.04495 -0.1311 -0.2837 -0.1234 0.1422
0000b0 bf 29 2b ac 40 a6 c2 36 7f 24 56 b2 43 2d f0 ad
       0.0449 -0.0651 -0.02441 0.4224 0.01756 -0.198 0.0822 -0.0928
0000c0 f9 34 6d a4 f1 2c eb b0 e5 ad e3 b0 de ad ec 2f
       0.3108 -0.01729 0.0772 -0.1537 -0.0921 -0.1527 -0.0917 0.1238
0000d0 2c 30 8f 31 40 2d 15 2d 8e b1 9e a8 76 ad 86 33
       0.1304 0.1737 0.08203 0.0794 -0.1736 -0.03607 -0.0853 0.2351
0000e0 d4 ac 4d b8 11 b2 dd 30 ea 31 2f af 43 ab 7d 21
       -0.07544 -0.5376 -0.1896 0.152 0.1848 -0.11224 -0.05673 0.01072
0000f0 a6 b0 22 ad a0 26 05 2f 4d 2f db 33 19 b0 ef b0
       -0.1453 -0.0802 0.02588 0.1097 0.1141 0.2455 -0.128 -0.1542
000100 62 32 d6 ab 19 30 35 a0 36 af e6 2b 83 11 af b0
       0.1995 -0.06122 0.128 -0.00822 -0.1127 0.0617 0.000673 -0.1464
000110 20 28 e6 31 77 22 83 2a 77 33 29 a8 2f 33 af 1c
       0.03223 0.1843 0.01263 0.05087 0.2333 -0.0325 0.2245 0.004574
000120 30 2c 70 23 43 af 94 2c f3 ad a5 2b 88 21 f2 a7
       0.0654 0.01453 -0.11346 0.07153 -0.09296 0.05972 0.0108 -0.03104
000130 8f 30 7f 33 12 30 98 ae 68 ae c8 1f 62 26 2b b0
       0.1425 0.2343 0.1272 -0.103 -0.1001 0.0076 0.02493 -0.1302
000140 30 ab a8 b0 58 29 40 aa 0c 30 67 b1 7f af 21 2c
       -0.05615 -0.1455 0.04175 -0.04883 0.1265 -0.1688 -0.1171 0.0645
000150 c3 ad 99 2b 9b ae 87 b6 19 96 7a 31 b7 21 0c b0
       -0.09 0.05936 -0.1032 -0.408 -0.001489 0.1711 0.01116 -0.1265
000160 cc b4 04 29 ad b1 e0 2c 7f 26 4f 2b 2b a7 8f 2d
       -0.2998 0.03918 -0.1774 0.0762 0.02538 0.0571 -0.028 0.08685
000170 94 a6 70 2e 45 ae b3 b1 be 30 27 2c de a6 21 ad
       -0.0257 0.1006 -0.09796 -0.1781 0.1482 0.0649 -0.02682 -0.08014
000180 21 25 3b b4 8a b2 7b 2c 81 ae 83 a8 cb a0 ca 2b
       0.02003 -0.2644 -0.2043 0.07 -0.1016 -0.03525 -0.00936 0.06085
000190 d5 1e ca b0 3c ae 35 30 f9 ad 37 2f b4 a8 e6 2c
       0.00667 -0.1497 -0.0974 0.1315 -0.0933 0.11273 -0.03674 0.07654
0001a0 ef ac 9f ae dc 9b 48 36 a7 a7 5c b0 fa 23 e0 1e
       -0.0771 -0.10345 -0.003838 0.3926 -0.02989 -0.1362 0.01558 0.006714
0001b0 a2 31 9e 27 17 33 12 ad 2e b0 ca 25 fa ae dc 33
       0.176 0.02975 0.2216 -0.0792 -0.1306 0.02261 -0.109 0.2456
0001c0 64 ab f7 2f cd 98 41 b6 00 2c 9b af 08 af 37 25
       -0.05774 0.12445 -0.002344 -0.3909 0.0625 -0.11884 -0.10986 0.02037
0001d0 41 b0 f2 b5 cb ac 9a 31 07 a4 4d ad 31 b1 a0 ad
       -0.1329 -0.3716 -0.0749 0.175 -0.01573 -0.0828 -0.1622 -0.0879
0001e0 73 b1 97 b0 34 b3 96 ac f2 2f 5b b7 59 b3 13 30
       -0.1703 -0.1434 -0.2251 -0.07166 0.12415 -0.4597 -0.2296 0.1273
0001f0 86 af 37 b0 86 af 69 34 be a9 96 b4 78 30 60 a3
       -0.11755 -0.1317 -0.11755 0.2756 -0.04486 -0.2866 0.1396 -0.014404

weight f2 [40]
000000 00 3c 71 38 26 37 00 3c 59 36 66 38 00 3c 00 3c
       1.0 0.555 0.4468 1.0 0.3967 0.55 1.0 1.0
000010 40 38 00 3c af 37 e5 39 bf 38 00 3c 16 37 f0 3b
       0.5312 1.0 0.4802 0.737 0.5933 1.0 0.4429 0.992
000020 00 3c cb 3b 00 3c e6 38 00 3c 00 3c 96 3b bd 36
       1.0 0.974 1.0 0.6123 1.0 1.0 0.948 0.4211
000030 94 37 00 3c 00 3c 00 3c 00 3c e0 3b 0b 37 fd 3b
       0.4736 1.0 1.0 1.0 1.0 0.9844 0.4402 0.9985
000040 2a 38 fe 3b a9 3a f1 37 00 3c 00 3c 00 3c 00 3c
       0.5205 0.999 0.8325 0.4963 1.0 1.0 1.0 1.0

bias f2 [40]
000000 fe 2e 67 35 4c 38 a4 af 86 37 83 35 30 b1 f5 ae
       0.10925 0.3376 0.537 -0.1194 0.4702 0.3445 -0.1621 -0.1087
000010 f8 37 fa 2c 8a 37 b6 34 9a 37 69 b0 2e 38 b3 b0
       0.498 0.07776 0.4712 0.2944 0.475 -0.1378 0.5225 -0.1469
000020 84 2f f0 35 44 30 20 38 4a 2e c9 31 78 36 2e 36
       0.11743 0.371 0.1333 0.5156 0.09827 0.1808 0.4043 0.3862
000030 69 36 88 b2 64 b0 10 b6 d5 a4 89 34 76 39 65 36
       0.4006 -0.2041 -0.1372 -0.379 -0.01888 0.2834 0.6826 0.3997
000040 86 37 47 34 5b 33 bc 36 86 2a 0e 35 ff 36 05 b2
       0.4702 0.2673 0.2299 0.421 0.05096 0.316 0.4373 -0.1881

running_mean f2 [40]
000000 86 b8 13 33 07 31 c5 29 32 32 2b ab e8 2c f1 32
       -0.5654 0.2211 0.1571 0.04507 0.1936 -0.056 0.07666 0.2169
000010 5c b6 61 b7 ed 35 60 b8 a8 b1 19 34 b7 b9 57 b3
       -0.3975 -0.4612 0.3704 -0.547 -0.1768 0.256 -0.7144 -0.2294
000020 f8 af 15 3a e6 b1 7b bb 0d af 7d b7 0d 30 59 a1
       -0.1245 0.7603 -0.1843 -0.935 -0.11017 -0.468 0.1266 -0.010445
000030 d3 32 50 38 30 2e ad 39 ad b7 67 33 7b ba 98 b2
       0.2133 0.539 0.0967 0.7095 -0.4797 0.2313 -0.81 -0.206
000040 2b 35 5c b8 1c a8 45 2e 66 3a db b5 d6 a5 16 34
       0.323 -0.545 -0.0321 0.09796 0.8 -0.366 -0.0228 0.2554

running_var f2 [40]
000000 5c 2f 2a 34 2b 30 41 2c 07 35 e5 36 68 27 bf 2f
       0.115 0.2603 0.1302 0.06647 0.3142 0.431 0.02893 0.12103
000010 39 34 1a 2c f9 33 a9 33 4b 33 c8 2c 38 38 fe 33
       0.264 0.0641 0.2491 0.2394 0.2279 0.0747 0.5273 0.2498
000020 10 32 96 31 f0 2e b3 2f 12 31 54 2f 73 32 a5 32
       0.1895 0.1746 0.1084 0.1203 0.1584 0.1145 0.2015 0.2076
000030 70 34 38 2b c9 29 99 2e a9 30 a3 31 8d 33 1c 2f
       0.2773 0.0564 0.0452 0.1031 0.1456 0.1761 0.236 0.1111
000040 61 34 79 31 08 33 bb 34 3a 34 76 33 8c 2d 52 2d
       0.2737 0.171 0.2197 0.2957 0.2642 0.2332 0.0867 0.0831

weight f2 [40, 1, 3, 3]
000000 8f b2 62 b6 20 b1 c8 37 bc 28 69 b0 2d 30 95 2f
       -0.205 -0.399 -0.1602 0.4863 0.037 -0.1378 0.1305 0.11847
000010 0a b2 79 38 36 b3 32 b5 59 34 51 ba 3b 39 2a b4
       -0.1887 0.559 -0.2253 -0.3247 0.2717 -0.7896 0.654 -0.2603
000020 58 b0 13 35 4f b5 3e ba 00 b4 ca ac 9c 36 f7 32
       -0.1357 0.3171 -0.3318 -0.7803 -0.25 -0.0748 0.413 0.2177
000030 6c 36 f8 35 3e 2c d1 16 5e 2e 01 26 5e b2 17 33
       0.4014 0.373 0.0663 0.001664 0.0995 0.02345 -0.199 0.2216
000040 18 b1 0e 29 3a 2f 7b 33 82 b8 77 b6 15 b7 60 38
       -0.1592 0.0395 0.1129 0.2338 -0.5635 -0.404 -0.4426 0.547
000050 31 3c 22 35 d7 a9 36 ad 6d b6 78 ac 15 30 3e b7
       1.048 0.3208 -0.04562 -0.0814 -0.4016 -0.0698 0.1276 -0.4526
000060 6e b8 50 3c 78 2b 2c b4 15 b2 32 34 5f 34 d7 24
       -0.5537 1.078 0.05835 -0.2607 -0.1901 0.2622 0.2732 0.0189
000070 47 ae 43 ae 94 2f b0 32 63 a6 ec a9 40 30 00 32
       -0.0981 -0.09784 0.1184 0.209 -0.02495 -0.04626 0.1328 0.1875
000080 83 b5 fc 33 3c b5 55 2b 24 2b d7 34 ca a4 f7 b6
       -0.3445 0.2495 -0.3271 0.05728 0.0558 0.3025 -0.0187 -0.4353
000090 2f 2e e5 2e e1 b3 88 31 28 37 b2 38 e1 b8 97 b6
       0.0966 0.1077 -0.2462 0.1729 0.4473 0.587 -0.61 -0.4119
0000a0 d3 ad b3 b1 77 26 7e b1 47 b3 3f 2c ae 34 dc a9
       -0.091 -0.1781 0.02525 -0.1716 -0.2274 0.06635 0.2925 -0.04578
0000b0 02 31 1f 32 18 b5 10 32 87 38 06 b2 e4 b7 9a b8
       0.1565 0.1913 -0.3184 0.1895 0.566 -0.1882 -0.4932 -0.575
0000c0 eb 37 27 38 ca b2 65 21 4b b0 38 ab cc 35 22 bc
       0.4949 0.519 -0.2122 0.01054 -0.1342 -0.0564 0.3623 -1.033
0000d0 29 37 5a b4 0a 36 8b 35 c9 b3 85 b4 62 36 8e b9
       0.4475 -0.272 0.3774 0.3464 -0.2433 -0.2825 0.399 -0.6943
0000e0 fc 30 06 39 1a b7 82 31 04 32 2e 35 2b b4 e1 2c
       0.1558 0.628 -0.4438 0.1721 0.188 0.3237 -0.2605 0.07623
0000f0 ae b1 7f 9f 5d 31 76 ae 2b a7 85 34 7e b4 91 38
       -0.1775 -0.00732 0.1676 -0.10095 -0.028 0.2825 -0.2808 0.571
000100 fb ad 91 b8 cb 39 6a b6 f4 b4 93 39 04 b5 62 35
       -0.09344 -0.571 0.724 -0.401 -0.3096 0.697 -0.3135 0.3364
000110 ea 35 c9 b2 8d b1 28 36 27 31 29 b6 b8 b8 61 03
       0.3696 -0.212 -0.1735 0.3848 0.161 -0.385 -0.59 5.156e-05
000120 9e 31 47 36 0c 2d 45 b5 28 2f 0c 37 76 b5 bb b3
       0.1755 0.3923 0.07886 -0.3293 0.1118 0.4404 -0.3413 -0.2416
000130 36 b5 30 37 1d 38 9f 36 a4 b4 1b ad 07 b0 6b b1
       -0.3257 0.4492 0.514 0.4138 -0.29 -0.0798 -0.1259 -0.1693
000140 c6 b9 10 a9 21 2c 9c 2f c7 30 33 37 6a 24 64 21
       -0.7217 -0.03955 0.0645 0.1189 0.1493 0.45 0.01724 0.01053
000150 c3 b3 2b b9 3e 97 df 35 8f 38 7d 2c 40 ba b2 b3
       -0.2426 -0.646 -0.001768 0.367 0.57 0.0701 -0.7812 -0.2405
000160 f4 2d 15 38 9a b7 1b ac 00 36 43 b2 a8 ac eb 25
       0.093 0.5103 -0.475 -0.06415 0.375 -0.1957 -0.07275 0.02312
000170 a3 b4 1b a9 23 35 f0 b4 8d 33 dd b5 1f a9 1d 33
       -0.2898 -0.0399 0.321 -0.3086 0.236 -0.3665 -0.04 0.2223
000180 7f b5 f0 24 e8 32 3a b2 c0 33 78 31 21 35 72 b1
       -0.3435 0.01929 0.2158 -0.1946 0.2422 0.1709 0.3206 -0.1702
000190 0b 32 22 37 1d b6 7b ad fd 33 62 b4 6a b4 4d b3
       0.1888 0.4458 -0.382 -0.08563 0.2496 -0.274 -0.276 -0.2281
0001a0 fb b6 3f 3a 5a ae 61 b2 36 35 ec 32 55 35 67 b9
       -0.4363 0.781 -0.09924 -0.1993 0.3257 0.2163 0.3333 -0.6753
0001b0 e9 34 55 38 25 b1 b2 b9 66 b7 5a b5 6f 32 6f 32
       0.307 0.5415 -0.1608 -0.712 -0.4624 -0.3345 0.201 0.201
0001c0 ba 36 ec 35 ec ae a9 30 ab 2c f1 25 a2 30 0a 29
       0.4204 0.37 -0.10815 0.1456 0.07294 0.02321 0.1448 0.03937
0001d0 ba a6 92 2f ad 32 2f ab 69 b4 d7 ac c6 32 aa a8
       -0.02628 0.1183 0.2086 -0.05612 -0.2756 -0.0756 0.2117 -0.03644
0001e0 4a b5 e3 af 66 34 fb 2d 54 2f ce b4 40 33 eb b8
       -0.3306 -0.1232 0.275 0.09344 0.1145 -0.3003 0.2266 -0.6147
0001f0 6e 2e b9 a7 9e 37 35 29 5c 35 eb 36 a0 29 fb b1
       0.10046 -0.03017 0.476 0.04068 0.335 0.4324 0.04395 -0.1869

weight f2 [40]
000000 ce 35 92 39 b3 38 68 35 eb 39 49 39 2a 32 54 38
       0.3628 0.6963 0.5874 0.338 0.7397 0.6606 0.1926 0.541
000010 06 38 ef 34 ee 38 0b 39 75 38 65 37 85 3a 42 38
       0.503 0.3083 0.616 0.6304 0.557 0.4622 0.815 0.532
000020 de 35 a4 36 4c 37 d9 36 bb 34 46 35 1e 37 cc 38
       0.3667 0.415 0.456 0.428 0.2957 0.3296 0.4448 0.5996
000030 ca 38 0b 34 f0 34 2d 38 3f 37 57 37 5c 38 2c 35
       0.5986 0.2527 0.3086 0.522 0.453 0.4587 0.545 0.3232
000040 1b 3a 8f 34 ed 38 75 38 29 38 7f 36 4c 35 f6 35
       0.763 0.285 0.6157 0.557 0.52 0.406 0.331 0.3726

bias f2 [40]
000000 d8 12 52 96 67 18 8f 12 6e 9a c4 93 75 0d 4b 0c
       0.0008354 -0.001543 0.00215 0.0008006 -0.00314 -0.000948 0.000333 0.000262
000010 66 10 4c 0c ff 14 cc 15 e3 06 5c 0a 5b 94 f3 91
       0.000537 0.0002623 0.00122 0.001415 0.0001051 0.0001941 -0.001063 -0.000726
000020 3d 14 05 14 52 10 89 04 79 0e eb 0c af 14 34 0a
       0.001035 0.000981 0.0005274 6.92e-05 0.000395 0.0003002 0.001143 0.0001893
000030 b7 15 9e 11 fd 0e b4 11 2a 98 47 8e 64 90 34 93
       0.001395 0.0006857 0.0004265 0.000696 -0.002033 -0.0003831 -0.000536 -0.0008793
000040 10 13 a9 8d 8c 11 b3 15 cf 94 7e 0e 98 11 6b 10
       0.000862 -0.0003455 0.000677 0.001391 -0.001174 0.0003963 0.000683 0.0005393

running_mean f2 [40]
000000 08 b0 66 9c 29 28 49 2e c5 21 1e 23 ab 2f 2d ad
       -0.126 -0.004295 0.0325 0.0982 0.01127 0.0139 0.1198 -0.0809
000010 bc 2b 54 2a 58 a5 7b 21 d6 ab 86 2a 7f 27 0f a0
       0.06042 0.04944 -0.02087 0.010704 -0.06122 0.05096 0.02928 -0.00793
000020 01 9e bc a8 05 a8 b4 24 ca 20 3d a9 42 01 62 1d
       -0.005863 -0.037 -0.0314 0.01837 0.00935 -0.04092 1.92e-05 0.005257
000030 b0 a1 38 31 17 a9 08 25 71 24 d8 a9 43 2b 0d 2f
       -0.01111 0.1631 -0.03976 0.01965 0.01735 -0.04565 0.05673 0.11017
000040 7b a5 59 ad a4 2e 86 29 ee 29 25 a8 1f ac 50 aa
       -0.02141 -0.08356 0.10376 0.04315 0.04633 -0.03238 -0.0644 -0.04932

running_var f2 [40]
000000 f0 30 d1 34 0a 32 c6 2d cc 30 79 30 67 2c 4b 2e
       0.1543 0.301 0.1887 0.0902 0.1499 0.1398 0.0688 0.0983
000010 1c 31 85 2d 27 2f 58 33 8d 32 38 2e 43 32 c3 30
       0.1597 0.08624 0.11176 0.2295 0.2047 0.09717 0.1957 0.1488
000020 6b 32 00 38 10 32 4b 2e 5f 2f e6 33 8a 31 b1 2d
       0.2006 0.5 0.1895 0.0983 0.1152 0.2468 0.1731 0.0889
000030 43 2e 8d 30 62 28 96 2e 97 30 d6 30 3d 31 e4 31
       0.09784 0.1422 0.03424 0.1029 0.1434 0.1511 0.1637 0.1841
000040 16 31 15 31 9b 34 aa 30 49 34 ba 32 a2 35 4b 30
       0.1589 0.1588 0.2878 0.1458 0.2678 0.2102 0.352 0.1342

weight f2 [10, 40, 1, 1]
000000 6d ac e8 b6 ea a5 e8 ab 61 b2 d2 b6 3d b3 f3 2d
       -0.06915 -0.4316 -0.0231 -0.06177 -0.1993 -0.4263 -0.2262 0.09296
000010 73 29 ed 2d 10 af 3b 38 28 32 bd 25 0e bc 2c 30
       0.04257 0.0926 -0.11035 0.529 0.1924 0.02242 -1.014 0.1304
000020 36 1c 45 a2 84 31 d3 2d 19 35 2a 30 7b 34 63 33
       0.004112 -0.012245 0.1724 0.091 0.3186 0.1301 0.28 0.2308
000030 2d af da 30 50 26 58 2e 88 af a4 22 9f ac be 2c
       -0.1121 0.1516 0.02466 0.0991 -0.1177 0.01297 -0.0722 0.0741
000040 47 1d f8 2b 52 a7 3b b1 81 23 53 b8 59 38 d9 2c
       0.005154 0.06226 -0.0286 -0.1635 0.014656 -0.5405 0.5435 0.07574
000050 4b 1c f6 b0 c5 26 ce 27 ca b8 2e ad 19 af ab 32
       0.004192 -0.155 0.02644 0.03049 -0.5986 -0.08093 -0.1109 0.2084
000060 15 37 fd 33 d0 36 df 36 f1 ac 94 1f 09 a7 50 34
       0.4426 0.2496 0.4258 0.4294 -0.0772 0.0074 -0.02748 0.2695
000070 2f af 77 32 ed b5 04 b1 21 30 6f 2b ef b0 fc af
       -0.11224 0.202 -0.3704 -0.1567 0.129 0.05807 -0.1542 -0.12476
000080 88 39 a8 2d 8d b2 f3 37 8d 32 d3 b4 eb a6 fe b5
       0.6914 0.0884 -0.2047 0.4968 0.2047 -0.3015 -0.02702 -0.3745
000090 28 31 25 b2 38 35 a3 39 67 2f 83 30 01 2e 99 36
       0.1611 -0.192 0.3262 0.7046 0.11566 0.141 0.0938 0.4124
0000a0 b0 a9 a4 3a 9d b6 ff ae 65 33 7a 2c 0b b3 44 b6
       -0.04443 0.83 -0.4133 -0.1093 0.2311 0.06995 -0.2201 -0.3916
0000b0 82 aa 34 b0 c7 30 ef b6 83 37 78 b2 f7 32 59 31
       -0.05084 -0.1313 0.1493 -0.4333 0.4695 -0.2021 0.2177 0.1671
0000c0 0a 27 48 ac cb b0 06 23 04 b0 2a b5 a4 b0 27 39
       0.0275 -0.0669 -0.1498 0.01372 -0.1255 -0.3228 -0.145 0.644
0000d0 26 b4 a9 b2 4f 23 55 b4 5d 32 a8 36 6a b5 8f 31
       -0.2593 -0.2081 0.014275 -0.2708 0.1989 0.416 -0.3384 0.1737
0000e0 20 b4 34 b0 fb b7 ca b7 08 32 2f af a8 29 e1 b0
       -0.2578 -0.1313 -0.4988 -0.4868 0.1885 -0.11224 0.0442 -0.1525
0000f0 dc b4 37 36 7b b1 c6 25 29 b0 aa b9 39 b3 77 22
       -0.3037 0.3884 -0.1713 0.02255 -0.13 -0.708 -0.2257 0.01263
000100 cf 38 31 a1 df 38 e6 30 ea b0 bc 31 3f ac fa 37
       0.601 -0.01014 0.609 0.1531 -0.1536 0.1792 -0.06635 0.4985
000110 4b b6 5d a8 ec a8 5f b5 f3 22 58 ad 73 34 a0 35
       -0.3933 -0.0341 -0.03845 -0.3357 0.01357 -0.0835 0.278 0.3516
000120 02 28 94 ab 8d 32 21 33 01 2b de 35 0f 36 31 b2
       0.0313 -0.0592 0.2047 0.2228 0.05472 0.3667 0.3787 -0.1935
000130 1d 32 2a 32 bc 37 33 2c c8 38 d0 33 2b 9c 92 af
       0.191 0.1926 0.4834 0.0656 0.5977 0.2441 -0.00407 -0.1183
000140 4b b0 fe a8 af 2d 31 b2 46 27 f4 b3 05 1c c6 36
       -0.1342 -0.039 0.0888 -0.1935 0.02841 -0.2485 0.003925 0.4233
000150 c2 2c 99 31 e5 a5 e0 2e f9 ba 2b 32 2a b8 d1 ae
       0.07434 0.1749 -0.02303 0.1074 -0.8716 0.1927 -0.5205 -0.1065
000160 d3 b0 26 22 a2 34 96 a1 69 31 8e 34 4c 36 38 b6
       -0.1508 0.01201 0.2896 -0.01091 0.1691 0.2847 0.3936 -0.3887
000170 9e aa d1 b2 82 29 5f 33 2f b1 eb 9f a3 39 81 b1
       -0.0517 -0.213 0.04303 0.2303 -0.162 -0.007732 0.7046 -0.172
000180 90 30 10 38 6f 31 42 b2 37 ac 0d 34 f4 b5 8c 29
       0.1426 0.508 0.1698 -0.1956 -0.06586 0.2532 -0.372 0.04333
000190 e9 a6 25 32 82 b1 11 ac 96 ae d0 35 d8 20 9c 26
       -0.027 0.192 -0.1721 -0.06354 -0.1029 0.3633 0.00946 0.02582
0001a0 67 ad 20 2b 09 b3 b0 b6 c0 ac af a7 e9 b2 e6 2e
       -0.0844 0.05566 -0.2198 -0.418 -0.0742 -0.03001 -0.216 0.1078
0001b0 96 ae 7e ac 44 2c 79 30 de 32 59 30 7e ac c4 b6
       -0.1029 -0.0702 0.06665 0.1398 0.2146 0.1359 -0.0702 -0.4229
0001c0 16 2f d5 a9 69 af c0 af 8f 2b 9e b4 11 2d 8c 31
       0.1107 -0.04556 -0.1158 -0.1211 0.05905 -0.2886 0.07916 0.1733
0001d0 68 bc 9e 12 26 b3 0c ae 8b b0 bb b4 13 2f ba 2d
       -1.102 0.000808 -0.2234 -0.0945 -0.142 -0.2957 0.11053 0.0895
0001e0 fc b2 02 a0 c5 b6 54 b4 3c 3a 6f 31 07 b3 1a 31
       -0.2183 -0.00783 -0.423 -0.2705 0.7793 0.1698 -0.2196 0.1594
0001f0 0f b8 2e b0 59 b9 b1 25 14 aa a0 b0 39 b0 76 b1
       -0.5073 -0.1306 -0.6685 0.02223 -0.0475 -0.1445 -0.132 -0.1707

weight f2 [30]
000000 32 3d 5d 3d 73 3d 62 3d 45 3d bf 3c 79 3d 84 3d
       1.299 1.341 1.362 1.346 1.317 1.187 1.368 1.379
000010 2e 3b 9f 3b a4 3a d8 36 96 37 66 38 bf 35 ea 37
       0.8975 0.9526 0.83 0.4277 0.474 0.55 0.3591 0.4946
000020 ee 33 89 36 a2 37 b5 36 9c 34 97 38 f2 38 d5 39
       0.2478 0.4084 0.477 0.4192 0.288 0.5737 0.618 0.729
000030 3e 38 c6 38 54 37 53 38 b8 36 65 37
       0.5303 0.5967 0.458 0.5405 0.42 0.4622

bias f2 [30]
000000 71 ae d0 25 6e ab 00 28 c6 ac a0 a9 0f ad 31 9d
       -0.10065 0.0227 -0.05804 0.03125 -0.0746 -0.04395 -0.07904 -0.00507
000010 d6 20 8c a5 30 b7 1a b0 9f 22 4f a0 70 ae 37 32
       0.009445 -0.02167 -0.4492 -0.1282 0.01293 -0.008415 -0.1006 0.1942
000020 63 2c 54 37 f5 2c 0d 30 09 a4 c8 b3 96 b8 5b 34
       0.06854 0.458 0.07745 0.1266 -0.01576 -0.2432 -0.573 0.2722
000030 54 34 c5 b1 4d 2d 4b b4 21 34 36 b4
       0.2705 -0.1803 0.0828 -0.2683 0.258 -0.2632

running_mean f2 [30]
000000 05 1c 64 1e 4f 9f 14 10 a0 15 08 9a 3b a0 25 8d
       0.003925 0.00624 -0.007137 0.000498 0.001373 -0.002945 -0.00826 -0.000314
000010 e4 18 bd 1c 38 04 fe 10 16 18 08 9c e8 16 fa 9c
       0.002388 0.004627 6.44e-05 0.0006094 0.001995 -0.003937 0.001686 -0.00486
000020 ed 8e e8 1d 80 9c 1b 0f bc 94 8d 08 9a 15 56 1d
       -0.0004227 0.005768 -0.004395 0.0004337 -0.001156 0.0001389 0.001368 0.00521
000030 df 19 6b 9b 47 0c 1c 94 1a 99 51 93
       0.002867 -0.003622 0.000261 -0.001003 -0.002491 -0.000893

running_var f2 [30]
000000 56 42 29 44 f3 43 23 44 48 41 5c 3f fc 42 a1 43
       3.168 4.16 3.975 4.137 2.64 1.84 3.492 3.814
000010 52 3c 47 3d 4a 39 62 38 f3 3c c5 39 d1 38 5e 3c
       1.08 1.319 0.661 0.548 1.237 0.721 0.602 1.092
000020 1a 36 ef 38 67 38 55 39 a0 35 89 3d c2 37 15 3e
       0.3813 0.6167 0.5503 0.6665 0.3516 1.384 0.4849 1.5205
000030 c5 39 83 37 85 3f 1e 3a fe 37 02 37
       0.721 0.4695 1.88 0.7646 0.4995 0.438

weight f2 [15, 30, 1, 1]
000000 e1 b1 a0 2c 9a 2f 11 32 c2 30 5d b2 7a ae 3c 30
       -0.1837 0.07227 0.1188 0.1896 0.1487 -0.1989 -0.1012 0.1323
000010 dc 2e 52 2b bc b1 0e b2 a6 b4 a0 38 e3 2c 6d ad
       0.1072 0.0572 -0.1792 -0.1892 -0.2905 0.578 0.07635 -0.0848
000020 09 af 02 34 d4 b4 82 b7 ac b4 71 3c 19 b1 96 2f
       -0.1099 0.2505 -0.3018 -0.4692 -0.292 1.11 -0.1593 0.1185
000030 15 39 59 b3 42 3c b3 b0 33 3b ed a8 0e 32 59 be
       0.6353 -0.2296 1.064 -0.1469 0.9 -0.03848 0.1892 -1.587
000040 62 b9 1d 95 21 35 8c b5 2e bd 01 3a ea b6 86 b8
       -0.673 -0.001248 0.3206 -0.3467 -1.295 0.7505 -0.4321 -0.5654
000050 3e 28 88 a8 1d 30 51 a0 56 21 1b ad bc 29 f8 28
       0.03314 -0.0354 0.1285 -0.00843 0.01042 -0.0798 0.0448 0.03882
000060 67 a4 91 a7 2b a3 7b ac 2d b0 98 30 da 33 c8 2e
       -0.0172 -0.02956 -0.014 -0.07 -0.1305 0.1436 0.2454 0.10596
000070 e1 b1 d6 2f 5a 30 3e b0 3e ae df 38 5c 2f ff b4
       -0.1837 0.12244 0.136 -0.1326 -0.09753 0.609 0.115 -0.3123
000080 f6 a7 00 34 b1 35 d8 ae 12 3a f1 3a 38 2f 07 b5
       -0.0311 0.25 0.3557 -0.10693 0.759 0.8677 0.1128 -0.3142
000090 40 b0 ad b4 f3 b4 65 b5 18 b5 89 b2 b5 ad 36 b4
       -0.1328 -0.2922 -0.3093 -0.3372 -0.3184 -0.2042 -0.0892 -0.2632
0000a0 ba b4 6c b7 1f b2 ae 30 73 35 88 31 00 b6 d1 b4
       -0.2954 -0.4639 -0.1913 0.1462 0.3406 0.1729 -0.375 -0.301
0000b0 e5 35 30 ad ae 34 ba 2d 6e b3 a7 b2 4b b3 d5 b2
       0.3684 -0.08105 0.2925 0.0895 -0.2322 -0.2079 -0.2279 -0.2135
0000c0 5b 30 79 ae 91 b1 d8 ac 84 3a 60 31 03 32 a2 30
       0.1361 -0.10114 -0.174 -0.0757 0.8145 0.168 0.1879 0.1448
0000d0 95 aa 30 34 a9 32 6f 34 67 32 11 2d 83 2d 4e 33
       -0.05142 0.2617 0.2081 0.277 0.2001 0.07916 0.0861 0.2283
0000e0 ba 39 dd 2e 4e 30 ee 35 12 36 57 32 1c a4 bb 36
       0.716 0.10724 0.1345 0.3706 0.3794 0.1981 -0.01605 0.4207
0000f0 9e 3f 7b 2d 60 b6 15 b3 2f b8 44 b0 ef 31 f4 36
       1.904 0.08563 -0.3984 -0.2213 -0.523 -0.1333 0.1854 0.4346
000100 2f 30 79 34 24 a7 42 b5 b1 b1 86 32 5a b2 a1 34
       0.1307 0.2795 -0.0279 -0.3286 -0.1779 0.2039 -0.1985 0.2893
000110 8f a9 4d b5 57 33 04 b5 c1 a6 69 a6 39 b5 bc b2
       -0.04343 -0.3313 0.2294 -0.3135 -0.02638 -0.02504 -0.3264 -0.2104
000120 1f af 3b b4 4a 29 39 b4 65 21 d8 b1 38 b9 79 b5
       -0.11127 -0.2644 0.04132 -0.264 0.01054 -0.1826 -0.6523 -0.342
000130 9a be 1d 3a 7c bd b7 b3 e4 39 22 b5 20 34 4b 37
       -1.65 0.764 -1.371 -0.2411 0.7363 -0.3208 0.2578 0.4558
000140 14 29 84 a5 ed a3 01 a8 b3 2a 1e af c8 2e de 2f
       0.03967 -0.02155 -0.01548 -0.03128 0.05234 -0.1112 0.10596 0.1229
000150 a9 2a 03 b0 29 ab 4e a8 9c 2c 92 30 2e 30 51 31
       0.05203 -0.1254 -0.05594 -0.03363 0.072 0.1428 0.1306 0.1661
000160 7c a8 12 2d a3 2a 7b a4 dd b0 9e ad 37 b2 fb 30
       -0.03503 0.0792 0.05185 -0.0175 -0.152 -0.08777 -0.1942 0.1556
000170 7e 37 53 b5 63 b0 bc b6 b8 38 f4 af 56 b8 eb b0
       0.4683 -0.3328 -0.1371 -0.421 0.59 -0.12427 -0.542 -0.1537
000180 24 b9 41 35 2a b0 3a 38 ce 32 32 30 65 2f 19 b5
       -0.6426 0.3284 -0.1301 0.5283 0.2126 0.1311 0.11554 -0.3186
000190 58 2c 26 26 27 b4 3a b8 19 ba 76 ac e2 30 1a ac
       0.0679 0.02402 -0.2595 -0.5283 -0.762 -0.0697 0.1526 -0.0641
0001a0 c9 b8 d2 a5 6e 30 52 39 78 35 5b b5 c3 37 5d 35
       -0.598 -0.02274 0.1384 0.665 0.3418 -0.3347 0.485 0.3352
0001b0 1e ac 08 b6 f3 2e 8e ac 08 a5 4f ab 09 b1 b8 38
       -0.06433 -0.377 0.1086 -0.07117 -0.01965 -0.0571 -0.1573 0.59
0001c0 79 33 6c 3a 25 35 a9 b5 4e 38 c6 27 87 36 3c a7
       0.2335 0.8027 0.3215 -0.3538 0.538 0.03036 0.408 -0.02826
0001d0 dd 2b 2c b4 2b b4 46 b7 7d 23 b4 33 8c b1 ba 31
       0.06143 -0.2607 -0.2605 -0.4546 0.014626 0.2407 -0.1733 0.179
0001e0 b3 b8 44 39 23 35 8c bc d7 b9 7f b5 45 ae 6e be
       -0.5874 0.658 0.321 -1.137 -0.73 -0.3435 -0.09796 -1.607
0001f0 d8 35 0e 31 59 ac 3f 23 41 2a 48 a2 85 2a ba 2f
       0.3652 0.158 -0.06793 0.01415 0.04886 -0.01227 0.05093 0.1207

weight f2 [15]
000000 45 37 d2 37 24 37 d5 39 aa 34 9b 36 fb 37 bc 34
       0.4543 0.4888 0.4463 0.729 0.2915 0.4128 0.4988 0.296
000010 5f 38 e5 36 30 36 e1 35 36 35 61 36 8a 34
       0.5464 0.431 0.3867 0.3674 0.3257 0.3987 0.2837

bias f2 [15]
000000 58 39 b3 37 8f 3a cb b6 98 39 59 38 76 39 51 34
       0.668 0.4812 0.82 -0.4246 0.699 0.5435 0.6826 0.2698
000010 7c 2f 4b 3a 92 35 3a 39 22 39 2f 39 0d 37
       0.11694 0.7866 0.3481 0.6533 0.6416 0.648 0.4407

running_mean f2 [15]
000000 60 3b d3 bc da 36 c5 38 6b 32 c7 ba 60 ba 6c 38
       0.922 -1.206 0.4282 0.596 0.2006 -0.847 -0.797 0.5527
000010 50 bb d4 3c 3f 3c c9 38 8a bb 34 b7 f9 b9
       -0.914 1.207 1.062 0.598 -0.9424 -0.4502 -0.7466

running_var f2 [15]
000000 3b 3c 28 41 83 39 57 36 90 39 53 3e 49 3a 83 36
       1.058 2.578 0.689 0.3962 0.6953 1.581 0.7856 0.407
000010 42 3e 4b 39 20 3a 75 38 fc 38 63 3b 7b 38
       1.564 0.6616 0.7656 0.557 0.623 0.9233 0.56

weight f2 [40, 15, 1, 1]
000000 d2 30 44 a0 2c b1 91 b1 04 b3 1e 36 0b 20 26 20
       0.1506 -0.00833 -0.1616 -0.174 -0.2192 0.3823 0.0079 0.0081
000010 60 ae 39 ac 8b 1a 5e a9 67 b8 fb b4 4d 33 a5 32
       -0.0996 -0.066 0.003195 -0.04193 -0.5503 -0.3113 0.2281 0.2076
000020 36 b1 f8 32 48 b4 4b 30 4f 2e 1c 29 8d a1 29 23
       -0.1628 0.2178 -0.2676 0.1342 0.0986 0.03992 -0.01084 0.013985
000030 98 33 88 b1 90 b2 83 2f 1a ac ae 31 0a 27 dd 22
       0.2373 -0.1729 -0.2051 0.1174 -0.0641 0.1775 0.0275 0.013405
000040 0e b2 4a ad 4e b3 6f b0 ae 34 b7 ad 12 30 37 39
       -0.1892 -0.08264 -0.2283 -0.1385 0.2925 -0.0893 0.1272 0.652
000050 b4 32 bf b5 eb a9 de 2c 6b b4 33 29 72 30 1c af
       0.2095 -0.3591 -0.04623 0.07605 -0.2761 0.04062 0.1389 -0.1111
000060 3b ab a3 ac 6c 32 c4 a1 e6 b1 19 b0 3b b5 6b b4
       -0.0565 -0.07245 0.2007 -0.01126 -0.1843 -0.128 -0.327 -0.2761
000070 01 28 09 aa 57 2a be 2f 01 36 2b 2f 71 22 58 b3
       0.03128 -0.04715 0.04953 0.121 0.3752 0.112 0.01258 -0.2295
000080 a2 2f 08 21 b4 ae 54 a1 75 28 75 23 93 b0 1b 32
       0.11926 0.00983 -0.10474 -0.01041 0.03482 0.014565 -0.143 0.1908
000090 b5 33 5e b1 a1 31 52 b5 03 ae ed ae f7 a9 b7 b2
       0.2408 -0.1677 0.1759 -0.3325 -0.09393 -0.1082 -0.0466 -0.2098
0000a0 41 2c 6a b3 e7 2e 23 29 4a b4 05 2a bf 30 f2 a4
       0.06647 -0.2317 0.10785 0.04013 -0.268 0.04703 0.1483 -0.01932
0000b0 fb 27 cb ad b0 37 d7 a7 78 ad 25 a5 c9 b0 58 ae
       0.03117 -0.0905 0.4805 -0.03062 -0.08545 -0.0201 -0.1495 -0.0991
0000c0 82 af 82 a1 c1 32 74 21 98 b0 69 a5 e0 9d c8 31
       -0.1173 -0.01076 0.211 0.01065 -0.1436 -0.02113 -0.005737 0.1807
0000d0 0d a2 ac a6 2f 34 f1 29 22 31 c7 29 96 34 d5 b0
       -0.01182 -0.02606 0.2615 0.04642 0.1604 0.04514 0.2866 -0.151
0000e0 64 2c 99 ac 15 ac c7 8e 12 32 df b4 c2 b0 05 33
       0.0686 -0.07184 -0.0638 -0.0004137 0.1897 -0.3044 -0.1487 0.2194
0000f0 22 2e 6c 1d 16 38 15 b2 fa 25 99 b4 85 b4 bd b2
       0.0958 0.005295 0.5107 -0.1901 0.02335 -0.2874 -0.2825 -0.2106
000100 f4 b0 c5 a8 31 b1 2f 35 25 24 06 01 f7 29 9b 35
       -0.1548 -0.03726 -0.1622 0.324 0.01619 1.56e-05 0.0466 0.3503
000110 10 a4 f5 96 51 b1 55 a8 03 a9 3f b8 d1 ac 7b b0
       -0.01587 -0.0016985 -0.1661 -0.03384 -0.03915 -0.531 -0.07526 -0.14
000120 b7 a8 2c a7 5a 35 b1 b0 cc b4 4a 2e 7b a5 b7 99
       -0.03683 -0.02802 0.3345 -0.1466 -0.2998 0.09827 -0.02141 -0.00279
000130 e1 af 46 ac a3 2f ad b7 a8 b3 a2 31 5f b4 00 b0
       -0.1231 -0.0668 0.1193 -0.4797 -0.2393 0.176 -0.2732 -0.125
000140 7b 21 13 ae cb a2 b9 31 d5 a4 61 2c 1b 27 be 2d
       0.010704 -0.0949 -0.01327 0.1788 -0.01888 0.0684 0.02776 0.0897
000150 73 a6 2e 21 75 b1 f5 34 13 39 be 30 dc 2c 46 ae
       -0.02519 0.01012 -0.1705 0.3098 0.6343 0.1482 0.0759 -0.098
000160 0c 2f 24 2c 08 b0 91 af da b3 e7 30 89 a4 08 ad
       0.1101 0.0647 -0.126 -0.1182 -0.2454 0.1532 -0.01772 -0.0786
000170 0e 2f 1b ad 57 30 5b 19 08 ab 86 2d e0 2e ee b5
       0.1102 -0.0798 0.1356 0.002615 -0.05493 0.0863 0.1074 -0.3706
000180 c3 2e 5f 36 4a b0 26 b1 07 32 02 ad c3 2f 87 a6
       0.10565 0.3982 -0.134 -0.1609 0.1884 -0.07825 0.1213 -0.0255
000190 d3 ac e2 a4 88 b4 ba 20 39 2c 96 31 1b 2d bb 31
       -0.0754 -0.01907 -0.2832 0.00923 0.066 0.1746 0.0798 0.1791
0001a0 f4 26 89 ac ea a6 4c b0 06 30 02 b2 3d ac 31 2d
       0.02716 -0.07086 -0.02701 -0.1343 0.1257 -0.1877 -0.0662 0.0811
0001b0 4c b4 92 30 91 2e e3 a3 6b 30 a7 33 94 b2 4d 2a
       -0.2686 0.1428 0.1026 -0.0154 0.1381 0.2391 -0.2056 0.04922
0001c0 11 b4 6f 2d 30 36 eb a8 4e a9 39 30 55 35 6a 30
       -0.2542 0.0849 0.3867 -0.03842 -0.04144 0.132 0.3333 0.138
0001d0 ea ae c7 a4 4d 31 22 ae d1 32 f6 2c c7 b1 a2 34
       -0.10803 -0.01866 0.1656 -0.0958 0.213 0.0775 -0.1805 0.2896
0001e0 87 ba bb ac 82 b0 3d b6 b5 18 f2 a4 98 34 7d 32
       -0.816 -0.0739 -0.1409 -0.39 0.002298 -0.01932 0.287 0.2028
0001f0 26 29 17 a9 27 ab 37 31 a7 a8 f0 b1 e2 28 df b1
       0.04022 -0.03976 -0.05588 0.163 -0.03635 -0.1855 0.03815 -0.1835

weight f2 [40]
000000 00 3c ff 3b ba 3b 00 3c 00 3c 00 3c 00 3c 00 3c
       1.0 0.9995 0.966 1.0 1.0 1.0 1.0 1.0
000010 00 3c 00 3c 00 3c 00 3c 00 3c 00 3c 00 3c 00 3c
       1.0 1.0 1.0 1.0 1.0 1.0 1.0 1.0
000020 00 3c 00 3c 00 3c 00 3c 00 3c 00 3c 00 3c 00 3c
       1.0 1.0 1.0 1.0 1.0 1.0 1.0 1.0
000030 00 3c 00 3c 00 3c 00 3c ff 3b 00 3c ff 3b 00 3c
       1.0 1.0 1.0 1.0 0.9995 1.0 0.9995 1.0
000040 00 3c 00 3c 00 3c 00 3c 6b 38 00 3c 00 3c 00 3c
       1.0 1.0 1.0 1.0 0.5522 1.0 1.0 1.0

bias f2 [40]
000000 23 a0 2a 37 1b 38 ac 2f 57 30 62 ab d6 24 61 28
       -0.00808 0.4478 0.513 0.1199 0.1356 -0.05768 0.01889 0.0342
000010 dc ad 1a af e9 32 97 ae 63 2d d1 a6 47 a6 02 28
       -0.09155 -0.11096 0.216 -0.10297 0.08417 -0.02663 -0.02452 0.0313
000020 37 34 47 2c f6 31 65 34 b7 2f 0a 36 16 31 ad 32
       0.2634 0.06683 0.1863 0.2747 0.12054 0.3774 0.1589 0.2086
000030 99 2e 2f 2b 08 ab a8 2d 3a 33 fc ab 58 35 54 30
       0.1031 0.05612 -0.05493 0.0884 0.2258 -0.06238 0.334 0.1353
000040 d0 ae 03 25 2b 29 2b 31 4d 37 3e 2a 2c 28 af 36
       -0.10645 0.01958 0.04037 0.1615 0.4563 0.04877 0.0326 0.4177

running_mean f2 [40]
000000 7f b8 86 37 d3 2d fa b4 20 38 df b9 58 2e d0 30
       -0.562 0.4702 0.091 -0.311 0.5156 -0.734 0.0991 0.1504
000010 f1 30 d1 b5 99 b8 bc 37 ba 30 67 2c 26 b1 fb 3a
       0.1544 -0.3635 -0.5747 0.4834 0.1477 0.0688 -0.1609 0.8726
000020 a2 b8 12 b9 18 39 54 b3 e0 b0 d3 38 a1 30 12 35
       -0.579 -0.634 0.6367 -0.229 -0.1523 0.603 0.1447 0.317
000030 56 b5 33 2d 88 b8 cb b3 cb 2d dc b9 61 b3 1d b9
       -0.3335 0.08124 -0.5664 -0.2435 0.0905 -0.7324 -0.2306 -0.639
000040 4d b2 c6 ac 8b 39 e5 b7 7f b0 94 39 c9 a2 9f b1
       -0.1969 -0.0746 0.693 -0.4934 -0.1405 0.6973 -0.01325 -0.1757

running_var f2 [40]
000000 fc 2c ac 30 2d 31 50 2c 28 2c 1b 2e 45 2b 55 2c
       0.0779 0.146 0.1617 0.0674 0.06494 0.0954 0.0568 0.0677
000010 68 2e 63 2e c8 2d c1 2c 88 2c f6 29 80 2c 07 2b
       0.1001 0.0998 0.09033 0.0743 0.0708 0.04657 0.0703 0.0549
000020 76 31 a0 29 ae 31 fd 2b 1f 2c 80 2c 85 30 22 2e
       0.1707 0.04395 0.1775 0.0624 0.0644 0.0703 0.1412 0.0958
000030 1b 2e 4f 28 c7 2c 15 29 ff 33 ea 2d 33 2f ba 2f
       0.0954 0.03366 0.07465 0.0397 0.2499 0.0924 0.1125 0.1207
000040 52 2c e0 2c 91 2a 0f 32 2f 34 02 2b ca 2e f0 2f
       0.0675 0.0762 0.0513 0.1893 0.2615 0.05475 0.1061 0.124

weight f2 [40, 1, 3, 3]
000000 cd 31 4f ac 4e b1 62 b5 df 32 2d 39 0d 99 cf b0
       0.1813 -0.0673 -0.1658 -0.3364 0.2147 0.647 -0.002466 -0.1503
000010 11 30 83 25 b7 b1 25 b2 d3 34 8a 31 a2 b6 92 ac
       0.1271 0.02153 -0.1786 -0.192 0.3015 0.1731 -0.4146 -0.0714
000020 5d 28 d7 b2 55 32 9b 29 7c b4 aa 33 52 38 ed b9
       0.0341 -0.2137 0.1979 0.0438 -0.2803 0.2395 0.54 -0.7407
000030 09 b4 54 36 99 af c5 ac 43 14 7e 2c be 34 4b 33
       -0.2522 0.3955 -0.1187 -0.0745 0.00104 0.0702 0.2964 0.2279
000040 49 b8 12 b0 e7 2f bc a6 da b1 0f 30 01 32 7d 36
       -0.5356 -0.1272 0.1235 -0.0263 -0.1829 0.1268 0.1876 0.4055
000050 b3 2f 1f b4 38 32 b6 b2 b1 27 26 2f 6b a8 de b0
       0.1203 -0.2576 0.1943 -0.2097 0.03004 0.1117 -0.03452 -0.1521
000060 3d 36 55 31 c1 b6 53 b2 2f a5 f7 31 53 31 f7 b4
       0.39 0.1666 -0.422 -0.1976 -0.02025 0.1864 0.1664 -0.3103
000070 54 b3 ed b0 82 af 8e 31 ab 10 5b 36 59 30 65 35
       -0.229 -0.1539 -0.1173 0.1736 0.00057 0.3972 0.1359 0.3372
000080 b4 b3 20 26 9b a8 b8 b4 fa b1 17 b2 a4 2d 3f a7
       -0.2407 0.02393 -0.03598 -0.295 -0.1868 -0.1903 0.08813 -0.0283
000090 43 b0 c8 30 ef 31 a9 b5 d1 23 8c 36 77 b4 59 2e
       -0.1332 0.1494 0.1854 -0.3538 0.01527 0.4092 -0.279 0.0992
0000a0 bd 33 22 b5 2d b2 e0 2b 58 b5 5f 34 ea 28 08 ac
       0.2418 -0.3208 -0.193 0.06152 -0.334 0.2732 0.0384 -0.063
0000b0 43 35 b5 2e 49 36 c4 a8 a0 b1 c3 2c 53 2d f2 1b
       0.3289 0.1048 0.3928 -0.03723 -0.1758 0.0744 0.0832 0.00388
0000c0 b2 a5 55 32 3f 34 0d ab ae 32 4d b0 c8 2f 83 32
       -0.02225 0.1979 0.2654 -0.05508 0.2087 -0.1344 0.1216 0.2035
0000d0 4a b0 14 b4 73 b8 a0 ac 3c 2b 14 b5 59 a5 1b b4
       -0.134 -0.255 -0.556 -0.07227 0.05652 -0.3174 -0.02089 -0.2566
0000e0 48 b2 ac 33 94 b2 c6 32 d7 34 d7 b0 90 28 b0 2d
       -0.1963 0.2397 -0.2056 0.2117 0.3025 -0.1512 0.03564 0.08887
0000f0 c8 ae 63 31 28 32 a7 2d e7 b4 fd 28 cc 29 b3 31
       -0.10596 0.1683 0.1924 0.0883 -0.3064 0.03897 0.0453 0.1781
000100 9e 2d f8 b3 72 ae b3 33 19 b5 22 2e c5 36 e4 33
       0.08777 -0.249 -0.1007 0.2406 -0.3186 0.0958 0.423 0.2466
000110 76 ac 0b af d8 a5 e4 31 d8 ad 07 b4 65 33 75 34
       -0.0697 -0.11005 -0.02283 0.1841 -0.0913 -0.2517 0.2311 0.2786
000120 11 2c eb 33 5f 32 2a 38 1b 30 74 b7 c5 aa fc b2
       0.06354 0.2474 0.1991 0.5205 0.1283 -0.4658 -0.0529 -0.2183
000130 d1 b4 80 31 c6 2e 66 2d c3 34 24 a8 ef 30 0c 2e
       -0.301 0.1719 0.10583 0.08435 0.2976 -0.03235 0.1542 0.0945
000140 e8 29 62 1e 22 b0 17 a9 e1 31 da b4 10 b4 75 38
       0.04614 0.006233 -0.1292 -0.03976 0.1837 -0.3032 -0.254 0.557
000150 86 ae a9 b2 38 35 66 ab 72 35 4a ac cf 30 03 35
       -0.1019 -0.2081 0.3262 -0.0578 0.3403 -0.067 0.1503 0.3132
000160 94 b6 98 31 43 b4 80 b0 5e 2c a4 2e 07 b4 c5 34
       -0.4111 0.1748 -0.2664 -0.1406 0.06824 0.10376 -0.2517 0.298
000170 b1 2f f6 b1 26 28 d7 31 4e 2f 51 b0 7c b5 4b 30
       0.1202 -0.1863 0.0324 0.1825 0.11414 -0.1349 -0.3428 0.1342
000180 1b 36 a0 2b f5 b6 ad b1 07 34 67 31 50 b7 35 a8
       0.3816 0.05957 -0.4348 -0.1774 0.2517 0.1688 -0.457 -0.03287
000190 ab 31 19 38 74 36 a9 b3 73 33 3b b4 39 b4 bc 32
       0.1771 0.512 0.4033 -0.2394 0.2328 -0.2644 -0.264 0.2104
0001a0 d6 25 04 b5 95 b4 a0 b5 27 36 55 b4 cb 34 68 30
       0.0228 -0.3135 -0.2864 -0.3516 0.3845 -0.2708 0.2996 0.1377
0001b0 cf 30 20 35 4e 21 5a 2b b8 2d 47 b6 7d a9 11 b6
       0.1503 0.3203 0.01036 0.05743 0.08936 -0.3923 -0.04288 -0.3792
0001c0 e0 af fa ac 2a ac 0b 2d ba b4 6f 33 b3 33 52 b2
       -0.12305 -0.07776 -0.06506 0.0788 -0.2954 0.2323 0.2406 -0.1975
0001d0 f2 2d d6 b3 0a b3 22 b4 db 30 d2 ac 67 30 1e b3
       0.0929 -0.2449 -0.22 -0.2583 0.1517 -0.0753 0.1376 -0.2224
0001e0 2b 34 13 19 63 b4 41 af ba b5 31 1f 13 a8 9c ac
       0.2605 0.002478 -0.2742 -0.11334 -0.358 0.007023 -0.03183 -0.072
0001f0 64 33 9c ad 37 a8 29 31 1f aa 9b b2 de 2e 7a ba
       0.231 -0.08765 -0.03293 0.1613 -0.04782 -0.2064 0.1073 -0.8096

weight f2 [40]
000000 fe 37 55 38 8d 39 d8 35 35 37 84 38 1a 37 63 37
       0.4995 0.5415 0.694 0.3652 0.4504 0.5645 0.4438 0.4617
000010 a1 38 e5 37 43 36 31 37 fa 37 e3 3a 7a 35 8e 35
       0.5786 0.4934 0.3914 0.4495 0.4985 0.861 0.3423 0.3472
000020 4a 38 cf 34 d9 37 1a 38 1a 38 00 38 32 38 ee 38
       0.536 0.3005 0.4905 0.5127 0.5127 0.5 0.5244 0.616
000030 5e 37 81 36 d8 36 e2 35 48 39 af 36 1c 38 c8 36
       0.4604 0.4065 0.4277 0.3677 0.66 0.4177 0.5137 0.4238
000040 39 37 5e 37 ec 35 e2 38 50 3a 16 37 bd 36 d1 38
       0.4514 0.4604 0.37 0.6104 0.789 0.4429 0.4211 0.602

bias f2 [40]
000000 b6 0d 80 90 57 0c 60 07 44 91 c4 88 10 0b da 0d
       0.0003486 -0.0005493 0.000265 0.00011253 -0.000643 -0.0001454 0.0002155 0.0003572
000010 e9 0f 54 03 f4 8d a3 14 38 0c c2 07 65 13 29 8b
       0.0004828 5.08e-05 -0.0003633 0.001132 0.0002575 0.0001184 0.0009027 -0.0002185
000020 7e 17 09 10 f9 10 77 91 a7 8a 32 10 03 15 a5 13
       0.001829 0.0004926 0.000607 -0.000667 -0.000203 0.000512 0.001224 0.000933
000030 f3 0c a8 0c b1 8c 44 09 e1 8d ab 8e e7 90 f7 10
       0.000302 0.0002842 -0.0002863 0.0001607 -0.0003588 -0.000407 -0.0005984 0.000606
000040 27 12 14 10 da 03 70 0c f8 90 7a 89 27 0d 35 0c
       0.000751 0.000498 5.877e-05 0.0002708 -0.0006065 -0.0001671 0.0003145 0.0002568

running_mean f2 [40]
000000 33 31 68 b5 c5 29 07 a3 c2 31 bf 22 fa 24 e1 b2
       0.1625 -0.338 0.04507 -0.013725 0.1799 0.013176 0.01944 -0.215
000010 b8 2e b5 a4 e0 35 c8 b2 9e ad d9 21 fd 2f 0f 31
       0.105 -0.01839 0.3672 -0.2119 -0.08777 0.01142 0.1248 0.1581
000020 02 2b db 35 86 23 fc 28 cf 31 df aa 57 29 65 ad
       0.05475 0.366 0.014694 0.03894 0.1815 -0.05368 0.04172 -0.0843
000030 60 af b4 ac 10 b1 f3 ae 06 a9 d2 2d e5 2f 78 b5
       -0.11523 -0.0735 -0.1582 -0.1086 -0.03925 0.09094 0.12335 -0.3418
000040 26 af b8 b3 39 b5 b7 24 2c ad b5 ad 86 2e 4b a8
       -0.1117 -0.2412 -0.3264 0.01842 -0.0808 -0.0892 0.1019 -0.03354

running_var f2 [40]
000000 20 32 74 30 4e 34 81 2a 5f 2d 95 2a c0 2e ab 2f
       0.1914 0.1392 0.269 0.0508 0.0839 0.05142 0.10547 0.1198
000010 98 30 28 30 24 31 6f 32 36 2e 8d 29 65 2f 01 2c
       0.1436 0.1299 0.1606 0.201 0.09705 0.04337 0.11554 0.06256
000020 f6 32 6e 30 4f 31 f2 30 81 2e ad 2e 5d 2f f8 2e
       0.2175 0.1384 0.1659 0.1545 0.1016 0.1043 0.11505 0.1089
000030 8e 2f c5 2e 51 2c aa 2e b7 34 5f 2d e2 32 14 2e
       0.11804 0.1058 0.06744 0.1041 0.2947 0.0839 0.2151 0.095
000040 22 2d c3 34 9d 31 3c 30 82 30 40 2d 57 2f 0a 32
       0.0802 0.2976 0.1754 0.1323 0.1409 0.08203 0.1147 0.1887

weight f2 [10, 40, 1, 1]
000000 88 2d 6e 14 ca ad 75 a7 0d b7 f0 32 22 34 cc 34
       0.0864 0.001081 -0.09045 -0.02913 -0.4407 0.2168 0.2583 0.2998
000010 aa 27 3f 32 c0 ad 0f 36 e3 a8 2d 2b 83 2d 58 26
       0.02994 0.1952 -0.08984 0.3787 -0.03818 0.05606 0.0861 0.02478
000020 d9 39 15 aa f4 28 86 b2 b7 ae 9a 29 f6 30 f1 36
       0.731 -0.04752 0.0387 -0.2039 -0.1049 0.04376 0.155 0.4338
000030 4f 2c 41 2f 01 2d 19 31 60 b2 6c 9d 3e b4 42 31
       0.0673 0.11334 0.0782 0.1593 -0.1992 -0.005295 -0.2651 0.1643
000040 f8 31 5e ac cb ac a4 1c 2d ac 80 21 59 34 7d b2
       0.1865 -0.06824 -0.0749 0.00453 -0.06525 0.01074 0.2717 -0.2028
000050 72 32 72 b1 93 b1 45 b2 05 24 ae 31 25 2d 17 32
       0.2014 -0.1702 -0.1742 -0.1959 0.0157 0.1775 0.0804 0.1903
000060 d6 b6 cc b1 93 ab d8 32 c3 28 ba 22 08 b3 39 2d
       -0.4272 -0.1812 -0.05917 0.2139 0.0372 0.01314 -0.2197 0.0816
000070 e3 2d fc b2 5f 2e 8d 21 57 34 5d b1 d2 b1 af a4
       0.092 -0.2183 0.09955 0.01084 0.2712 -0.1676 -0.1819 -0.0183
000080 d1 34 95 b4 1b a4 4d b0 8f 34 54 2c f0 33 af b7
       0.301 -0.2864 -0.01604 -0.1344 0.285 0.0676 0.248 -0.4802
000090 4b 34 ca b8 ff 23 41 2f f6 ac e9 b3 1e 33 32 9c
       0.2683 -0.5986 0.01562 0.11334 -0.0775 -0.2472 0.2224 -0.004097
0000a0 d0 38 1c 34 63 33 d1 af 12 a4 2d b4 32 ad 47 b4
       0.6016 0.2568 0.2308 -0.12213 -0.0159 -0.261 -0.0812 -0.2673
0000b0 fc 1d 57 ab 49 b6 36 2d 70 32 8b a9 b3 31 09 37
       0.005844 -0.05734 -0.3928 0.0814 0.2012 -0.0433 0.1781 0.4397
0000c0 ab 25 4d b5 32 b1 b9 26 1f b0 ba 37 1f 2d 1b a8
       0.02214 -0.3313 -0.1624 0.02626 -0.1288 0.483 0.08 -0.03207
0000d0 f1 a9 96 2a 63 33 ae 30 05 b0 41 b4 60 b4 eb a4
       -0.04642 0.05145 0.2308 0.1462 -0.1256 -0.2659 -0.2734 -0.01921
0000e0 39 aa 44 ac ff a4 1e 34 f7 a8 1c 32 b9 a9 6e 2e
       -0.0486 -0.06665 -0.01952 0.2573 -0.0388 0.1909 -0.0447 0.10046
0000f0 b7 2f 76 ab b7 2d 46 2e 27 a8 4f a7 f0 b2 fa 32
       0.12054 -0.0583 0.0893 0.098 -0.03244 -0.02855 -0.2168 0.218
000100 a0 ac f6 a5 c8 a6 cb 2c e5 b2 84 aa dd 33 60 2e
       -0.07227 -0.02328 -0.02649 0.0749 -0.2155 -0.0509 0.2457 0.0996
000110 ee b0 ef 18 30 38 89 33 6c b3 c1 2b b5 35 8a 30
       -0.154 0.002409 0.5234 0.2355 -0.2319 0.06058 0.3567 0.1418
000120 cb b1 44 30 fe a8 56 25 6c 30 03 36 c5 2c c9 30
       -0.181 0.1333 -0.039 0.02084 0.1382 0.3757 0.0745 0.1495
000130 c0 ad 48 2d 01 29 d8 2c 71 ba 2b ac ca 37 6c 31
       -0.08984 0.0825 0.0391 0.0757 -0.805 -0.0651 0.4868 0.1694
000140 47 b1 4b a7 24 37 9d b0 9b b2 26 2c 7f b1 41 a8
       -0.1649 -0.02849 0.4463 -0.1442 -0.2064 0.0648 -0.1718 -0.03323
000150 0f 38 98 34 e6 ad 07 ab 0f b4 2d b1 f9 a1 a0 a7
       0.5073 0.287 -0.09216 -0.0549 -0.2537 -0.1617 -0.011665 -0.02979
000160 cc 23 e7 21 4d b3 35 b2 43 34 ea 27 8d a7 69 2e
       0.01523 0.01153 -0.2281 -0.194 0.2664 0.03091 -0.0295 0.10016
000170 0c ac 25 30 4f ae 08 a6 7f b9 37 ad a3 31 bf 30
       -0.06323 0.1295 -0.0986 -0.02356 -0.687 -0.0815 0.1761 0.1483
000180 1c 37 be 2f 55 2e c9 2c 31 aa 12 b3 d7 b2 4b 37
       0.4443 0.121 0.09894 0.07477 -0.04837 -0.221 -0.2137 0.4558
000190 d4 2e 50 31 8b 32 aa ac 32 ac 19 b2 a9 a9 ae b0
       0.1067 0.166 0.2045 -0.0729 -0.06555 -0.1906 -0.04422 -0.1462
0001a0 53 25 52 36 59 a7 b3 b1 a7 b5 9d a7 3f af e3 31
       0.0208 0.395 -0.0287 -0.1781 -0.3533 -0.02974 -0.1132 0.184
0001b0 6d b3 fd b3 65 af e0 38 12 ac 1f 11 13 b8 e3 af
       -0.232 -0.2496 -0.11554 0.6094 -0.0636 0.000625 -0.5093 -0.1232
0001c0 86 b2 f7 2f 69 35 62 24 95 b5 82 31 1c 10 58 b1
       -0.2039 0.12445 0.3381 0.01712 -0.3489 0.1721 0.0005016 -0.167
0001d0 5f b2 3b b6 b9 25 88 b1 a9 a9 e7 ac 0d 30 c2 a4
       -0.1991 -0.3894 0.02235 -0.1729 -0.04422 -0.0766 0.1266 -0.01859
0001e0 10 b0 72 35 47 30 d4 ae 10 a4 3f b0 96 b2 cc 30
       -0.127 0.3403 0.1337 -0.1067 -0.01587 -0.1327 -0.2058 0.1499
0001f0 24 28 6e 2c c2 37 89 31 b1 8b 9f 2b f0 29 66 b0
       0.03235 0.0692 0.4849 0.173 -0.0002347 0.05954 0.0464 -0.1375

weight f2 [25]
000000 75 34 85 35 5e 34 c2 35 b2 33 0c 34 a7 35 02 36
       0.2786 0.345 0.273 0.3599 0.2405 0.253 0.3533 0.3755
000010 e8 31 74 34 ef 38 a7 3c c7 35 b0 38 ad 34 33 3c
       0.1846 0.2783 0.6167 1.163 0.361 0.586 0.2922 1.05
000020 62 37 fc 34 7e 39 8c 35 9c 37 59 35 2b 34 29 38
       0.4614 0.3115 0.6865 0.3467 0.4756 0.3342 0.2605 0.52
000030 0c 37
       0.4404

bias f2 [25]
000000 c7 2f 70 2c 31 32 13 33 db 19 6d 32 fa 2f ab 23
       0.1215 0.06934 0.1935 0.2211 0.00286 0.2008 0.12463 0.01498
000010 40 33 39 33 06 3c 05 b4 28 39 b3 b6 52 38 e0 b6
       0.2266 0.2257 1.006 -0.2512 0.6445 -0.4187 0.54 -0.4297
000020 4c 35 84 31 82 b0 e0 35 99 39 ac 35 2f 37 bb 30
       0.331 0.1724 -0.1409 0.3672 0.6997 0.3545 0.449 0.1478
000030 59 a9
       -0.04178

running_mean f2 [25]
000000 77 1b 41 92 47 12 d5 15 c2 14 63 99 93 8c 77 8e
       0.003645 -0.0007634 0.0007663 0.001424 0.001162 -0.00263 -0.0002792 -0.0003946
000010 05 01 d5 97 60 3b d3 bc da 36 c5 38 6b 32 c7 ba
       1.556e-05 -0.001912 0.922 -1.206 0.4282 0.596 0.2006 -0.847
000020 60 ba 6c 38 50 bb d4 3c 3f 3c c9 38 8a bb 34 b7
       -0.797 0.5527 -0.914 1.207 1.062 0.598 -0.9424 -0.4502
000030 f9 b9
       -0.7466

running_var f2 [25]
000000 48 3b 13 3b 1a 3a 7e 3d c7 3d ee 3a b1 3c 48 3c
       0.91 0.8843 0.7627 1.373 1.444 0.866 1.173 1.07
000010 23 39 ed 3b 3b 3c 28 41 83 39 57 36 90 39 53 3e
       0.642 0.9907 1.058 2.578 0.689 0.3962 0.6953 1.581
000020 49 3a 83 36 42 3e 4b 39 20 3a 75 38 fc 38 63 3b
       0.7856 0.407 1.564 0.6616 0.7656 0.557 0.623 0.9233
000030 7b 38
       0.56

weight f2 [40, 25, 1, 1]
000000 92 b2 af 09 3c ac e9 a8 ea 30 a0 2c 4b 2d db 31
       -0.2053 0.0001734 -0.06616 -0.03836 0.1536 0.07227 0.0827 0.183
000010 71 2c 5a 31 a8 20 bc 37 77 29 d6 a9 57 b0 87 b2
       0.0694 0.1672 0.009094 0.4834 0.0427 -0.0456 -0.1356 -0.204
000020 49 34 e7 ae 42 b0 2b ae 13 b2 15 a8 8e 28 5f 37
       0.2678 -0.10785 -0.133 -0.0964 -0.1898 -0.0319 0.03558 0.4607
000030 94 a8 32 2a 77 b2 8e b1 e9 34 56 28 3f b1 68 b1
       -0.03577 0.0484 -0.202 -0.1736 0.307 0.03387 -0.164 -0.169
000040 1b aa 88 28 eb b0 f7 2d 21 a5 68 2c fb ac 5a 35
       -0.0477 0.0354 -0.1537 0.0932 -0.02003 0.06885 -0.0778 0.3345
000050 37 b1 64 ab 99 b0 56 b6 36 32 5b 2a 81 af e2 2e
       -0.163 -0.05774 -0.1437 -0.396 0.1941 0.04965 -0.11725 0.10754
000060 d9 ae b7 b4 6c a8 4e b0 1c b5 9f 20 a9 2b d4 2e
       -0.107 -0.2947 -0.03455 -0.1345 -0.3193 0.009026 0.05984 0.1067
000070 bf 30 62 2b d3 35 ef b0 33 a9 9c 2c 08 35 fd aa
       0.1483 0.05768 0.364 -0.1542 -0.04062 0.072 0.3145 -0.0546
000080 13 a4 5c 2e 9e b4 38 b5 ca 2e 5d 2b 0a 31 89 ac
       -0.01591 0.09937 -0.2886 -0.3262 0.1061 0.05753 0.1575 -0.07086
000090 ce 29 09 35 9c 2a d1 29 f9 ac d9 2a 68 2f 5f ab
       0.04535 0.3147 0.05164 0.04544 -0.0777 0.0535 0.1157 -0.0576
0000a0 51 ad a5 34 98 b1 da 25 56 31 5a b1 5c a2 1e b6
       -0.08307 0.2903 -0.1748 0.02286 0.1667 -0.1672 -0.01242 -0.3823
0000b0 a8 b1 b3 2d 33 b5 ae 34 70 ab 77 b6 22 b2 c9 b0
       -0.1768 0.08905 -0.325 0.2925 -0.0581 -0.404 -0.1917 -0.1495
0000c0 35 ad 02 ad f6 25 08 aa 7d ac 68 a6 0a ae 06 b0
       -0.08136 -0.07825 0.02328 -0.04712 -0.0701 -0.02502 -0.09436 -0.1257
0000d0 f9 2a d1 32 9f 2e 3f 30 5f 26 72 2f 50 b3 60 aa
       0.05447 0.213 0.10345 0.1327 0.02489 0.11633 -0.2285 -0.0498
0000e0 9e 29 e7 2d ec b1 29 ae 34 29 5f b2 25 31 6c 25
       0.04388 0.0922 -0.185 -0.09625 0.04065 -0.1991 0.1608 0.02118
0000f0 64 26 65 33 21 b4 70 b0 35 b0 4b 9c 05 aa e3 b3
       0.02496 0.2311 -0.258 -0.1387 -0.1315 -0.004192 -0.04703 -0.2465
000100 8d aa 2e 25 b8 a5 62 2a 92 34 49 2f 3e b1 c7 ac
       -0.05118 0.02023 -0.02234 0.04987 0.2856 0.11383 -0.1638 -0.07465
000110 5d b3 45 b1 c5 ae 9b 2e 38 ab 90 b4 96 28 d6 a3
       -0.2301 -0.1647 -0.1058 0.1032 -0.0564 -0.2852 0.03583 -0.015305
000120 75 2e fc 31 9a ae 71 a0 15 b3 a9 a1 e9 26 d5 2a
       0.1009 0.187 -0.10315 -0.008675 -0.2213 -0.011055 0.027 0.05338
000130 29 21 99 2d 00 a0 ba b1 6d ad 4e b3 5f 31 b8 2d
       0.01008 0.08746 -0.007812 -0.179 -0.0848 -0.2283 0.1678 0.08936
000140 1b b0 2c b2 d7 a9 6d 35 72 a3 c2 33 52 b1 86 b0
       -0.1283 -0.1929 -0.04562 0.339 -0.01454 0.2424 -0.1663 -0.1414
000150 cb 30 2c 9d 3e ac 43 a8 c5 a8 b8 b5 fe 2a 87 ae
       0.1498 -0.00505 -0.0663 -0.0333 -0.03726 -0.3574 0.05463 -0.102
000160 66 b3 11 af c6 aa 01 2f 6e 30 a1 32 14 2a b7 2e
       -0.2312 -0.1104 -0.05292 0.10944 0.1384 0.2072 0.0475 0.1049
000170 6d 29 e1 a0 0f 30 03 b5 7e 1f 54 30 1d 9d de 30
       0.0424 -0.00953 0.1268 -0.3132 0.007317 0.1353 -0.004993 0.1521
000180 95 b0 1f b4 68 32 5f 31 b6 b3 63 23 64 a0 b3 25
       -0.1432 -0.2576 0.2002 0.1678 -0.241 0.01443 -0.008575 0.02226
000190 a4 2c ab 31 6c ab fa 33 4d aa ab af 03 ab 13 2e
       0.0725 0.1771 -0.05798 0.2493 -0.04922 -0.1198 -0.05478 0.0949
0001a0 89 21 6d 30 09 b5 1a ac a7 ae 73 b4 2c b0 c2 9f
       0.01081 0.1383 -0.3147 -0.0641 -0.10394 -0.278 -0.1304 -0.007576
0001b0 3a b1 3f 2e 3c 31 29 20 e1 2e fa 30 76 b2 a7 b2
       -0.1633 0.0976 0.1636 0.008125 0.1075 0.1555 -0.2019 -0.2079
0001c0 78 b1 d1 aa 58 af 17 2e c8 2c 08 aa b2 b3 25 aa
       -0.1709 -0.05325 -0.11475 0.09515 0.0747 -0.04712 -0.2405 -0.048
0001d0 a3 34 a3 b0 80 29 42 36 91 2e c9 b4 84 ac b8 31
       0.2898 -0.1449 0.04297 0.391 0.1026 -0.299 -0.07056 0.1787
0001e0 91 b5 45 30 de aa c4 b3 79 33 ed 29 35 a6 77 30
       -0.348 0.1334 -0.05365 -0.2427 0.2335 0.0463 -0.02425 0.1395
0001f0 88 31 2b 9d a2 2b 94 34 91 2f f1 34 7c 2d 1a 28
       0.1729 -0.005047 0.05963 0.2861 0.1182 0.3088 0.0857 0.03204

weight f2 [40]
000000 00 3c 00 3c 00 3c 00 3c 00 3c 00 3c 00 3c 00 3c
       1.0 1.0 1.0 1.0 1.0 1.0 1.0 1.0
000010 00 3c fb 3b 00 3c 00 3c 00 3c 00 3c 00 3c 00 3c
       1.0 0.9976 1.0 1.0 1.0 1.0 1.0 1.0
000020 00 3c 00 3c 00 3c 00 3c 00 3c ff 3b 00 3c 00 3c
       1.0 1.0 1.0 1.0 1.0 0.9995 1.0 1.0
000030 00 3c 00 3c 00 3c 00 3c 00 3c 00 3c 00 3c 00 3c
       1.0 1.0 1.0 1.0 1.0 1.0 1.0 1.0
000040 00 3c 00 3c 00 3c 00 3c 00 3c 00 3c 00 3c 00 3c
       1.0 1.0 1.0 1.0 1.0 1.0 1.0 1.0

bias f2 [40]
000000 84 26 f4 b1 0c 95 54 31 af af fc 2e 3d b2 af 30
       0.02545 -0.186 -0.001232 0.1665 -0.12006 0.10913 -0.195 0.1464
000010 14 2d 71 34 d5 ae 06 b5 62 2e e2 2c 56 34 1f 29
       0.07935 0.2776 -0.10675 -0.314 0.09973 0.0763 0.271 0.04
000020 e8 30 77 35 02 30 99 34 ce 28 1e 2e 94 2e f5 a9
       0.1533 0.3416 0.1252 0.2874 0.03754 0.0956 0.1028 -0.04654
000030 8e 31 b5 34 e9 30 a5 a9 8c ad c3 2e ef a7 00 31
       0.1736 0.2942 0.1534 -0.0441 -0.0867 0.10565 -0.03099 0.1562
000040 f1 af 38 31 b9 2f 8c a8 1b 30 93 31 fa 2b 8f 34
       -0.1241 0.1631 0.12067 -0.03552 0.1283 0.1742 0.06232 0.285

running_mean f2 [40]
000000 97 30 79 2e 1b 34 8d b8 47 b5 e7 b4 dc b5 24 25
       0.1434 0.10114 0.2566 -0.569 -0.3298 -0.3064 -0.3662 0.02008
000010 40 b7 09 37 3f 38 5c a5 c6 2a 76 36 2e 30 64 b5
       -0.4531 0.4397 0.531 -0.02094 0.05292 0.4038 0.1306 -0.337
000020 5a ae 25 b5 fc b8 6e b6 9a 31 e0 37 50 b0 fa 32
       -0.09924 -0.3215 -0.623 -0.4019 0.175 0.4922 -0.1348 0.218
000030 b0 b7 13 b0 dd 3b 79 2e 04 a1 2d 37 8d b3 5d b4
       -0.4805 -0.1273 0.983 0.10114 -0.009796 0.4485 -0.236 -0.2727
000040 35 b9 d2 ba 8c 31 54 ab 4f b3 db b5 af 2d 70 36
       -0.651 -0.8525 0.1733 -0.05725 -0.2284 -0.366 0.0888 0.4023
