session6/densenet_mini_ref_petit_fact/save_model/save_model_state_final.pth (torch, 590886 bytes, 443 tensors)

weight f2 [3, 1, 3, 3]
00000000: 8bb6 67ba 06b7 56b4 c642 5e38 87b8 ef38
00000010: 3db6 d5b8 d138 60b9 7736 8cba b641 40b8
00000020: 283b 53b5 0339 0c37 3234 26b8 18c3 2f3a
00000030: 0439 c8b5 6e31
-0.409 -0.8003 -0.439 -0.271 3.387 0.546 -0.566 0.6167
-0.39 -0.604 0.602 -0.672 0.404 -0.8184 2.855 -0.5312
0.8945 -0.3328 0.6265 0.4404 0.2622 -0.5186 -3.547 0.773
0.627 -0.3613 0.1697

weight f2 [22, 3, 1, 1]
00000000: e838 90b3 5eb0 4839 4fb8 379a ee2d cab4
00000010: 10ba 0faf c42f a038 3e2c 673a e136 173a
00000020: 38b6 6730 cbac 4eb4 8c36 5829 e7ba adb6
00000030: aab9 1933 5db2 a7b8 aeb3 0fb8 e032 2a2b
00000040: 7e3b 67b9 91b1 25bc c539 53ba f937 8e39
00000050: 64ad e8ad 01b8 c52c 7629 e9b9 b238 ef33
00000060: a731 ccb9 7bb9 fa36 76ba a0b8 15b8 a539
00000070: 3e34 35ad 9037 e238 c5b9 213a dcb7 7a3c
00000080: e1b5 5c3a
0.6133 -0.2363 -0.1365 0.66 -0.5386 -0.003035 0.09265 -0.2993
-0.758 -0.1103 0.12134 0.578 0.0663 0.8003 0.43 0.761
-0.3887 0.1376 -0.0749 -0.269 0.4092 0.04175 -0.863 -0.4172
-0.708 0.2218 -0.1989 -0.5815 -0.24 -0.5073 0.2148 0.05597
0.9365 -0.6753 -0.174 -1.036 0.721 -0.7905 0.4983 0.6943
-0.0842 -0.0923 -0.5005 0.0745 0.04266 -0.739 0.587 0.2479
0.1766 -0.7246 -0.685 0.436 -0.8076 -0.578 -0.5103 0.7056
0.2651 -0.08136 0.4727 0.6104 -0.721 0.766 -0.4912 1.119
-0.3674 0.795

weight f2 [22]
00000000: 2a37 cc37 ab36 2138 2f39 ff35 4139 4139
00000010: 4a37 3938 ae39 b436 6338 ca35 4c38 7f38
00000020: ba37 7c36 df36 1936 6738 7a35
0.4478 0.4873 0.4167 0.516 0.648 0.3748 0.6567 0.6567
0.4556 0.528 0.71 0.419 0.5483 0.3618 0.537 0.562
0.483 0.4053 0.4294 0.381 0.5503 0.3423

bias f2 [22]
00000000: a339 b7b7 0e37 84b5 2c2f 4a31 ffb5 3cae
00000010: 3bb0 86b5 fbb3 c52c 9734 8335 17b6 811d
00000020: 4938 b62b 83af b5ad 23b5 b134
0.7046 -0.4822 0.441 -0.3447 0.11206 0.1653 -0.3748 -0.0974
-0.1322 -0.3452 -0.2494 0.0745 0.2869 0.3445 -0.3806 0.005375
0.5356 0.06024 -0.1174 -0.0892 -0.321 0.2932

running_mean f2 [22]
00000000: 121c 1a1e 619a f118 4612 3b1f 9e19 070b
00000010: c39e 739e 201f 48a1 3021 731c cc9a 439d
00000020: 5493 1c17 dc9b 6217 21a1 db22
0.003975 0.00596 -0.003115 0.002413 0.000766 0.00706 0.002743 0.0002145
-0.006603 -0.006298 0.006958 -0.010315 0.01013 0.004345 -0.003319 -0.00514
-0.0008945 0.001736 -0.003838 0.001802 -0.01002 0.01339

running_var f2 [22]
00000000: 6b3a 4d36 a43b 263a c539 5f37 d13b be39
00000010: e336 6837 453c cf38 5339 eb3c 8d38 8b3b
00000020: d339 2e3b 0638 ea37 e638 6138
0.8022 0.3938 0.955 0.7686 0.721 0.4607 0.977 0.718
0.4304 0.463 1.067 0.601 0.6655 1.2295 0.569 0.943
0.728 0.8975 0.503 0.4946 0.6123 0.5474

weight f2 [44, 22, 1, 1]
00000000: 08af 36a5 7cad 0da9 b1a4 7fae 7532 1234
00000010: 172d 7f31 1224 99a9 6234 98ac ac2c 2c29
00000020: 3ca5 1aaf 34aa 47ad 47a9 072c 45ae 5729
00000030: 6bad 2a30 2fae 2b1e 3f33 3d25 40a8 d2aa
00000040: 3430 54ae a02c 3c2c 792d 2734 23a3 02ac
00000050: 9bac dfad e12e e1ad 39a8 20b0 332e ada9
00000060: 98ac b2ac 322b 3035 9b28 ea32 52b1 8232
00000070: 632f 2db0 152f 39b4 c930 6820 69b1 08ac
00000080: 72b0 d5b4 2a2e c9ac 3ab2 3fac d032 f5ab
00000090: efb0 9bb3 08b3 64b0 af1f 98b0 da2d ad2c
000000a0: edb2 e7b2 9cb4 46b4 84ad 5020 682e 8535
000000b0: 7d2b 16b0 bd2d ee34 bb24 13a2 7636 2c2a
000000c0: 16a0 b431 5134 3e2e fb2b 0631 b033 8b21
000000d0: abac 2da7 01b3 b9ac 8828 5d28 4831 3632
000000e0: b030 c0b1 a4b1 cb2f 97af 0c32 88b0 24b0
000000f0: 4cb0 9b2b 4034 f8ad 3cad c9af 7134 3131
00000100: 2fac daad d2b1 23ab 8534 042b 482f 9dae
00000110: ae32 e22b 1da6 2ab3 ccac 32ac 4730 38b0
00000120: c9ab 9336 3ca5 0c22 1dae 052e b7b0 15a0
00000130: be2e 1434 71ab 80af b52d 6fb1 dfb3 21ad
00000140: 74ab d32b b4af 4f32 deb2 4b34 46ae 06a8
00000150: efaf c5b2 b731 c831 cdb0 54ad 01b0 07b1
00000160: 0934 802d 2433 43b2 0e2a db31 f4ad e6ad
00000170: 70ad b3a0 10ac 2f29 2cac a730 3faf 2db1
00000180: ac2c eb2c 2aa6 75a6 bca6 a92c 9c2f 83ac
00000190: 172f 4a34 98ae 09ac 3832 4daf 7792 11ad
000001a0: fd2e c719 5729 6b2c 9731 0132 8125 351c
000001b0: d025 6130 bb2f ccab 52b0 22b0 4dad ac2b
000001c0: 6e2e 93af ff26 b8a9 a82c 83ad 062e eb22
000001d0: 6ab1 26a7 ab2e 1135 6fab 8d27 8330 8431
000001e0: 99ae 4e28 bbb1 e9a5 6aae 1131 1ba7 1418
000001f0: e5af a424 e3ac 07b1 5a28 0eaf d82a d5b0
-0.10986 -0.02036 -0.0857 -0.03946 -0.01833 -0.1015 0.2018 0.2544
0.0795 0.1718 0.0159 -0.04373 0.274 -0.0718 0.073 0.0404
-0.02045 -0.11096 -0.04846 -0.08246 -0.04123 0.0629 -0.09796 0.04172
-0.08466 0.1301 -0.0966 0.006023 0.2264 0.02046 -0.0332 -0.05328
0.1313 -0.0989 0.07227 0.06616 0.0855 0.2595 -0.01394 -0.0626
-0.07196 -0.09174 0.1075 -0.09186 -0.033 -0.1289 0.09686 -0.04434
-0.0718 -0.07336 0.0562 0.3242 0.03598 0.2161 -0.1663 0.2034
0.1154 -0.1305 0.11066 -0.264 0.1495 0.008606 -0.1691 -0.063
-0.1389 -0.302 0.0963 -0.07477 -0.1946 -0.06635 0.2129 -0.06216
-0.1542 -0.2377 -0.2197 -0.1372 0.007504 -0.1436 0.09143 0.07306
-0.2164 -0.2157 -0.288 -0.267 -0.0862 0.00842 0.1001 0.345
0.0585 -0.1277 0.08966 0.308 0.01848 -0.01186 0.4038 0.04822
-0.00798 0.1782 0.2698 0.09753 0.06235 0.157 0.2402 0.010826
-0.07294 -0.02803 -0.2189 -0.0738 0.0354 0.0341 0.165 0.1941
0.1465 -0.1797 -0.1763 0.12177 -0.1186 0.189 -0.1416 -0.1294
-0.1343 0.05942 0.2656 -0.09326 -0.0818 -0.12164 0.2776 0.1622
-0.06537 -0.09143 -0.1819 -0.05576 0.2825 0.0548 0.1138 -0.10333
0.2087 0.06158 -0.02388 -0.2239 -0.07495 -0.06555 0.1337 -0.1318
-0.06082 0.411 -0.02045 0.01181 -0.0955 0.09406 -0.1473 -0.00797
0.10535 0.255 -0.05814 -0.1172 0.0892 -0.1698 -0.246 -0.08014
-0.05823 0.06113 -0.12036 0.1971 -0.2146 0.2683 -0.098 -0.03143
-0.12396 -0.2115 0.1786 0.1807 -0.15 -0.08325 -0.1251 -0.1571
0.2522 0.08594 0.2231 -0.1957 0.0473 0.183 -0.093 -0.09216
-0.08496 -0.00918 -0.0635 0.0405 -0.0652 0.1454 -0.1132 -0.1617
0.073 0.07684 -0.02408 -0.02522 -0.0263 0.0728 0.1189 -0.0705
0.1108 0.268 -0.103 -0.06305 0.1943 -0.1141 -0.000789 -0.07916
0.1092 0.002821 0.04172 0.06903 0.1747 0.1876 0.0215 0.00411
0.0227 0.1368 0.1208 -0.0609 -0.135 -0.1292 -0.0828 0.05994
0.10046 -0.11835 0.02733 -0.04468 0.07275 -0.0861 0.0941 0.01351
-0.1692 -0.02792 0.1042 0.3167 -0.05807 0.0295 0.141 0.1724
-0.1031 0.03363 -0.1791 -0.02309 -0.1002 0.1583 -0.02776 0.001991
-0.12335 0.01813 -0.07635 -0.1571 0.034 -0.1102 0.05347 -0.151

weight f2 [44]
00000000: 003c 003c 003c e83b 5d3a 483a 003c 6a39
00000010: f13b 003c 003c 003c fa3a 003c ba3b 003c
00000020: 023b 003c e43b 003c 003c 003c 003c c135
00000030: 8f3b 003c 003c 003c f03b 003c 5c36 003c
00000040: 3a3b 003c 003c 003c 2d3a 9338 003c 003c
00000050: fe3b ff3b 003c f03b
1.0 1.0 1.0 0.9883 0.7954 0.785 1.0 0.677
0.9927 1.0 1.0 1.0 0.872 1.0 0.966 1.0
0.876 1.0 0.9863 1.0 1.0 1.0 1.0 0.3596
0.945 1.0 1.0 1.0 0.992 1.0 0.3975 1.0
0.9033 1.0 1.0 1.0 0.772 0.572 1.0 1.0
0.999 0.9995 1.0 0.992

bias f2 [44]
00000000: a9ac 2fac ba32 6f35 b2b9 9438 6031 f138
00000010: 8c36 3eb4 4eaa 21b4 1238 fb0d c236 9b24
00000020: 1236 cd2c 6632 96b5 33a4 b836 fa30 6a37
00000030: 3e37 ac35 cc32 062e b336 8134 3838 a42f
00000040: 9038 012c 832a cb32 3937 4638 d6b0 b0b6
00000050: f835 db34 dc32 332d
-0.0728 -0.06537 0.2102 0.3396 -0.712 0.5723 0.168 0.6177
0.4092 -0.2651 -0.04926 -0.258 0.509 0.000365 0.4224 0.01799
0.3794 0.075 0.2 -0.349 -0.0164 0.42 0.1555 0.4634
0.4526 0.3545 0.2124 0.0941 0.4187 0.2815 0.5273 0.1194
0.5703 0.06256 0.05087 0.2123 0.4514 0.534 -0.1511 -0.418
0.373 0.3035 0.2144 0.08124

running_mean f2 [44]
00000000: 9f21 7da9 faa2 7bb2 9834 1835 0737 bab0
00000010: 9e35 7933 ebaf 36af 73b4 3493 f22c 0d36
00000020: 8835 4c36 5436 e731 1731 09b6 7931 79b4
00000030: eeac d6b8 d732 5bac 13b7 0835 79b6 722b
00000040: 94b8 2aab 28b4 7eb4 6932 b3b8 e536 a438
00000050: ccb7 37b2 4db8 ee32
0.01098 -0.04288 -0.013626 -0.2025 0.287 0.3184 0.4392 -0.1477
0.351 0.2335 -0.1237 -0.1127 -0.278 -0.0008793 0.0773 0.3782
0.3457 0.3936 0.3955 0.1844 0.159 -0.3772 0.171 -0.2795
-0.077 -0.6045 0.2137 -0.06805 -0.4421 0.3145 -0.4045 0.05817
-0.5723 -0.05597 -0.2598 -0.2808 0.2003 -0.5874 0.431 0.58
-0.4873 -0.1942 -0.5376 0.2166

running_var f2 [44]
00000000: 0c2f 3b2c 2e30 d631 0d2c 8f33 0132 af31
00000010: c932 0b29 3230 c32d 3131 022d af30 1b31
00000020: b031 3830 0035 be2a 9e2c 302e 512f f534
00000030: 0734 0230 d330 c530 992d 6932 5333 c32d
00000040: 9c30 a72e 242c 3c2e e332 8c32 7c2c 892d
00000050: 3e2f a530 0c30 772d
0.1101 0.0661 0.1306 0.1824 0.0633 0.2362 0.1876 0.1776
0.212 0.0394 0.1311 0.09 0.1622 0.07825 0.1464 0.1595
0.1777 0.1318 0.3125 0.05267 0.07214 0.0967 0.1143 0.3098
0.2517 0.1252 0.1508 0.149 0.08746 0.2003 0.2289 0.09
0.144 0.10394 0.0647 0.0974 0.2152 0.2046 0.07007 0.0865
0.11316 0.1451 0.1265 0.0854

weight f2 [44, 1, 3, 3]
00000000: b226 7ba8 f394 99b7 4c2d 7d37 25ae 68b2
00000010: 6230 4ba9 b72f c02c d6b5 f130 9034 41b1
00000020: 6eac e528 9233 5538 cca4 13ad 5ca8 4bae
00000030: c724 3fb8 bb2c f032 4725 0bb4 1537 fd9b
00000040: a5b9 1932 1f34 05b0 8eb0 7432 3a2d 0d9c
00000050: 0631 77aa 4c30 fa31 a535 8032 4a25 c6b4
00000060: ef38 15b7 1538 ee27 84ab 2bb3 5fb1 4235
00000070: 7b32 efae 65b0 e738 adae 65b7 28b4 b236
00000080: ce28 f0b5 4637 81b3 f4b4 7218 75b5 1c34
00000090: 6029 a0ad c5b1 c531 b038 81b0 43af 17b5
000000a0: b9b3 a3b4 7430 ce29 8bb2 3c2e dbad 9037
000000b0: a0b3 bd9f 2dae 2e32 c832 7733 3131 f51c
000000c0: 9fa2 7a2d c2a5 dd2e 222d b5aa a4a8 b2b5
000000d0: 4921 ddaf 6835 f234 5435 e2a5 4eb0 0c36
000000e0: b9ae 33b7 7635 31b0 02b6 5834 dc32 db28
000000f0: 4b34 66b4 0b20 39b4 85b0 b52b 5ab0 8eb9
00000100: 6438 78b2 10b3 9931 5131 7537 29ad 5c2b
00000110: 2729 7a28 1037 b8b4 3527 0bb9 1235 27ab
00000120: a92c 3b32 2cb5 e835 1334 d0b9 e9ae 9036
00000130: e4b1 52ad b234 0525 4db8 7535 3330 f836
00000140: bdb4 b7ae 6331 e734 11ac 38a9 b530 77bb
00000150: 3d2f c030 3ca0 0d32 e8af 631d 149c 65ad
00000160: d5b4 bcb0 82a9 afad 8dae fab2 d433 38b7
00000170: 0b26 6034 dbab 0da7 1831 edb1 67b5 d1a9
00000180: ac31 e934 6834 34a7 a4b0 942c f0b0 f9ad
00000190: 3c32 63b0 c0b4 f4b4 9234 9334 c633 ce35
000001a0: 49b5 4cb3 6b31 e936 bfb8 a2b8 1535 ff37
000001b0: ff32 34ad e2b8 ad38 2229 6cb3 9531 ad2f
000001c0: 89b4 fe34 e1b0 2226 d72c 76b0 2329 d036
000001d0: 36b4 d7b2 842d d4b2 40b1 dc9f 322c 2f33
000001e0: 9838 9fb1 b9b4 88ab 86b4 4931 30ae 3ab2
000001f0: 16b6 b032 5a37 3e32 912a fc25 d52c 02b0
0.02615 -0.035 -0.001208 -0.4749 0.08276 0.468 -0.096 -0.2002
0.137 -0.04135 0.12054 0.0742 -0.3647 0.1544 0.2852 -0.1642
-0.0692 0.03824 0.2366 0.5415 -0.01874 -0.0793 -0.03406 -0.0983
0.01866 -0.531 0.0739 0.2168 0.02061 -0.2527 0.4426 -0.0039
-0.7056 0.1906 0.2576 -0.1256 -0.1423 0.2017 0.08167 -0.003956
0.157 -0.0505 0.1343 0.1868 0.3528 0.2031 0.02066 -0.2983
0.6167 -0.4426 0.5103 0.03098 -0.05872 -0.224 -0.1678 0.3286
0.2025 -0.10834 -0.1373 0.613 -0.1043 -0.4622 -0.2598 0.4185
0.03754 -0.371 0.4546 -0.2345 -0.3096 0.00217 -0.341 0.2568
0.042 -0.0879 -0.1803 0.1803 0.586 -0.1407 -0.11346 -0.318
-0.2413 -0.2898 0.1392 0.04535 -0.2045 0.0974 -0.0915 0.4727
-0.2383 -0.007557 -0.0965 0.1931 0.2119 0.2333 0.1622 0.00484
-0.01293 0.0856 -0.02249 0.10724 0.0802 -0.0524 -0.03625 -0.356
0.01032 -0.12286 0.338 0.309 0.333 -0.02298 -0.1345 0.378
-0.10504 -0.45 0.3413 -0.131 -0.3755 0.2715 0.2144 0.03793
0.2683 -0.275 0.0079 -0.264 -0.1412 0.0602 -0.136 -0.6943
0.549 -0.2021 -0.2207 0.1749 0.1661 0.466 -0.0806 0.0575
0.04025 0.03497 0.4414 -0.295 0.02815 -0.6304 0.317 -0.05588
0.0728 0.1947 -0.3232 0.3691 0.2546 -0.7266 -0.108 0.4102
-0.1841 -0.0831 0.2935 0.0196 -0.5376 0.341 0.1312 0.4355
-0.2961 -0.1049 0.1683 0.3064 -0.06354 -0.04077 0.1471 -0.933
0.1131 0.1484 -0.00827 0.1891 -0.12354 0.00526 -0.003983 -0.0843
-0.302 -0.148 -0.04303 -0.0888 -0.10236 -0.218 0.2446 -0.4512
0.0236 0.2734 -0.06137 -0.02754 0.1592 -0.1852 -0.3376 -0.04544
0.1772 0.307 0.2754 -0.02814 -0.145 0.07153 -0.1543 -0.0933
0.1948 -0.1371 -0.2969 -0.3096 0.2856 0.286 0.2429 0.3628
-0.3303 -0.228 0.1693 0.432 -0.5933 -0.579 0.3176 0.4998
0.2186 -0.0813 -0.6104 0.5845 0.0401 -0.2319 0.1744 0.11993
-0.2834 0.312 -0.1525 0.02396 0.0756 -0.1394 0.04013 0.4258
-0.2632 -0.2137 0.0862 -0.2134 -0.1641 -0.007675 0.06555 0.2245
0.574 -0.1757 -0.2952 -0.05884 -0.2827 0.1652 -0.0967 -0.1946
-0.3804 0.209 0.4595 0.1951 0.0513 0.02338 0.0755 -0.1252

weight f2 [44]
00000000: 2037 7036 4d37 ad37 d038 5239 3638 6338
00000010: 4637 cf37 9b36 1936 b137 4735 1737 ed36
00000020: 7b39 9e37 6639 3f37 bb35 4d36 b837 7d39
00000030: 5837 0438 0538 9338 6736 1637 c638 eb35
00000040: 5b38 f135 ed35 cf36 a338 b439 5637 4635
00000050: 6137 5537 4037 0835
0.4453 0.4023 0.4563 0.4797 0.6016 0.665 0.5264 0.5483
0.4546 0.488 0.4128 0.381 0.4807 0.3298 0.443 0.4329
0.685 0.476 0.675 0.453 0.3582 0.3938 0.4824 0.686
0.459 0.502 0.5024 0.572 0.4001 0.4429 0.5967 0.3699
0.5444 0.3713 0.3704 0.4255 0.5796 0.713 0.4585 0.3296
0.4612 0.4583 0.4531 0.3145

bias f2 [44]
00000000: a08a 6a8a 0114 591a 7b13 ee92 6e95 1899
00000010: 7d96 ab8c 3010 1b93 9c16 7688 1a0f 8b98
00000020: 0c0d 0014 2798 ff0d 7889 cb8c ee13 1f18
00000030: 4599 2d95 1d18 fd98 2710 4415 8709 0019
00000040: 191a e981 6009 8914 cb82 3414 3d07 5804
00000050: 5714 ad18 0c17 2296
-0.0002022 -0.0001957 0.0009775 0.0031 0.000913 -0.000846 -0.001326 -0.002487
-0.001584 -0.000285 0.000511 -0.0008674 0.001614 -0.0001361 0.0004334 -0.002218
0.000308 0.000977 -0.002028 0.000366 -0.0001669 -0.0002925 0.000968 0.002012
-0.002573 -0.001264 0.002008 -0.002436 0.000507 0.001286 0.0001687 0.002441
0.002977 -2.915e-05 0.000164 0.001107 -4.26e-05 0.001026 0.00011045 6.63e-05
0.00106 0.002283 0.00172 -0.001497

running_mean f2 [44]
00000000: 5baa ab24 492a 7b25 262d 8c33 8ca9 2cac
00000010: 29b1 f9a5 bf32 5f2a b4ae 012a 331e a8a4
00000020: c1a3 282d 4bad 40af 3cab 7e2c fe94 0c28
00000030: 4da9 ff26 ef28 4aa7 9ba5 fc9c 8fb0 81a8
00000040: 6724 a4ac d0a3 8328 c1af f228 fb24 5f30
00000050: acaf eb28 3ca4 dc26
-0.04965 0.01823 0.0491 0.02141 0.08044 0.2358 -0.04333 -0.0652
-0.1613 -0.02333 0.2108 0.04977 -0.10474 0.0469 0.006054 -0.01819
-0.015144 0.08057 -0.0827 -0.1133 -0.05652 0.0702 -0.001219 0.03162
-0.0414 0.02733 0.03854 -0.02847 -0.0219 -0.004868 -0.1425 -0.0352
0.0172 -0.0725 -0.01526 0.03525 -0.12115 0.03864 0.01945 0.1366
-0.1199 0.03842 -0.01654 0.0268

running_var f2 [44]
00000000: fa2e 982e 3730 7034 bc2c 2434 7732 ca31
00000010: c430 4a28 4d30 162c b834 fa2c 2132 e72d
00000020: 1434 3e30 0e33 df2e 5b32 922f a02d f32a
00000030: a032 9a30 ba31 b431 8830 512f 7727 892a
00000040: f731 d02e a42d 4d31 da31 7d2e 352e 5a2e
00000050: 3b32 0632 be30 222c
0.109 0.103 0.1317 0.2773 0.074 0.2588 0.202 0.1809
0.1489 0.0335 0.1344 0.06384 0.295 0.07776 0.1915 0.0922
0.255 0.1326 0.2205 0.10736 0.1986 0.1183 0.0879 0.0543
0.207 0.1438 0.179 0.1782 0.1416 0.1143 0.02916 0.05106
0.1864 0.10645 0.08813 0.1656 0.1829 0.1014 0.097 0.09924
0.1947 0.1882 0.1482 0.0646

weight f2 [11, 44, 1, 1]
00000000: 0f2c 30a2 452d 502c 1836 b437 2f2d 95a8
00000010: c234 8a27 25a8 d531 de33 7bb0 cdb0 cd31
00000020: 5e2c e3b4 37b7 14b4 b533 dcb4 aeb3 7fb4
00000030: 412f 1cab 54a1 ba34 ab28 b9b2 76a9 0bb1
00000040: 9ca5 4130 7ea8 59b4 e334 679c c916 2a29
00000050: 8a34 a0a7 9cb0 c62a 3434 0a30 1db4 cda8
00000060: b2b2 d824 0cb1 bdb4 8ead 6827 7fb4 dc2d
00000070: 0416 dca3 a8b0 1232 1b33 06aa b037 c02c
00000080: c227 1626 0b2e 0ab2 2a30 ed33 d8b4 a5ae
00000090: 0dab 31b4 4a32 40b1 16b1 ba27 1cb0 c8a4
000000a0: 4b9e 79b7 0f35 78b0 fab0 4bad 03b0 3a29
000000b0: eb2f 7fb0 49b0 0338 a7ab 39b4 b3ac 8ab9
000000c0: 2a2b f6b2 dab1 f92d 0235 1432 4bb5 aeb1
000000d0: 0a2e 1c30 f232 c92e a2b0 c125 be2c 47af
000000e0: c8ad 9232 c1b1 f8ae 2e2f 11a5 21ad c032
000000f0: 4994 0830 e5b3 9e2e 4335 d9ad 3aae 53b1
00000100: 2a34 e3a8 1d35 efb2 a52f b3ac 62b6 65b4
00000110: 9bb4 c4ad 7d34 5e31 df34 d924 7731 4830
00000120: 42b4 7734 b6b4 7aa6 47b0 602d 702e 0634
00000130: e4b2 08aa 33b5 52b4 4235 1031 f3b0 5334
00000140: c9b3 dea7 8020 fab0 45b7 1331 dd2c 6aac
00000150: e030 be33 532d 6bae 09b5 48b5 812c 8228
00000160: ffa4 0cb0 1330 23a9 f824 1d2f 0daa 4731
00000170: c395 9c32 d2ac 49b4 f52d 31ad 8f32 dd35
00000180: d82a b4b4 b625 03b0 6e97 4cac dcab 3bb9
00000190: 2d28 1e33 4bb6 51ac f39b 3334 2c33 91b5
000001a0: 2ba9 76b1 4cab 92ab b325 d637 e9b1 0927
000001b0: 02a4 729e 57b3 c434 8db3 df2d 02b6 84ac
000001c0: 2631 7037 1533 11af e9b4 ba2e 54b5 97b3
000001d0: df25 79ac 98ae 2f35 aeb2 fdb5 0fb5 e22a
000001e0: 4131 6c25 8530 d936 36b3 142c 862d 2c28
000001f0: 99ad d72f 5639 3eab 8f2d 6eb3 31ac 3827
0.0634 -0.012085 0.08234 0.0674 0.3809 0.4814 0.081 -0.0358
0.2974 0.02945 -0.03238 0.1823 0.2458 -0.14 -0.15 0.1813
0.06824 -0.3054 -0.451 -0.255 0.2408 -0.3037 -0.24 -0.281
0.11334 -0.05554 -0.01041 0.2954 0.03647 -0.2101 -0.04266 -0.1576
-0.02191 0.1329 -0.0351 -0.2717 0.3054 -0.0043 0.001657 0.04034
0.2837 -0.02979 -0.144 0.05292 0.2627 0.1262 -0.257 -0.0375
-0.2092 0.01892 -0.1577 -0.2961 -0.0868 0.02893 -0.281 0.09155
0.001469 -0.01535 -0.1455 0.1897 0.222 -0.04706 0.4805 0.0742
0.0303 0.02377 0.0944 -0.1887 0.1301 0.2477 -0.3027 -0.1038
-0.05508 -0.262 0.1965 -0.1641 -0.1589 0.03018 -0.1284 -0.01868
-0.006145 -0.467 0.3162 -0.1396 -0.1555 -0.0827 -0.1254 0.04083
0.1237 -0.1405 -0.1339 0.5015 -0.05978 -0.264 -0.0734 -0.6924
0.05597 -0.2175 -0.1829 0.0933 0.313 0.19 -0.3308 -0.1775
0.09436 0.1284 0.217 0.106 -0.1448 0.02248 0.0741 -0.1137
-0.09033 0.2053 -0.1798 -0.1089 0.1122 -0.01979 -0.08014 0.2109
-0.001046 0.126 -0.2467 0.1034 0.3289 -0.0914 -0.0973 -0.1664
0.2603 -0.03818 0.3196 -0.2167 0.11945 -0.0734 -0.399 -0.2747
-0.2878 -0.0901 0.2805 0.1677 0.3044 0.01894 0.1708 0.1338
-0.266 0.279 -0.2944 -0.0253 -0.1337 0.084 0.1006 0.2515
-0.2153 -0.04712 -0.325 -0.27 0.3286 0.1582 -0.1547 0.2703
-0.2433 -0.03073 0.00879 -0.1555 -0.4543 0.1586 0.076 -0.069
0.1523 0.242 0.0832 -0.1003 -0.3147 -0.33 0.0704 0.03522
-0.01952 -0.1265 0.1273 -0.04013 0.01941 0.11115 -0.04727 0.1649
-0.001407 0.2065 -0.0753 -0.2678 0.0931 -0.0811 0.205 0.3665
0.05347 -0.294 0.02231 -0.1254 -0.001814 -0.06714 -0.0614 -0.654
0.03262 0.2224 -0.3933 -0.06744 -0.003881 0.2625 0.2241 -0.348
-0.04037 -0.1707 -0.057 -0.05914 0.02226 0.4897 -0.1847 0.02748
-0.01566 -0.006294 -0.2294 0.2979 -0.236 0.09174 -0.3755 -0.07056
0.1609 0.4648 0.2213 -0.1104 -0.307 0.1051 -0.333 -0.2372
0.02293 -0.0699 -0.103 0.324 -0.2087 -0.3743 -0.3162 0.05377
0.1642 0.02118 0.1412 0.428 -0.2253 0.0637 0.0863 0.0326
-0.08746 0.1225 0.667 -0.05658 0.08685 -0.2322 -0.0655 0.0282

weight f2 [33]
00000000: ad39 8d3a 1539 a436 1639 7f39 3138 ac36
00000010: af39 1c3a 2639 f535 5835 a535 c436 2c38
00000020: 6236 6538 bd38 4b38 3036 a238 c736 2136
00000030: 0b36 0936 2138 4938 dc36 2436 ec34 2d36
00000040: 6f35
0.7095 0.819 0.6353 0.415 0.6357 0.687 0.524 0.417
0.7104 0.7637 0.6436 0.3723 0.334 0.3528 0.4229 0.5215
0.399 0.5493 0.5923 0.5366 0.3867 0.579 0.4236 0.383
0.3777 0.3772 0.516 0.5356 0.4287 0.3838 0.3076 0.386
0.3396

bias f2 [33]
00000000: 2c36 8e35 7734 0038 dd34 4c38 18a3 4d36
00000010: 8a37 ff32 40a9 25b0 a22c 6536 0029 2cb5
00000020: 2f34 c0ad 67b4 93b2 50ac 0ab4 0622 4831
00000030: 1129 e1b3 14ac 16a4 3627 0128 631c 5eae
00000040: 0734
0.3857 0.3472 0.279 0.5 0.304 0.537 -0.013855 0.3938
0.4712 0.2186 -0.04102 -0.1295 0.0724 0.3997 0.03906 -0.3232
0.2615 -0.08984 -0.2751 -0.2054 -0.0674 -0.2524 0.011765 0.165
0.03958 -0.2462 -0.0637 -0.01596 0.02817 0.03128 0.004284 -0.0995
0.2517

running_mean f2 [33]
00000000: ba99 f49c 161d 90a0 b19c e915 301e bb99
00000010: 171d bc10 239e 121c 1a1e 619a f118 4612
00000020: 3b1f 9e19 070b c39e 739e 201f 48a1 3021
00000030: 731c cc9a 439d 5493 1c17 dc9b 6217 21a1
00000040: db22
-0.002796 -0.004837 0.004967 -0.00891 -0.00458 0.001443 0.006042 -0.002798
0.00497 0.000578 -0.005993 0.003975 0.00596 -0.003115 0.002413 0.000766
0.00706 0.002743 0.0002145 -0.006603 -0.006298 0.006958 -0.010315 0.01013
0.004345 -0.003319 -0.00514 -0.0008945 0.001736 -0.003838 0.001802 -0.01002
0.01339

running_var f2 [33]
00000000: 763b 363d fb40 013b 9c3d 3f3d 833d 233c
00000010: 493d 703f 0f3e 6b3a 4d36 a43b 263a c539
00000020: 5f37 d13b be39 e336 6837 453c cf38 5339
00000030: eb3c 8d38 8b3b d339 2e3b 0638 ea37 e638
00000040: 6138
0.9326 1.303 2.49 0.8755 1.402 1.312 1.378 1.034
1.321 1.859 1.515 0.8022 0.3938 0.955 0.7686 0.721
0.4607 0.977 0.718 0.4304 0.463 1.067 0.601 0.6655
1.2295 0.569 0.943 0.728 0.8975 0.503 0.4946 0.6123
0.5474

weight f2 [44, 33, 1, 1]
00000000: 35b5 b0b3 31ac d731 3bb6 eb32 622a 0f2b
00000010: dc32 7bb0 8cb1 e8ad 61ab d4ac 4d28 a02c
00000020: 63b3 682d 2ea8 f0a6 de25 b220 109b 5d23
00000030: bfa8 e52b b5a8 adad 9cb0 5028 b628 052b
00000040: e4a2 2f2c 52b1 e534 80b1 f42c 6126 7ea9
00000050: 52b8 cd32 a42b 9927 d1a4 64a2 66ad 43b1
00000060: afa7 121b 0bac 4021 559b 0228 11b0 3aaa
00000070: 72a9 b0a8 c7a0 74ae 37b1 ecb0 fc96 04a9
00000080: f729 34a4 412c be32 44a9 3a2e 9828 3334
00000090: 451d a42d 0e2d 8c24 98b2 222b 232d df21
000000a0: 5728 622e d1aa 2b22 812f 4fae fba4 5121
000000b0: cb25 d12a 2daa 75ad 432d 3d30 0f1c 4c31
000000c0: 932d 53a9 42ac 66ac 0031 2aa4 af29 ff36
000000d0: d0a8 711d b0a8 bda9 0a19 b3ac 86ab a684
000000e0: ffae 0131 d630 0b27 ae2a 06b0 c3a4 79ad
000000f0: 5731 1e29 672e e0ac afa4 b32e 6fac 89ad
00000100: fe2d b01c ac2d f319 1e2a 0ab1 56b1 1d2d
00000110: 74b2 cda3 19ab a324 88a9 9daa 4e34 612e
00000120: da2e 732d 22a8 e3b0 6032 d3a8 f9b0 b9ad
00000130: b9ad d42d e7ab dc2d 9a31 e5a5 36a9 2328
00000140: be2e 06b0 cdac cea9 5433 5e30 9fb2 1cb1
00000150: be2e d4b1 0730 12b2 c1af 2c31 f429 5bac
00000160: 2a22 15b2 5cb4 2b30 d322 52b2 0f25 b9a4
00000170: 96a9 5228 24b1 e1b1 2028 3fad 1e30 4b2f
00000180: 25b1 c0b4 06a5 09b0 6c20 8ab5 a9a8 fe28
00000190: afad aaae 9f25 4d28 a4a2 61a9 9431 93b4
000001a0: b5a6 1dac 262c dba1 0d2b 9b26 a4a8 2a9c
000001b0: 14a8 1a30 0a31 852a d630 48a8 31a8 751c
000001c0: 1330 be26 a6aa fd2c 1d2b 0428 16a8 4ab1
000001d0: 8d28 8ab2 f8a4 9e34 2b33 73b2 3fb1 ce1c
000001e0: deb7 98ad 12aa 9324 ccae eb2a 0d31 639c
000001f0: 792e 4a2e 5d2c 6a2b 33a1 12af cfa4 1da6
-0.3254 -0.2402 -0.0655 0.1825 -0.3894 0.2162 0.04987 0.05515
0.2144 -0.14 -0.1733 -0.0923 -0.05765 -0.07544 0.0336 0.07227
-0.2308 0.0845 -0.03265 -0.0271 0.02292 0.00917 -0.003448 0.01438
-0.03708 0.06168 -0.03677 -0.0887 -0.144 0.0337 0.0368 0.05484
-0.01346 0.06537 -0.1663 0.306 -0.1719 0.0774 0.02492 -0.0429
-0.54 0.2125 0.0597 0.02968 -0.01881 -0.01248 -0.08435 -0.1644
-0.03001 0.003452 -0.0632 0.010254 -0.00358 0.0313 -0.1271 -0.04865
-0.04254 -0.03662 -0.00933 -0.1008 -0.163 -0.1538 -0.001705 -0.03918
0.0466 -0.01642 0.06647 0.2107 -0.04114 0.0973 0.0359 0.2625
0.005146 0.08813 0.079 0.01776 -0.206 0.05573 0.08026 0.01147
0.0339 0.09973 -0.05325 0.01205 0.11725 -0.0986 -0.01945 0.01038
0.02263 0.05325 -0.04825 -0.08527 0.0822 0.1324 0.003963 0.1655
0.0871 -0.0416 -0.0665 -0.0687 0.1562 -0.01627 0.0444 0.4373
-0.0376 0.005314 -0.03662 -0.04483 0.00246 -0.0734 -0.05878 -7.09e-05
-0.1093 0.1564 0.1511 0.02751 0.0522 -0.1257 -0.0186 -0.0855
0.1669 0.03998 0.10004 -0.0762 -0.0183 0.1047 -0.0693 -0.0865
0.0936 0.004578 0.0886 0.002905 0.0478 -0.1575 -0.1667 0.0799
-0.2017 -0.015236 -0.05545 0.01811 -0.0432 -0.05167 0.269 0.0997
0.10706 0.08514 -0.0323 -0.1527 0.1992 -0.0377 -0.1554 -0.0894
-0.0894 0.09106 -0.06174 0.09155 0.175 -0.02303 -0.0407 0.03232
0.10535 -0.1257 -0.075 -0.04535 0.229 0.1365 -0.2069 -0.1597
0.10535 -0.1821 0.1259 -0.1897 -0.12115 0.1616 0.0465 -0.06805
0.01204 -0.1901 -0.2725 0.1302 0.01333 -0.1975 0.01976 -0.01845
-0.04364 0.03375 -0.1606 -0.1837 0.03223 -0.082 0.1287 0.11395
-0.1608 -0.2969 -0.01962 -0.1261 0.00864 -0.3462 -0.0364 0.039
-0.0888 -0.1041 0.02196 0.0336 -0.01297 -0.04202 0.1743 -0.286
-0.0262 -0.0643 0.0648 -0.01144 0.05508 0.0258 -0.03625 -0.004066
-0.03186 0.1282 0.1575 0.05093 0.1511 -0.03345 -0.03275 0.004353
0.1273 0.02634 -0.05194 0.07794 0.05557 0.03137 -0.03192 -0.1653
0.03555 -0.2043 -0.01941 0.2886 0.224 -0.2015 -0.164 0.004692
-0.4917 -0.0874 -0.04742 0.01787 -0.1062 0.05405 0.1578 -0.004284
0.10114 0.09827 0.0682 0.05792 -0.010155 -0.1105 -0.01878 -0.02388

weight f2 [44]
00000000: 003c 003c 003c 003c 003c 003c 003c 003c
00000010: f83b 003c 2e3b 003c 003c 6137 003c b13b
00000020: f53b 003c 003c d23b 003c 443a 003c 003c
00000030: e138 a33a 003c 003c 003c 003c 003c 003c
00000040: 003c 2438 003c 003c 003c 003c 003c 003c
00000050: fe3b 003c 003c 003c
1.0 1.0 1.0 1.0 1.0 1.0 1.0 1.0
0.996 1.0 0.8975 1.0 1.0 0.4612 1.0 0.9614
0.9946 1.0 1.0 0.9775 1.0 0.783 1.0 1.0
0.61 0.8296 1.0 1.0 1.0 1.0 1.0 1.0
1.0 0.5176 1.0 1.0 1.0 1.0 1.0 1.0
0.999 1.0 1.0 1.0

bias f2 [44]
00000000: e630 cdaf 2ab0 8eb5 f328 b72c 83b1 ff32
00000010: aeb3 86af 1635 5fa9 222f 4938 6f32 7836
00000020: 2836 a030 0f36 d436 b234 3035 90ae a6ab
00000030: 1f35 01b2 c9b1 0aab ae23 7f33 dd24 30b0
00000040: 5f2c 8437 adaf 31b2 f535 5e34 4e2c 92b3
00000050: ac31 b62c e1b1 c531
0.1531 -0.1219 -0.1301 -0.3472 0.03867 0.07367 -0.1722 0.2186
-0.24 -0.11755 0.3179 -0.04196 0.11145 0.5356 0.201 0.4043
0.3848 0.1445 0.3787 0.4268 0.2935 0.3242 -0.10254 -0.05975
0.32 -0.1876 -0.1808 -0.055 0.015 0.2343 0.019 -0.1309
0.0683 0.4697 -0.11993 -0.1935 0.3723 0.273 0.06726 -0.2366
0.1772 0.0736 -0.1837 0.1803

running_mean f2 [44]
00000000: cab4 12b4 7f37 5e32 4894 fbb6 13a6 92b3
00000010: 81b0 0eb8 a6b8 64b5 af23 012b dbb3 7bb7
00000020: 6fab e22f 2eb6 7434 35b4 de34 9bb0 2bad
00000030: c92c 53ba 7f2c 22b2 ffb6 16ba 2ab7 96b8
00000040: 8fb3 bbb4 e232 322e 06b1 a434 b1b4 d933
00000050: 6eba b236 a6b5 feb2
-0.2993 -0.2544 0.4685 0.199 -0.001045 -0.4363 -0.02373 -0.2366
-0.1407 -0.507 -0.581 -0.337 0.01501 0.05472 -0.2455 -0.4675
-0.05807 0.12317 -0.3862 0.2783 -0.263 0.3042 -0.1439 -0.08075
0.07477 -0.7905 0.07025 -0.1917 -0.4373 -0.7607 -0.4478 -0.573
-0.2362 -0.2957 0.2151 0.0968 -0.157 0.29 -0.2932 0.2452
-0.8037 0.4185 -0.353 -0.2185

running_var f2 [44]
00000000: 4833 ae2c 3e2a 572c 502d 8934 a92d 2c33
00000010: d734 aa31 b337 dd2e 3b30 1735 4132 ac32
00000020: 6832 8031 d034 2933 4f2e 0034 ef32 542c
00000030: 8735 413a b033 1734 2e33 7532 4034 7732
00000040: c92f 5834 7d2e e629 6530 d130 2532 1c32
00000050: 4037 542d 2d31 242f
0.2275 0.0731 0.04877 0.0678 0.083 0.2834 0.08844 0.2241
0.3025 0.177 0.4812 0.10724 0.1322 0.318 0.1954 0.2085
0.2002 0.1719 0.3008 0.2238 0.0986 0.25 0.2167 0.0676
0.3455 0.7817 0.2402 0.2556 0.2244 0.2018 0.2656 0.202
0.12164 0.2715 0.1014 0.04608 0.1373 0.1505 0.192 0.1909
0.4531 0.08325 0.1617 0.1116

weight f2 [44, 1, 3, 3]
00000000: 3fb4 edb3 8d2b a936 792d 45b4 beae 2436
00000010: 3930 7524 802e 192d daaf f0b6 82b5 231f
00000020: e7ae 6d2f f5aa 4aa9 4330 86a8 18a9 3a33
00000030: 6122 caaf 2334 8b34 4034 6932 ae2e 2030
00000040: c924 002c bf34 371c 55a3 e2a3 a02b 0538
00000050: 0ab2 50b5 bfac 75a8 63a9 6636 b12e 5031
00000060: 7b33 f932 a8b3 42b5 aab6 46ac cb33 de30
00000070: 01aa 9625 a8a7 7ab1 3db3 1d2d 1c35 da23
00000080: 0a28 9bb6 0922 c533 992e 50b3 6fb5 6335
00000090: b632 91ac 5b2b 30aa 6634 6729 fd32 0832
000000a0: a52e 9dae c924 2734 2838 5db2 232a 05b2
000000b0: 8e30 ecae d6a9 a934 41b4 15ae 2938 80b5
000000c0: 6da5 8031 68b2 58b6 1734 65ad 7031 3f35
000000d0: 2c2a 732e 70b2 aeac eb26 6436 ed2b df2b
000000e0: 1331 b3b5 e4a1 26b6 aa27 54b0 02b8 0fb7
000000f0: 5baf 33b0 83b1 2f34 0639 8139 deb1 4eb5
00000100: 6a33 c334 1236 4734 5c20 87b2 06b4 ce32
00000110: 7335 7b33 adb6 c5b5 3db4 aa2c d72a 4aaf
00000120: 56b4 92a6 87ad fab0 91b5 c4ac 6335 b135
00000130: f431 e0b2 c033 bf2b 6bb5 2933 082e 8cb1
00000140: 5b30 d5ae bdb6 f737 f1b4 0c35 c8af 22ac
00000150: b02a cfb6 6a32 c033 3035 5daa a638 34aa
00000160: 8bae 2fb9 2eb7 ca30 f1b4 7cb5 1d36 8534
00000170: 5f28 3a15 969e 4130 73b0 d62d 6c35 a62e
00000180: 20b5 95b8 3fb2 9331 3136 7ca9 c634 8c2e
00000190: 6f2e ac34 29ae 272d 7c31 b124 5b21 9330
000001a0: 8c2e 1830 6d28 522e 5635 edb1 3cb5 26b5
000001b0: 9db7 01b8 6bb8 c9a5 b123 1330 3c37 4338
000001c0: c333 f09e 1c2f dd30 772a b837 6e36 0130
000001d0: 5a30 9c28 54b4 1cac 00ac 49b4 6fa0 42b2
000001e0: f9af 36ae bfb2 0432 0632 50b5 f22f c3ad
000001f0: 6937 6c32 d6ac fdaa 3030 a5b7 092f 5bb4
-0.2654 -0.2477 0.059 0.4163 0.0855 -0.2668 -0.10535 0.3838
0.132 0.01741 0.10156 0.07965 -0.1227 -0.4336 -0.3442 0.00697
-0.10785 0.116 -0.05435 -0.04132 0.1332 -0.03534 -0.0398 0.2258
0.01246 -0.1217 0.2585 0.284 0.2656 0.2003 0.1044 0.1289
0.01869 0.0625 0.2966 0.004116 -0.01432 -0.015396 0.05957 0.5024
-0.1887 -0.332 -0.07416 -0.03482 -0.04208 0.4 0.10455 0.166
0.2338 0.2179 -0.2393 -0.3286 -0.4165 -0.0668 0.2435 0.1521
-0.0469 0.02182 -0.0299 -0.1711 -0.2262 0.0799 0.3193 0.015335
0.03156 -0.4128 0.01179 0.2428 0.1031 -0.2285 -0.3396 0.3367
0.2097 -0.07135 0.05746 -0.04834 0.275 0.0422 0.2184 0.1885
0.1038 -0.10333 0.01869 0.2595 0.5195 -0.1989 0.04794 -0.1881
0.1423 -0.10815 -0.0456 0.2913 -0.2659 -0.09503 0.52 -0.3438
-0.0212 0.1719 -0.2002 -0.3965 0.2556 -0.0843 0.1699 0.328
0.04822 0.10077 -0.2012 -0.0731 0.02702 0.3994 0.06192 0.0615
0.1586 -0.3562 -0.011505 -0.3843 0.02994 -0.1353 -0.501 -0.4412
-0.1149 -0.1312 -0.1722 0.2615 0.628 0.688 -0.1833 -0.3315
0.2317 0.2976 0.3794 0.2673 0.008514 -0.204 -0.2515 0.2126
0.3406 0.2338 -0.4172 -0.3606 -0.265 0.0729 0.05344 -0.1139
-0.271 -0.02567 -0.08636 -0.1555 -0.348 -0.07446 0.3367 0.3557
0.186 -0.2148 0.2422 0.06052 -0.3386 0.2238 0.09424 -0.1733
0.1361 -0.10675 -0.4211 0.4978 -0.3088 0.3154 -0.1216 -0.0646
0.05225 -0.4255 0.2004 0.2422 0.3242 -0.0497 0.581 -0.04846
-0.10223 -0.648 -0.4487 0.1497 -0.3088 -0.3428 0.382 0.2825
0.03415 0.001276 -0.00643 0.1329 -0.139 0.0912 0.3389 0.1039
-0.3203 -0.5728 -0.1952 0.1742 0.387 -0.04285 0.2983 0.1023
0.1005 0.292 -0.09625 0.0805 0.1714 0.01833 0.01046 0.143
0.1023 0.1279 0.03458 0.09875 0.3335 -0.1852 -0.3271 -0.3218
-0.4758 -0.5005 -0.5522 -0.0226 0.01502 0.1273 0.4521 0.5327
0.2426 -0.006775 0.1111 0.152 0.0505 0.4824 0.4019 0.1251
0.136 0.036 -0.2705 -0.0642 -0.0625 -0.2678 -0.00866 -0.1956
-0.1246 -0.09705 -0.2108 0.188 0.1882 -0.332 0.12415 -0.09
0.4631 0.2007 -0.07556 -0.0546 0.1309 -0.4778 0.1099 -0.2722

weight f2 [44]
00000000: a338 1837 3139 4034 1736 4537 2c36 9637
00000010: 2e35 f237 bf3a 5138 be37 7639 e038 6839
00000020: 7f38 7038 9e38 6438 5b38 ac37 3635 0237
00000030: cc38 af36 3a36 a736 8138 a838 9c38 4338
00000040: bf36 a939 8536 7934 d734 f236 e038 0438
00000050: dd39 e135 9135 8837
0.5796 0.4434 0.649 0.2656 0.3806 0.4543 0.3857 0.474
0.3237 0.4966 0.8433 0.5396 0.484 0.6826 0.6094 0.676
0.562 0.5547 0.577 0.549 0.5444 0.4795 0.3257 0.438
0.5996 0.4177 0.3892 0.4158 0.563 0.582 0.576 0.5327
0.4216 0.7075 0.4075 0.2795 0.3025 0.434 0.6094 0.502
0.733 0.3674 0.348 0.4707

bias f2 [44]
00000000: 150d a80e 0890 0504 fc01 6d0c 630d 060c
00000010: 870e 040a 3418 a310 1592 ad13 d691 bb8e
00000020: b98a 6e0e ef8d ca11 4411 cd8e c58d db87
00000030: 8b83 0494 8e8d 330f 430e 4c8e 9601 bb8c
00000040: ef09 810e 6691 c887 050d af96 b605 0690
00000050: e097 7791 d691 9793
0.0003102 0.0004063 -0.000492 6.133e-05 3.03e-05 0.0002701 0.0003288 0.0002456
0.0003984 0.0001836 0.002052 0.000566 -0.0007424 0.000937 -0.0007124 -0.0004108
-0.0002052 0.0003924 -0.0003622 0.0007067 0.000643 -0.000415 -0.0003521 -0.00011986
-5.406e-05 -0.00098 -0.000339 0.0004394 0.0003822 -0.0003843 2.42e-05 -0.0002887
0.0001811 0.000397 -0.000659 -0.00011873 0.0003064 -0.001632 8.714e-05 -0.000491
-0.001923 -0.000667 -0.0007124 -0.0009265

running_mean f2 [44]
00000000: 462d 50b2 102e ce34 beaa 1328 322d 78ae
00000010: a932 242f d228 f62b 3998 c828 202f 13b1
00000020: deaa d4a0 f6b0 0a1d 3225 1ea6 3734 3320
00000030: 71ac 9934 b9b5 1532 0529 fa32 4c30 932d
00000040: 7e22 1128 9024 4230 1ab0 772a 782b 1633
00000050: f52b 4e25 6fb0 27af
0.0824 -0.1973 0.0947 0.3003 -0.05267 0.03183 0.0812 -0.1011
0.2081 0.1116 0.03766 0.0622 -0.002062 0.03735 0.1113 -0.1586
-0.05365 -0.00943 -0.155 0.00492 0.0203 -0.0239 0.2634 0.0082
-0.0694 0.2874 -0.3577 0.1901 0.0392 0.218 0.1343 0.0871
0.01268 0.03177 0.01782 0.133 -0.1282 0.0505 0.05835 0.2214
0.06216 0.02072 -0.1385 -0.11176

running_var f2 [44]
00000000: cb2f 622d 7630 0431 d82c d72d 5129 a82f
00000010: 072c ef2a 3e35 272c 4c30 9931 2c34 6e33
00000020: 0532 af33 8732 e233 de31 192d 5030 ca30
00000030: 2934 2b2e b630 242d 942d b331 4430 002d
00000040: 0c2d d32d 8633 a52c eb30 7936 b92e 7231
00000050: 2b34 6930 2929 0330
0.12177 0.0841 0.1394 0.1567 0.0757 0.09125 0.04153 0.1196
0.0629 0.05417 0.3276 0.0649 0.1343 0.1749 0.2607 0.2322
0.1881 0.2401 0.204 0.2463 0.1833 0.07965 0.1348 0.1497
0.26 0.0964 0.1472 0.0803 0.08716 0.1781 0.1333 0.0781
0.07886 0.091 0.2351 0.0726 0.1537 0.4045 0.10504 0.1702
0.2605 0.1378 0.0403 0.1254

weight f2 [11, 44, 1, 1]
00000000: 09b1 4bb3 312c 8ab3 2232 d934 392a d030
00000010: 11a8 722c 18a9 132e 3c19 f2b5 82a3 04b9
00000020: a9b1 f831 9629 64b3 2ab1 d537 3b2f 28b3
00000030: 8533 d9af d931 d6a5 dd30 86b1 6aa5 5fa4
00000040: 9a30 60ae 8226 e7ac 6dac 1833 4a2f c130
00000050: c6a9 cb36 c8b0 09b1 9ba9 d1ac 8729 882d
00000060: 552e 4db2 0230 25b4 8ba8 b8af 6b2a ccaf
00000070: 0f2d b7af 4cb5 2739 ce33 af2f f622 43a5
00000080: e533 8eb7 392f 9633 dcb0 dfb1 7aa1 08b1
00000090: 69a2 0030 8529 91ad 07b2 cbb4 2a23 8eb0
000000a0: 532d df32 37b8 cbb0 4a2f 822d 7d29 1d34
000000b0: d1ab 50b4 0e34 012d 542c fc29 2cac d8a8
000000c0: f120 c8b2 dbba c2b4 142a bb29 a52e 122a
000000d0: 7924 06b8 c2ac bdab f0ad b72a 9b34 f51d
000000e0: 4230 6e31 ef2f 61b0 15b5 cab4 f0b6 b530
000000f0: f727 01a9 1528 3b2e 0ca6 e4ac b6a5 bf28
00000100: bc35 ef94 0630 e628 d5af d3b3 c9a5 4daf
00000110: 9231 e4b1 8daf f7b5 f4b5 2f34 9ea5 16b2
00000120: 62ae 0fa9 ca35 74ad 232a be30 2539 9d31
00000130: 71b1 0030 2eb0 b0ad d8a5 5830 92ae 0bb4
00000140: 8f38 9237 8835 5ab2 9e2a 9136 7c2a 33ab
00000150: 74aa 7321 48ac d4b6 8734 4b2d 0a2e 112f
00000160: 0fa7 0aad 97ac 6824 8519 35ac 53b2 6423
00000170: 0bb2 4db0 32aa 5631 6f1b e23a c030 aaa9
00000180: 62a0 7123 681c 7436 5dae d11e 2726 84af
00000190: e5b8 39a1 2129 15ae 082e e0ad baa3 4aad
000001a0: 4430 dfac f5ad 502d f4b1 5bb8 8430 64b6
000001b0: 07ac 0cb5 e62d 722d 84b6 7335 0c86 2cb0
000001c0: 0a30 6c34 3fa8 3a35 f632 4830 c12b 11ae
000001d0: 42a3 3934 cc33 4131 c1b8 e62a d530 f8ae
000001e0: a62c 1734 45ad ebb1 27b2 8fae f232 6eae
000001f0: da2c 962d 16a6 65ad 7c31 f838 63b4 7930
-0.1573 -0.2279 0.0655 -0.2356 0.1917 0.303 0.0486 0.1504
-0.03177 0.06946 -0.0398 0.0949 0.002556 -0.3716 -0.01466 -0.627
-0.1769 0.1865 0.04364 -0.231 -0.1614 0.4895 0.113 -0.2236
0.235 -0.1226 0.1827 -0.0228 0.152 -0.1726 -0.02115 -0.01707
0.1438 -0.0996 0.02542 -0.0766 -0.06915 0.2217 0.1139 0.1486
-0.0451 0.4246 -0.1494 -0.1573 -0.0438 -0.07526 0.04318 0.0864
0.09894 -0.1969 0.1252 -0.259 -0.0355 -0.1206 0.05014 -0.1218
0.07904 -0.12054 -0.331 0.644 0.2439 0.12006 0.013596 -0.02055
0.2467 -0.4722 0.11285 0.237 -0.1519 -0.1835 -0.0107 -0.1572
-0.01252 0.125 0.04312 -0.087 -0.1884 -0.2996 0.01399 -0.1423
0.0832 0.2147 -0.527 -0.1498 0.1139 0.08606 0.04288 0.257
-0.06107 -0.2695 0.2534 0.0782 0.0676 0.04675 -0.0652 -0.03784
0.00965 -0.2119 -0.857 -0.2974 0.0475 0.04477 0.1038 0.04742
0.01747 -0.503 -0.07434 -0.06046 -0.0928 0.05246 0.2878 0.005817
0.133 0.1697 0.12396 -0.1368 -0.3176 -0.2993 -0.4336 0.1471
0.03111 -0.0391 0.0319 0.09735 -0.02362 -0.0764 -0.02231 0.03708
0.3584 -0.0012045 0.1257 0.03827 -0.1224 -0.2445 -0.0226 -0.1141
0.1741 -0.1841 -0.118 -0.3728 -0.372 0.2615 -0.02194 -0.1902
-0.09973 -0.03952 0.3618 -0.0852 0.04794 0.1482 0.643 0.1754
-0.17 0.125 -0.1306 -0.08887 -0.02283 0.1357 -0.10266 -0.2527
0.57 0.4731 0.3457 -0.1985 0.0517 0.4104 0.05066 -0.05624
-0.0504 0.01064 -0.0669 -0.4268 0.283 0.0827 0.09436 0.1104
-0.02757 -0.07874 -0.0717 0.01721 0.002695 -0.06573 -0.1976 0.014435
-0.1888 -0.1344 -0.0484 0.1667 0.00363 0.8604 0.1484 -0.04425
-0.00856 0.014534 0.004303 0.4033 -0.0994 0.006657 0.02403 -0.11743
-0.612 -0.0102 0.04007 -0.09503 0.09424 -0.0918 -0.01509 -0.08264
0.1333 -0.0761 -0.0931 0.083 -0.186 -0.5444 0.1411 -0.3994
-0.0629 -0.3154 0.09216 0.0851 -0.4072 0.3406 -9.227e-05 -0.1304
0.1262 0.2764 -0.03317 0.3267 0.2175 0.1338 0.06058 -0.0948
-0.014175 0.264 0.2437 0.1642 -0.594 0.0539 0.151 -0.1089
0.07263 0.2556 -0.08234 -0.1849 -0.1923 -0.1025 0.217 -0.10046
0.0758 0.0873 -0.02377 -0.0843 0.1714 0.621 -0.2742 0.1398

weight f2 [44]
00000000: b33a 0a3c 6e3c 6a3c 6d3b 463b 1b3c 593c
00000010: 363a 5a3b af3b 7538 7c38 453c 7639 983a
00000020: fc3a 6b3b b93a b33a 093b 5d3b 9d35 7734
00000030: 3634 7c37 2638 6a33 593b 4037 b137 7837
00000040: cb36 d835 1839 7e37 6636 bb37 6e37 5538
00000050: 2835 9735 1436 d233
0.8374 1.01 1.107 1.104 0.928 0.909 1.026 1.087
0.7764 0.919 0.9604 0.557 0.5605 1.067 0.6826 0.824
0.873 0.9272 0.8403 0.8374 0.8794 0.9204 0.3508 0.279
0.2632 0.4678 0.5186 0.2317 0.9185 0.4531 0.4807 0.4668
0.4246 0.3652 0.6367 0.4683 0.4 0.4832 0.4644 0.5415
0.3223 0.3494 0.38 0.2444

bias f2 [44]
00000000: dcaa c5b0 2929 2ab1 04a5 d51d dbaa 3429
00000010: e232 9b30 421d dead ceac 3baa 7531 b2ab
00000020: b6b0 b8ac 8fae 182f 5da7 e9ac 0aae 8d2f
00000030: 0b34 29ac d2b3 9927 1eba c932 eaa7 feb1
00000040: 85aa ed32 75b4 912d d8a2 0f31 3230 052e
00000050: d132 702f 972f 1734
-0.0536 -0.149 0.0403 -0.1614 -0.01959 0.005695 -0.05356 0.04065
0.2151 0.1439 0.005135 -0.0917 -0.0751 -0.04868 0.1705 -0.06012
-0.1472 -0.0737 -0.1025 0.11084 -0.02876 -0.0767 -0.09436 0.118
0.2527 -0.065 -0.2444 0.02968 -0.7646 0.212 -0.03091 -0.1873
-0.05093 0.2164 -0.2786 0.087 -0.01337 0.1581 0.1311 0.09406
0.213 0.1162 0.1186 0.2556

running_mean f2 [44]
00000000: 8392 e793 cd9b 0996 5318 4a13 f008 001c
00000010: b096 c295 9316 ba99 f49c 161d 90a0 b19c
00000020: e915 301e bb99 171d bc10 239e 121c 1a1e
00000030: 619a f118 4612 3b1f 9e19 070b c39e 739e
00000040: 201f 48a1 3021 731c cc9a 439d 5493 1c17
00000050: dc9b 6217 21a1 db22
-0.000795 -0.0009646 -0.003809 -0.001473 0.002111 0.00089 0.0001507 0.003906
-0.001633 -0.001406 0.001605 -0.002796 -0.004837 0.004967 -0.00891 -0.00458
0.001443 0.006042 -0.002798 0.00497 0.000578 -0.005993 0.003975 0.00596
-0.003115 0.002413 0.000766 0.00706 0.002743 0.0002145 -0.006603 -0.006298
0.006958 -0.010315 0.01013 0.004345 -0.003319 -0.00514 -0.0008945 0.001736
-0.003838 0.001802 -0.01002 0.01339

running_var f2 [44]
00000000: 153c 473e cb40 aa3f 0a3d 703d 2940 b640
00000010: 4c3b 123d e03d 763b 363d fb40 013b 9c3d
00000020: 3f3d 833d 233c 493d 703f 0f3e 6b3a 4d36
00000030: a43b 263a c539 5f37 d13b be39 e336 6837
00000040: 453c cf38 5339 eb3c 8d38 8b3b d339 2e3b
00000050: 0638 ea37 e638 6138
1.0205 1.569 2.396 1.916 1.26 1.359 2.08 2.355
0.912 1.268 1.469 0.9326 1.303 2.49 0.8755 1.402
1.312 1.378 1.034 1.321 1.859 1.515 0.8022 0.3938
0.955 0.7686 0.721 0.4607 0.977 0.718 0.4304 0.463
1.067 0.601 0.6655 1.2295 0.569 0.943 0.728 0.8975
0.503 0.4946 0.6123 0.5474

weight f2 [22, 44, 1, 1]
00000000: c92d b530 27b9 89b5 12a6 aa34 30ac 13ba
00000010: 0bb0 6eb2 eda8 85a9 9ab4 a0bc b9ad 78b3
00000020: 70b3 ce30 4fb6 15b1 0725 c8b8 c7b0 d2a7
00000030: a2af 6024 edad e5ac e0b0 b2a5 2eaa 49ad
00000040: 0e31 5aab d827 3cb0 26a4 1bb1 beb0 82b1
00000050: 0aa9 01a5 30ae 932a 71af a1b2 30b0 76ad
00000060: ba2d eea6 5ea8 b22c 1d2e caa7 63ac 6eb1
00000070: 5a2f ce2e 572d 1c31 b8ad b226 f630 2331
00000080: 3033 2b36 5f35 3234 0aa6 6c2f 2338 f332
00000090: caa9 91b3 afb8 35b8 4933 88b8 35ae 8138
000000a0: 5fb3 bdb1 78ad 9818 3a21 ea34 5fb8 af38
000000b0: 7736 f638 2928 b128 663b 012c 92b3 4f32
000000c0: 1734 7aaf d825 47b6 b1b2 a8a5 3aac acae
000000d0: 59ac 32b8 efb2 38ac 17b5 8d34 ada1 73a7
000000e0: 0a2d b4b4 c826 6ca8 762e fbb2 8db4 e2b5
000000f0: b295 2724 f033 b731 b9b4 d2b5 2d19 11aa
00000100: 21a6 a22d 9f35 e121 3f38 ae27 cfab 2bae
00000110: 3a33 972d 2bac 0cb0 7b36 7530 5da4 baa5
00000120: 2bae 6aae f3af f0a5 9b1a 7c36 1e35 2534
00000130: 0191 a82d 3faf 1834 861b d31a d8b6 8627
00000140: 422f b637 6db3 60b2 422f 69b3 fd38 36b5
00000150: 77b1 62b4 2c34 cc30 9ab5 73b1 27b5 622b
00000160: ba30 21b5 52b3 6bb3 b236 82ac 2433 9ab8
00000170: f01e 73b4 2c33 0a2d 13b0 deae 9f36 2030
00000180: 299d 8b32 8631 93ac 8732 ce2c 5eb0 e3b1
00000190: 07b3 c435 1a35 2cb0 fa31 612f 672c 15aa
000001a0: 6532 adb0 6430 6eb1 f230 3637 93ae 23b3
000001b0: 2635 ce34 fb33 1fac 2d34 3e34 4d38 3833
000001c0: 2730 d12f 7231 e436 7a36 ab32 4238 12aa
000001d0: d02e 5d34 5031 7031 1c36 cbb0 4235 da31
000001e0: dd33 a538 b7a9 7c25 e12d 35a7 1532 1da8
000001f0: 4b2f f62d a1a9 dca6 75a8 8b2a f428 072b
0.0904 0.1471 -0.644 -0.346 -0.02371 0.2915 -0.0654 -0.7593
-0.1263 -0.2009 -0.03848 -0.04312 -0.2876 -1.156 -0.0894 -0.2334
-0.2324 0.1501 -0.3943 -0.1588 0.01964 -0.5977 -0.1493 -0.03055
-0.11926 0.01709 -0.0926 -0.0765 -0.1523 -0.02225 -0.04828 -0.0826
0.158 -0.05743 0.03064 -0.1323 -0.0162 -0.1595 -0.1482 -0.1721
-0.03937 -0.01955 -0.0967 0.05136 -0.1163 -0.2072 -0.1309 -0.0853
0.0895 -0.02707 -0.03412 0.07336 0.0955 -0.03043 -0.06854 -0.1697
0.11487 0.1063 0.08344 0.1597 -0.08936 0.02615 0.155 0.1605
0.2246 0.3855 0.3357 0.2622 -0.02359 0.11597 0.517 0.2172
-0.04523 -0.2365 -0.5854 -0.526 0.2277 -0.5664 -0.097 0.563
-0.2303 -0.1793 -0.08545 0.002243 0.01021 0.3071 -0.5464 0.5854
0.404 0.62 0.0325 0.03665 0.925 0.06256 -0.2366 0.1971
0.2556 -0.1168 0.02283 -0.3923 -0.2091 -0.0221 -0.06604 -0.10425
-0.06793 -0.5244 -0.2167 -0.0659 -0.318 0.2844 -0.011086 -0.0291
0.07874 -0.294 0.02649 -0.03455 0.10095 -0.2181 -0.2844 -0.3677
-0.00139 0.01622 0.248 0.1786 -0.2952 -0.3638 0.002527 -0.0474
-0.02394 0.088 0.3513 0.01148 0.531 0.03 -0.061 -0.0964
0.2258 0.08734 -0.0651 -0.1265 0.405 0.1393 -0.01704 -0.02237
-0.0964 -0.1002 -0.1242 -0.0232 0.003225 0.4053 0.3198 0.259
-0.000611 0.0884 -0.1132 0.2559 0.003674 0.003332 -0.4277 0.02939
0.1134 0.482 -0.232 -0.1992 0.1134 -0.2316 0.6235 -0.3257
-0.1708 -0.274 0.2607 0.1499 -0.35 -0.1703 -0.322 0.05768
0.1477 -0.3206 -0.2288 -0.2318 0.4185 -0.07043 0.2231 -0.575
0.006775 -0.278 0.2241 0.07874 -0.1273 -0.1073 0.4138 0.1289
-0.00504 0.2045 0.1726 -0.0715 0.204 0.0751 -0.1365 -0.184
-0.2196 0.3604 0.3188 -0.1304 0.1868 0.1153 0.0688 -0.04752
0.1998 -0.1461 0.1372 -0.1697 0.1545 0.4507 -0.1027 -0.223
0.3218 0.3003 0.2494 -0.0644 0.261 0.2651 0.5376 0.2256
0.1298 0.12213 0.1702 0.4307 0.4048 0.2084 0.532 -0.04742
0.10645 0.2727 0.166 0.1699 0.3818 -0.1498 0.3286 0.1829
0.2457 0.5806 -0.04465 0.02142 0.09186 -0.02815 0.1901 -0.03214
0.11395 0.09314 -0.04398 -0.0268 -0.03482 0.05112 0.0387 0.0549

weight f2 [22]
00000000: 3638 dc36 c135 3536 7535 3d35 0b34 c335
00000010: 6a35 173a 7535 9238 fc34 5430 0f36 b636
00000020: bc35 c536 cb35 7c35 8834 ec39
0.5264 0.4287 0.3596 0.388 0.341 0.3274 0.2527 0.36
0.3384 0.761 0.341 0.5713 0.3115 0.1353 0.3787 0.4194
0.3584 0.423 0.362 0.3428 0.2832 0.74

bias f2 [22]
00000000: fbad cf36 b235 8c37 6537 6138 d235 5a38
00000010: 3c38 36b6 db38 4eb0 ac37 f934 1632 4fa7
00000020: 651f 90af c138 aa33 3337 10b1
-0.09344 0.4255 0.356 0.4717 0.4622 0.5474 0.3638 0.544
0.5293 -0.3882 0.607 -0.1345 0.4795 0.3108 0.1902 -0.02855
0.00722 -0.11816 0.594 0.2395 0.45 -0.1582

running_mean f2 [22]
00000000: 35bf 3430 a030 ad36 9332 e93f 1837 cbb6
00000010: 7cbd 19bc 7c23 b7b6 4039 4430 7e36 32bb
00000020: 4eb0 9db9 1d39 70b3 70ba b535
-1.802 0.1313 0.1445 0.4172 0.2054 1.978 0.4434 -0.4246
-1.371 -1.024 0.01462 -0.4197 0.6562 0.1333 0.4058 -0.8994
-0.1345 -0.7017 0.639 -0.2324 -0.8047 0.3567

running_var f2 [22]
00000000: 803c 0c37 4435 4535 7635 6c39 9e35 1038
00000010: 3137 913b de37 a736 cf39 1636 c339 c237
00000020: 5b36 f337 dc37 0935 6738 5235
1.125 0.4404 0.329 0.3293 0.3413 0.6777 0.351 0.508
0.4495 0.946 0.4917 0.4158 0.726 0.3804 0.72 0.4849
0.3972 0.4968 0.4912 0.3147 0.5503 0.3325

weight f2 [44, 22, 1, 1]
00000000: 802e 16a8 ba2f cbb1 1cb4 fab2 84ad d6ac
00000010: b82b c3a6 36b2 91ae 39ad fdb0 c6ad 7728
00000020: 7b30 e430 5fb4 f7b1 7831 c6b3 8ba0 edb1
00000030: 9eaf ca35 b2af 0b30 34ac d8ab 75b0 71b1
00000040: 162b 1228 73ad 90b2 2ead 1f28 e6a2 a7aa
00000050: b929 d51c 77ad 889f 7dad 3129 0cb2 f3af
00000060: e52d 54ac 2330 75b5 112a e22d 0226 7c30
00000070: 0020 df27 3fb3 aab4 07b1 4424 4330 a936
00000080: 32aa 39a9 c320 152d 7fb0 f0b3 8c30 64ae
00000090: bba6 7bad 4534 2432 a62d 4aad 2325 2430
000000a0: 4cac 002f 452b 7928 b1a8 f531 d1b6 6bae
000000b0: 2f26 b12d 94b3 23ad 67af 6c2b 2bb0 df2f
000000c0: 96af 8aaf 34ac 54b4 8730 702b 81b0 7aad
000000d0: 5cac 2db2 6eac 3cb4 89aa 80b3 2ea6 4a28
000000e0: baa9 a3ac 9732 b728 8b2e 98b3 489e 8a29
000000f0: e8a9 f7ad e133 9d34 252d 3ea8 bf29 a3b0
00000100: beb3 0f31 92ae 352f b7b0 ec2f 61ab b92e
00000110: d3ad 87b4 2f2f e3b4 192e f436 59b0 dea9
00000120: 01ae cbb0 c4b5 4930 5f21 df34 9cab baa8
00000130: 6932 68b0 1132 2e2e cd2d bc2e 14ad a52c
00000140: d22e 70b1 deab 2e30 9cac cd30 04af d4b0
00000150: 2f34 f42f ea30 34ac eead 6bb0 6616 db2e
00000160: d0a6 4836 942f ca32 4a33 fb2e a5b2 0aab
00000170: 8dae 5bb3 68ac a4ae 26b5 7229 c932 a9b0
00000180: e9af 42b0 adb1 e8b2 9aac f226 ca24 3d2c
00000190: 1132 32b2 76ad cb25 a0b0 a825 c52e 9135
000001a0: 88b5 fb30 e52c efa9 12a8 5730 f4ac 8eaa
000001b0: 1fac 552f 75ad 2e31 f934 ceae 6cac daa1
000001c0: d42d 3bb0 66a5 0835 3224 c824 2d27 1316
000001d0: 58a0 839a a231 2732 67a4 a4a9 801d f82b
000001e0: 4eb1 222a cd17 a426 032f a3b4 2634 cdae
000001f0: 6faf 7031 6a2a aab1 9328 19aa edb0 2fab
0.10156 -0.03192 0.1207 -0.181 -0.2568 -0.218 -0.0862 -0.07556
0.0603 -0.02641 -0.1941 -0.1026 -0.0816 -0.1559 -0.0902 0.03488
0.14 0.1528 -0.2732 -0.1864 0.1709 -0.2429 -0.00887 -0.1852
-0.119 0.3618 -0.12024 0.1263 -0.0657 -0.06128 -0.1393 -0.17
0.05536 0.0318 -0.08514 -0.2051 -0.08093 0.0322 -0.01347 -0.05197
0.0447 0.00472 -0.0854 -0.007355 -0.08575 0.04056 -0.189 -0.1242
0.0921 -0.0676 0.1293 -0.341 0.0474 0.0919 0.02347 0.1401
0.007812 0.03075 -0.2264 -0.2915 -0.1571 0.01666 0.1332 0.4163
-0.0484 -0.0408 0.0093 0.0794 -0.1405 -0.248 0.1421 -0.09985
-0.02629 -0.08563 0.2668 0.1919 0.08826 -0.08264 0.02007 0.1294
-0.06714 0.1094 0.0568 0.03494 -0.03665 0.1862 -0.426 -0.1003
0.02415 0.0889 -0.2368 -0.08026 -0.11566 0.05798 -0.1302 0.123
-0.1185 -0.1178 -0.0657 -0.2705 0.1415 0.0581 -0.1407 -0.0856
-0.0681 -0.193 -0.0692 -0.2646 -0.05106 -0.2344 -0.02414 0.0335
-0.04474 -0.07245 0.2059 0.03683 0.10223 -0.2373 -0.006134 0.04327
-0.04614 -0.0932 0.2462 0.2883 0.0804 -0.03314 0.0449 -0.1449
-0.242 0.1581 -0.10266 0.1126 -0.1473 0.1238 -0.05765 0.10504
-0.091 -0.283 0.11224 -0.3054 0.0953 0.4346 -0.1359 -0.04584
-0.0938 -0.1498 -0.3604 0.1339 0.01049 0.3044 -0.05945 -0.03693
0.2003 -0.1377 0.1896 0.09656 0.09064 0.1052 -0.07935 0.0726
0.10657 -0.1699 -0.06146 0.1306 -0.072 0.15 -0.1096 -0.1509
0.2615 0.12427 0.1536 -0.0657 -0.09265 -0.1381 0.001562 0.1071
-0.02661 0.3926 0.1184 0.2122 0.2278 0.1091 -0.2076 -0.055
-0.10236 -0.2299 -0.06885 -0.10376 -0.3218 0.04254 0.212 -0.1456
-0.1236 -0.133 -0.1774 -0.2158 -0.0719 0.02713 0.0187 0.0662
0.1896 -0.1936 -0.0853 0.02263 -0.1445 0.0221 0.1058 0.348
-0.3457 0.1556 0.0765 -0.04636 -0.0318 0.1356 -0.0774 -0.0512
-0.0644 0.11456 -0.08527 0.1619 0.3108 -0.1063 -0.0691 -0.01143
0.09106 -0.1322 -0.02109 0.3145 0.01639 0.01868 0.02803 0.001483
-0.008484 -0.00318 0.176 0.1923 -0.0172 -0.04407 0.00537 0.06226
-0.1658 0.0479 0.0019045 0.02594 0.10956 -0.2898 0.2593 -0.10626
-0.11615 0.1699 0.0501 -0.177 0.03574 -0.04764 -0.1539 -0.05612

weight f2 [44]
00000000: d23b 003c 003c 003c 003c 003c 003c 003c
00000010: 003c 003c 003c 003c 923a 003c 003c 003c
00000020: 003c 003c 003c 003c 003c ff3b 003c 003c
00000030: 003c 003c 003c 003c 003c 003c 003c 003c
00000040: 5b3b 003c 003c 003c 003c 003c 003c 003c
00000050: 003c fc3b 003c 003c
0.9775 1.0 1.0 1.0 1.0 1.0 1.0 1.0
1.0 1.0 1.0 1.0 0.8213 1.0 1.0 1.0
1.0 1.0 1.0 1.0 1.0 0.9995 1.0 1.0
1.0 1.0 1.0 1.0 1.0 1.0 1.0 1.0
0.9194 1.0 1.0 1.0 1.0 1.0 1.0 1.0
1.0 0.998 1.0 1.0

bias f2 [44]
00000000: 5237 d8a9 98ab 8035 322c 0428 7eb5 cea9
00000010: cb2b f32e fdad 6a31 3c37 a9a7 3434 1e30
00000020: bc26 fc2f 65ad db2a 1230 0637 82b1 7b31
00000030: 62ad 782f a335 ec30 d4af 7ab0 8cb1 0934
00000040: c835 6dac ac2c 862d b730 1a30 5e2b a3b3
00000050: 542e f335 2aac 482c
0.4575 -0.04565 -0.05933 0.3438 0.06555 0.03137 -0.3433 -0.04535
0.06088 0.1086 -0.09357 0.1692 0.4521 -0.02992 0.2627 0.1287
0.0263 0.12476 -0.0843 0.05356 0.1272 0.439 -0.1721 0.1713
-0.0841 0.1167 0.3523 0.1538 -0.1223 -0.1399 -0.1733 0.2522
0.3613 -0.06915 0.073 0.0863 0.1473 0.1282 0.05756 -0.2386
0.0989 0.3718 -0.06506 0.0669

running_mean f2 [44]
00000000: c2b9 a2b2 50b0 27ae eab6 8828 c7b5 2594
00000010: e4ad 37b0 d830 7cb0 9ea9 2737 82af c3ab
00000020: 49ab 8b33 1ea8 59b6 68b6 7334 81ae b7b3
00000030: 4bb8 bb33 9cb2 1331 1b30 341f cb29 de2a
00000040: 10b8 7c31 0fb5 362c 89b9 fb28 87b2 25aa
00000050: ff33 1b34 efad cba6
-0.7197 -0.2073 -0.1348 -0.0961 -0.4321 0.0354 -0.361 -0.001012
-0.09204 -0.1317 0.1514 -0.1401 -0.04388 0.447 -0.1173 -0.06064
-0.05692 0.2357 -0.03217 -0.3967 -0.4004 0.278 -0.1016 -0.2411
-0.5366 0.2416 -0.2065 0.1586 0.1283 0.007034 0.04526 0.05365
-0.508 0.1714 -0.3162 0.0658 -0.692 0.0389 -0.204 -0.048
0.2499 0.2566 -0.0927 -0.02654

running_var f2 [44]
00000000: 5530 c529 022d b92a 452c 6528 9b2c 1e28
00000010: 8f2c e92a c129 512c 7531 812e 252d d62c
00000020: 2d2b 2b2d aa29 402c ce2e ed2e 092a 682c
00000030: 772a ea28 132e e72e 4528 d029 a12c c62c
00000040: 6c2f a328 562a 9a29 2f2c 6f2a 5b2d 5d2c
00000050: c62e 252d e028 e028
0.1354 0.04507 0.07825 0.05252 0.0667 0.03433 0.07196 0.03217
0.0712 0.054 0.04495 0.06744 0.1705 0.1016 0.0804 0.07556
0.05606 0.08075 0.04425 0.0664 0.1063 0.1082 0.04715 0.06885
0.0505 0.0384 0.0949 0.10785 0.03336 0.0454 0.0723 0.0746
0.11597 0.03622 0.0495 0.04376 0.06537 0.05026 0.0837 0.0682
0.10583 0.0804 0.0381 0.0381
