session6/densenet_max_fact_dist/save_model/save_model_state_final.pth (torch, 382762 bytes, 353 tensors)

weight f2 [3, 1, 3, 3]
000000 55 33 49 39 e1 34 b2 34 c3 c4 8b 36 28 2f 39 36
       0.2291 0.6606 0.305 0.2935 -4.76 0.409 0.1118 0.389
000010 bf 38 8d ba 29 38 94 b8 c4 40 39 b9 49 3b 71 b0
       0.5933 -0.819 0.52 -0.5723 2.383 -0.653 0.9106 -0.1388
000020 36 3c 3f bb a7 36 10 36 72 34 07 37 8a c4 b9 2f
       1.053 -0.906 0.4158 0.379 0.2778 0.4392 -4.54 0.12067
000030 4e 34 7e 37 91 38
       0.269 0.4683 0.571

weight f2 [20, 3, 1, 1]
000000 20 bd 0f b9 24 28 a2 b8 29 2d 78 b2 2f 31 3f b5
       -1.281 -0.6323 0.03235 -0.579 0.0806 -0.2021 0.162 -0.328
000010 06 32 7f 38 b2 b2 a7 b4 19 b8 a6 33 d6 33 76 3c
       0.1882 0.562 -0.2092 -0.2908 -0.512 0.239 0.2449 1.115
000020 1b 33 1d bd 09 9e 45 ac 6d 39 20 38 49 ad 12 31
       0.222 -1.278 -0.005894 -0.0667 0.678 0.5156 -0.0826 0.1584
000030 da 31 31 39 24 3c a0 31 95 3b 43 38 4e 30 0a 28
       0.1829 0.649 1.035 0.1758 0.9478 0.5327 0.1345 0.03156
000040 ec b8 5a b8 e0 ba 41 b6 fb b5 4c bb fe b2 62 ba
       -0.615 -0.544 -0.8594 -0.3909 -0.3738 -0.912 -0.2185 -0.798
000050 11 b4 40 3c 60 2d 91 b6 11 30 7b 3c a8 3c e1 2c
       -0.2542 1.0625 0.084 -0.4104 0.1271 1.12 1.164 0.07623
000060 7c b4 a0 34 fb ae fe 39 0e 32 67 30 74 3a ab ad
       -0.2803 0.289 -0.1091 0.749 0.1892 0.1376 0.8066 -0.08856
000070 2d b9 06 b5 42 ba 34 bb
       -0.647 -0.314 -0.782 -0.9004

weight f2 [20]
000000 5a 38 c9 37 15 38 44 35 0c 37 0b 36 72 38 ae 38
       0.544 0.4866 0.5103 0.329 0.4404 0.3777 0.5557 0.585
000010 04 37 cd 35 1c 36 9a 35 8e 36 4b 35 9f 38 7f 36
       0.4385 0.3625 0.3818 0.35 0.4097 0.3308 0.5776 0.406
000020 1d 37 29 39 17 36 fe 38
       0.4446 0.645 0.3806 0.624

bias f2 [20]
000000 63 3b 9a a7 bf 34 a2 a8 da 2c 1b 30 fb b0 12 b9
       0.9233 -0.0297 0.2966 -0.0362 0.0758 0.1283 -0.1556 -0.634
000010 60 38 7b 39 71 b4 39 17 50 24 b1 2b e3 a4 54 38
       0.547 0.685 -0.2776 0.001763 0.01685 0.0601 -0.01909 0.541
000020 53 b4 f9 b5 52 b1 ef 35
       -0.2703 -0.3733 -0.1663 0.3708

running_mean f2 [20]
000000 17 9a c2 92 2f 03 2c 1b 7d 9a df 20 eb 9a 15 13
       -0.002974 -0.000825 4.86e-05 0.003502 -0.003168 0.009514 -0.003378 0.0008645
000010 f0 9d a4 9b 2c 1b 38 17 09 16 96 9f 50 0c 6b 14
       -0.0058 -0.00373 0.003502 0.001762 0.001473 -0.00741 0.0002632 0.001079
000020 19 92 08 15 01 1e 0d 1d
       -0.0007443 0.001228 0.005863 0.004932

running_var f2 [20]
000000 5c 3f bb 3e 36 3b 98 38 cf 38 86 3b 0c 3d 2b 3d
       1.84 1.683 0.9014 0.574 0.601 0.9404 1.262 1.292
000010 b2 3e 68 39 3b 39 a3 39 b7 38 34 3b ef 39 e3 3c
       1.674 0.676 0.654 0.7046 0.5894 0.9004 0.7417 1.222
000020 66 3b 75 3d 90 36 b6 3d
       0.925 1.364 0.4102 1.428

weight f2 [40, 20, 1, 1]
000000 06 2d 60 30 0d b0 c7 25 d7 31 a0 31 59 b0 87 aa
       0.0785 0.1367 -0.1266 0.02257 0.1825 0.1758 -0.1359 -0.051
000010 d3 b2 af b1 2c 2d 2f ad be ae bb 2c 9f 29 10 ad
       -0.2133 -0.1776 0.0808 -0.081 -0.10535 0.0739 0.0439 -0.0791
000020 89 30 cf a2 59 29 00 2c 97 a9 e4 a9 77 2f 88 30
       0.1417 -0.0133 0.04178 0.0625 -0.04367 -0.04602 0.11664 0.1416
000030 1c 24 38 ae 12 31 6a 34 3d 31 57 2d cc a9 ba 23
       0.01605 -0.09717 0.1584 0.276 0.1637 0.08344 -0.0453 0.01509
000040 ad 18 f8 2a 1c 2e 57 2e 0f 2a 6c 32 f1 29 2e ac
       0.002283 0.05444 0.09546 0.09906 0.04733 0.2007 0.04642 -0.0653
000050 0c 34 51 28 85 b0 a5 a2 36 2f 13 aa 39 a9 9b b1
       0.253 0.03372 -0.1412 -0.01298 0.1127 -0.04745 -0.0408 -0.1752
000060 0d b3 ff b4 2d 2f 4a a7 f8 af 4c 2c 3d af 38 b4
       -0.2203 -0.3123 0.1121 -0.02847 -0.1245 0.06714 -0.1131 -0.2637
000070 eb ae 22 b0 c4 a3 c2 31 d5 21 18 18 c3 2d 9a 2a
       -0.1081 -0.1292 -0.01517 0.1799 0.01139 0.001999 0.09 0.05157
000080 3c 2e 38 a6 09 35 c3 30 b5 33 69 33 ba 2c 8e aa
       0.0974 -0.02429 0.3147 0.1488 0.2408 0.2316 0.07385 -0.0512
000090 2c a5 02 34 39 31 a0 ad ce a3 1b 32 7e 2a af 26
       -0.0202 0.2505 0.1632 -0.0879 -0.01524 0.1908 0.05072 0.02611
0000a0 cc b4 db ac ce 2d c0 ac 20 a6 43 9d 70 32 07 2c
       -0.2998 -0.07587 0.0907 -0.0742 -0.02393 -0.00514 0.2012 0.0629
0000b0 81 31 5b 33 6c b0 1d ae d8 af 93 2d 5a 2c d7 2f
       0.172 0.2299 -0.1382 -0.0955 -0.12256 0.0871 0.068 0.1225
0000c0 46 28 66 2d ed af 19 b2 b6 b4 ed a9 29 a4 95 ac
       0.0334 0.08435 -0.12384 -0.1906 -0.2944 -0.0463 -0.01625 -0.0716
0000d0 70 2c 7b 2d f0 2b 6f a9 36 2b 98 32 b1 a2 b9 b1
       0.06934 0.08563 0.062 -0.04245 0.05634 0.206 -0.01307 -0.1788
0000e0 9b b0 89 29 27 a9 65 34 52 a5 c1 2c b1 ae 81 b5
       -0.1439 0.04324 -0.04025 0.2747 -0.02078 0.0743 -0.10455 -0.344
0000f0 15 b1 45 32 b9 b0 5c b2 12 33 07 34 ef ad e6 ac
       -0.1588 0.1959 -0.1476 -0.1987 0.221 0.2517 -0.0927 -0.07654
000100 43 b3 e1 2d 4e 35 0a af 22 af 35 b3 51 b1 44 a9
       -0.2269 0.09186 0.3315 -0.11 -0.11145 -0.2252 -0.1661 -0.04114
000110 85 34 c4 b1 5f a4 c2 2d 62 b1 cd 27 14 20 8c ad
       0.2825 -0.1802 -0.01707 0.08997 -0.1682 0.03047 0.007965 -0.0867
000120 81 b0 8e b1 01 30 36 af 4c 32 57 34 8c 24 87 2e
       -0.1407 -0.1736 0.1251 -0.1127 0.1968 0.2712 0.01776 0.102
000130 84 21 68 28 3f af 14 35 97 28 bf 2a 0d ae 1d 2c
       0.01077 0.03442 -0.1132 0.3174 0.03586 0.0527 -0.09454 0.0643
000140 ff ab 36 a4 26 33 3a 30 49 b3 bf 2c 22 2d 5e 95
       -0.06247 -0.01645 0.2234 0.1321 -0.2277 0.07416 0.0802 -0.00131
000150 a0 a8 c8 ac ef a6 9a 27 44 34 8c 28 90 30 a5 25
       -0.03613 -0.0747 -0.02708 0.0297 0.2666 0.03552 0.1426 0.02205
000160 0a ad f2 af 43 2d d5 22 72 34 ec 2d 00 26 fb ad
       -0.07874 -0.12415 0.0822 0.01334 0.2778 0.0925 0.02344 -0.09344
000170 58 2c e3 a9 94 b0 ec ac 4b b1 0b b4 31 ad 16 2c
       0.0679 -0.046 -0.1431 -0.0769 -0.1654 -0.2527 -0.0811 0.06384
000180 5b 31 b8 2a 9f 30 ce b1 16 9c 59 aa c4 2c 25 2b
       0.1674 0.0525 0.1444 -0.1814 -0.00399 -0.0496 0.07446 0.05582
000190 d0 33 54 30 5d b4 1d ae b6 2e 8f 28 d8 b0 70 b2
       0.2441 0.1353 -0.2727 -0.0955 0.10486 0.0356 -0.1514 -0.2012
0001a0 68 b0 d3 2d cd 28 82 a3 10 ac df 2d 4f b4 3a aa
       -0.1377 0.091 0.0375 -0.01466 -0.0635 0.09174 -0.2693 -0.04865
0001b0 ff 25 1d b5 53 2a 26 30 42 35 66 a7 a0 b0 90 b2
       0.02342 -0.3196 0.0494 0.1296 0.3286 -0.0289 -0.1445 -0.2051
0001c0 b3 a7 ae ac db a6 8e a6 10 ac 72 b1 b8 2f 9b 2f
       -0.03008 -0.0731 -0.02678 -0.0256 -0.0635 -0.1702 0.1206 0.11884
0001d0 89 32 b4 34 aa a2 14 b2 da aa 8d b0 cb 29 15 34
       0.2042 0.294 -0.013016 -0.19 -0.05353 -0.1422 0.04526 0.2551
0001e0 b9 b6 63 a4 de 2e f2 2e ea 2a 14 a1 01 2e b4 30
       -0.4202 -0.01714 0.1073 0.1085 0.05402 -0.00992 0.0938 0.147
0001f0 ba 2c f3 2b 8a b1 9a 2e e0 2d 7d a2 f9 2f 82 31
       0.07385 0.0621 -0.1731 0.10315 0.0918 -0.01267 0.1246 0.1721

weight f2 [40]
000000 00 3c 00 3c 1b 36 14 3b 00 3c bf 37 16 3a 00 3c
       1.0 1.0 0.3816 0.885 1.0 0.4841 0.7607 1.0
000010 00 3c f4 3b da 36 72 38 f8 35 00 3c e5 3b df 3a
       1.0 0.994 0.4282 0.5557 0.373 1.0 0.987 0.859
000020 00 3c bc 3a 52 38 00 3c 49 3a 35 3a 00 3c 00 3c
       1.0 0.842 0.54 1.0 0.7856 0.776 1.0 1.0
000030 fa 3b b4 38 34 38 00 3c 00 3c 00 3c e6 3b fd 3b
       0.997 0.588 0.5254 1.0 1.0 1.0 0.9873 0.9985
000040 00 3c 00 3c e8 3b 00 3c 00 3c 00 3c 00 3c 00 3c
       1.0 1.0 0.9883 1.0 1.0 1.0 1.0 1.0

bias f2 [40]
000000 ac 2f ef ae 26 38 2d b8 b1 ab 84 35 fb 35 c5 b0
       0.1199 -0.10834 0.5186 -0.522 -0.0601 0.3447 0.3738 -0.149
000010 b2 a6 e2 34 6b 37 2f 36 6f 38 25 31 4f 36 e9 36
       -0.02615 0.3052 0.4636 0.3865 0.554 0.1608 0.3943 0.432
000020 d8 30 66 38 04 38 cd 30 69 35 0b 39 64 32 5f 34
       0.1514 0.55 0.502 0.15 0.3381 0.6304 0.1997 0.2732
000030 73 35 dd 38 d0 36 70 a5 aa 2f fe b1 74 b8 c0 b7
       0.3406 0.608 0.4258 -0.02124 0.11975 -0.1873 -0.5566 -0.4844
000040 a4 ab 52 b0 7b b7 12 30 e4 af 5d 34 6d 28 30 b0
       -0.0597 -0.135 -0.4675 0.1272 -0.1233 0.2727 0.03458 -0.1309

running_mean f2 [40]
000000 8b b0 48 34 5a b4 a9 37 8f a3 89 b0 ed b3 a3 34
       -0.142 0.2676 -0.272 0.4788 -0.01476 -0.1417 -0.2477 0.2898
000010 64 28 21 a4 69 2c 8f 30 fe ad 4e b6 78 b9 e4 ae
       0.0343 -0.01613 0.0689 0.1425 -0.0936 -0.394 -0.6836 -0.10767
000020 9e 23 5f b5 39 b4 b8 30 f8 b1 20 ae ce 31 28 b5
       0.01488 -0.3357 -0.264 0.1475 -0.1865 -0.0957 0.1814 -0.3223
000030 52 b4 3a ae 28 b0 c3 34 70 32 53 2f 6b 34 12 32
       -0.27 -0.0973 -0.1299 0.2976 0.2012 0.11444 0.2761 0.1897
000040 25 34 be 34 75 34 cc ad 0f b3 67 29 72 34 56 36
       0.259 0.2964 0.2786 -0.0906 -0.2206 0.0422 0.2778 0.396

running_var f2 [40]
000000 be 2e 5f 30 20 34 b4 2f 9d 33 db 32 19 33 b6 2d
       0.10535 0.1366 0.2578 0.12036 0.2379 0.2142 0.2218 0.08923
000010 d2 2c 74 30 51 35 af 32 c8 32 28 31 e6 30 6e 31
       0.0753 0.1392 0.3323 0.2089 0.2119 0.1611 0.1531 0.1697
000020 ce 30 eb 30 22 34 5f 32 7f 30 05 31 ef 2f c2 30
       0.1501 0.1537 0.2583 0.1991 0.1405 0.1569 0.12396 0.1487
000030 b3 30 f6 31 a1 37 3b 2f f8 30 08 31 46 2e 8d 2d
       0.1469 0.1863 0.4768 0.113 0.1553 0.1572 0.098 0.08673
000040 60 29 55 29 6b 2d 51 30 62 28 a7 2c b5 2b fd 2d
       0.042 0.04166 0.08466 0.1349 0.03424 0.0727 0.0602 0.09357

weight f2 [40, 1, 3, 3]
000000 1d a5 40 35 d4 24 45 2e 66 b8 8a b2 de 37 e8 b0
       -0.01997 0.3281 0.01886 0.09796 -0.55 -0.2043 0.4917 -0.1533
000010 78 29 ed 33 a3 b0 df b4 dc b3 ec aa 5b 35 76 b5
       0.04272 0.2477 -0.1449 -0.3044 -0.2456 -0.05408 0.3347 -0.3413
000020 86 33 12 30 f2 b4 66 b6 6d 26 35 39 20 b8 81 39
       0.2351 0.1272 -0.309 -0.4 0.0251 0.651 -0.5156 0.688
000030 ee 34 10 b4 45 b0 7c a1 91 31 37 35 87 ad f9 2f
       0.308 -0.254 -0.1334 -0.01071 0.174 0.326 -0.08636 0.1246
000040 4f b0 87 33 3b a2 d5 33 0d b4 76 ab 15 34 3a ae
       -0.1346 0.2352 -0.01217 0.2448 -0.2532 -0.0583 0.2551 -0.0973
000050 4c b1 b3 b1 a6 35 bc b1 c4 af 21 ad fb b5 8c 98
       -0.1655 -0.1781 0.353 -0.1792 -0.12134 -0.08014 -0.3738 -0.00222
000060 85 ad ad b6 0a 3c 52 30 27 37 86 b8 8a 33 2b 33
       -0.08624 -0.4172 1.01 0.135 0.447 -0.5654 0.2356 0.224
000070 bf ad 61 38 9e 34 d5 b5 15 34 7c b8 c1 b8 68 b5
       -0.0898 0.5474 0.2886 -0.3645 0.2551 -0.5605 -0.594 -0.338
000080 10 36 6a 36 aa ad 0d b1 58 2d 54 33 26 30 11 b4
       0.379 0.401 -0.0885 -0.1578 0.0835 0.229 0.1296 -0.2542
000090 24 35 39 a4 89 23 16 33 62 28 d0 b1 56 30 9d ae
       0.3213 -0.0165 0.01472 0.2214 0.03424 -0.1816 0.1355 -0.10333
0000a0 18 b8 a4 34 1b ba 83 1c 04 b4 2d 37 33 28 51 b3
       -0.5117 0.29 -0.763 0.004406 -0.251 0.4485 0.0328 -0.2286
0000b0 8c 36 bd b0 80 b8 2f ac ac 29 5d 32 97 3c 75 a4
       0.4092 -0.1481 -0.5625 -0.06537 0.0443 0.1989 1.147 -0.01741
0000c0 5c b6 5f b0 c8 b3 9b 2c 87 0c 8a ae 6c 28 c4 ba
       -0.3975 -0.1366 -0.2432 0.07196 0.0002763 -0.1022 0.03455 -0.8457
0000d0 1d 3a f1 b1 19 3b 6e ba 44 3a 69 b4 a3 b8 91 a5
       0.764 -0.1857 0.887 -0.8037 0.783 -0.2756 -0.5796 -0.02174
0000e0 b4 ad 85 33 89 b9 1a 33 76 36 d5 9e d2 a3 67 b1
       -0.0891 0.235 -0.692 0.2219 0.4038 -0.00667 -0.015274 -0.1688
0000f0 f8 b4 ea 38 42 b3 1d b4 65 38 85 b4 0d 35 6b 37
       -0.3105 0.6143 -0.2268 -0.257 0.5493 -0.2825 0.3157 0.4636
000100 6c ac 7f b0 5b b0 4c b9 49 2f a7 32 32 30 8f 24
       -0.0691 -0.1405 -0.1361 -0.662 0.11383 0.2079 0.1311 0.0178
000110 ad 35 5b 20 d8 ad cf ba 40 35 57 a6 91 37 ae b3
       0.3547 0.00851 -0.0913 -0.851 0.3281 -0.02477 0.473 -0.24
000120 cb 37 fe b5 16 ad 5d 31 c6 b5 4d 30 22 b0 ce af
       0.487 -0.3745 -0.07947 0.1676 -0.3608 0.1344 -0.1292 -0.12195
000130 97 32 ab 35 15 b4 ff 2b 78 36 dc b8 dc 2d 35 b2
       0.2059 0.3542 -0.2551 0.06247 0.4043 -0.6074 0.09155 -0.194
000140 fe b0 39 36 03 a9 38 b6 0b 36 ae b8 b1 b1 de 36
       -0.156 0.389 -0.03915 -0.3887 0.3777 -0.585 -0.1779 0.4292
000150 ee b6 1f 38 38 36 92 32 e6 b2 46 b1 8e b4 1c b5
       -0.433 0.515 0.3887 0.2053 -0.2156 -0.1648 -0.2847 -0.3193
000160 37 37 7f b2 dd 32 78 33 c7 b1 f0 b0 8b 34 df 35
       0.451 -0.203 0.2145 0.2334 -0.1805 -0.1543 0.284 0.367
000170 fb ac 5d b4 69 33 85 ba 80 39 45 ac 8b 38 ef 30
       -0.0778 -0.2727 0.2316 -0.815 0.6875 -0.0667 0.568 0.1542
000180 91 b0 59 b1 3e 38 7c b5 a9 b4 f4 b4 a4 a9 64 ae
       -0.1427 -0.1671 0.5303 -0.3428 -0.2913 -0.3096 -0.04407 -0.09985
000190 50 b5 d7 35 9e 35 1d b0 3f b6 2d b0 f2 35 b9 33
       -0.332 0.365 0.351 -0.1285 -0.3904 -0.1305 0.3716 0.2413
0001a0 5b 2f 21 b9 03 30 b5 33 6b 2d a3 ac 37 31 5f b5
       0.1149 -0.641 0.1254 0.2408 0.08466 -0.07245 0.163 -0.3357
0001b0 a6 37 38 ac 55 b4 9c b4 bb b8 f0 2e ac b1 3f 37
       0.478 -0.0659 -0.2708 -0.288 -0.5913 0.1084 -0.1772 0.453
0001c0 04 32 18 33 5c ac f1 a0 66 3b 12 30 3a b0 50 b0
       0.188 0.2217 -0.0681 -0.00965 0.925 0.1272 -0.1321 -0.1348
0001d0 9a ba 77 ad bf 32 0e 39 6e 1c c6 b4 47 bb 26 b9
       -0.825 -0.0854 0.2108 0.632 0.004326 -0.2983 -0.9097 -0.6436
0001e0 2f 33 91 35 56 36 75 34 ee a5 3a af 36 b3 be 38
       0.2245 0.348 0.396 0.2786 -0.02316 -0.1129 -0.2253 0.593
0001f0 b3 b6 2a b0 e9 ad fd 35 77 b5 73 31 8a 33 08 33
       -0.4187 -0.1301 -0.09235 0.3743 -0.3416 0.1703 0.2356 0.2197

weight f2 [40]
000000 48 37 d3 36 df 39 56 37 0a 37 c2 38 9a 35 a8 37
       0.455 0.4265 0.734 0.4585 0.44 0.5947 0.35 0.4785
000010 a4 34 cd 37 a2 39 24 39 09 3a 2e 39 d8 36 09 39
       0.29 0.4875 0.704 0.6426 0.7544 0.6475 0.4277 0.6294
000020 cf 36 1a 39 a3 38 3a 37 94 38 dd 37 95 36 09 36
       0.4255 0.6377 0.5796 0.4517 0.5723 0.4915 0.4114 0.3772
000030 42 36 3b 38 57 3a 87 37 70 36 08 37 16 36 3e 36
       0.391 0.529 0.7925 0.4705 0.4023 0.4395 0.3804 0.3901
000040 2a 35 f9 36 d5 35 9f 37 a1 36 ea 35 a6 3a c2 35
       0.3228 0.4358 0.3645 0.4763 0.4143 0.3696 0.831 0.3599

bias f2 [40]
000000 08 05 5d 95 08 18 ca 92 01 8e 94 98 90 89 e2 0d
       7.68e-05 -0.001309 0.001968 -0.0008287 -0.0003664 -0.002235 -0.0001698 0.000359
000010 42 8d 4a 8f c8 94 85 14 00 86 54 11 2a 17 52 88
       -0.000321 -0.000445 -0.001167 0.001103 -9.155e-05 0.0006504 0.001749 -0.0001318
000020 ec 0d 55 15 54 92 11 92 b5 12 cc 8d 16 90 c4 14
       0.0003614 0.001302 -0.0007725 -0.0007405 0.0008187 -0.0003538 -0.000499 0.0011635
000030 47 0f 4d 0a db 0c e0 8d 11 94 03 91 66 97 56 96
       0.0004442 0.0001923 0.0002964 -0.0003586 -0.000993 -0.000612 -0.001806 -0.001547
000040 ca 0a 3a 8a fa 83 1f 97 47 13 2d 15 17 06 e3 90
       0.0002072 -0.00019 -6.07e-05 -0.001739 0.0008883 0.001264 9.29e-05 -0.0005965

running_mean f2 [40]
000000 e7 22 71 a7 4b 27 04 2f ad b0 4f 26 23 a5 78 2d
       0.01348 -0.02907 0.02849 0.1096 -0.1461 0.02464 -0.02007 0.08545
000010 63 a9 bf ae 0b 19 24 ad f3 9f 4d 20 ee 2e f5 a8
       -0.04208 -0.1054 0.002462 -0.0803 -0.007763 0.0084 0.1083 -0.03873
000020 04 a9 26 2a 8c 29 ab aa 68 26 9e a2 22 a2 b5 9f
       -0.03918 0.04803 0.04333 -0.0521 0.02502 -0.012924 -0.01198 -0.007526
000030 02 b0 68 24 15 a8 6c 2d ac 2c a1 2f f2 31 0c 32
       -0.1252 0.01721 -0.0319 0.0847 0.073 0.1192 0.1858 0.189
000040 e8 29 4e 2f de 30 41 ab 5e aa a6 a8 8e a6 22 24
       0.04614 0.11414 0.1521 -0.05667 -0.04974 -0.03632 -0.0256 0.01614

running_var f2 [40]
000000 bc 30 c1 2a df 2f 62 2d 84 2d 41 2e 55 34 9b 30
       0.148 0.05276 0.123 0.0841 0.0862 0.0977 0.2708 0.1439
000010 0e 31 33 33 fa 2d 77 30 bd 2a df 36 59 33 24 31
       0.158 0.225 0.0934 0.1395 0.05264 0.4294 0.2296 0.1606
000020 1c 30 c5 33 5e 33 69 30 90 34 1d 35 ea 30 6b 31
       0.1284 0.2428 0.2302 0.1378 0.2852 0.3196 0.1536 0.1693
000030 ce 30 79 32 51 31 98 31 06 33 be 2e d4 31 84 31
       0.1501 0.2023 0.1661 0.1748 0.2195 0.10535 0.1821 0.1724
000040 86 30 1d 30 46 31 0f 35 73 2f 7a 32 da 30 2b 30
       0.1414 0.1285 0.1648 0.3162 0.1164 0.2024 0.1516 0.1302

weight f2 [10, 40, 1, 1]
000000 90 ae a1 a5 69 ba 24 ac 6b 2f 81 37 11 b0 ff a4
       -0.10254 -0.02199 -0.8013 -0.0647 0.1159 0.469 -0.1271 -0.01952
000010 c4 34 ef 31 51 35 ba a4 eb a8 32 b9 85 b0 21 30
       0.2979 0.1854 0.3323 -0.01846 -0.03842 -0.6494 -0.1412 0.129
000020 c0 b2 fe b6 a7 af f1 2e cb b5 96 b4 e3 2f 71 b5
       -0.2109 -0.437 -0.11957 0.10846 -0.362 -0.2866 0.1232 -0.34
000030 50 2b 93 b5 31 1a 8c 34 e0 2d c6 b0 23 2a 15 29
       0.05713 -0.3484 0.003023 0.2842 0.0918 -0.1492 0.04794 0.0397
000040 89 30 8b 2b 20 b1 ba 36 11 2c 7e b5 01 35 b9 29
       0.1417 0.05893 -0.1602 0.4204 0.06354 -0.3433 0.3127 0.0447
000050 5a b3 ab b2 38 31 26 b4 b3 35 a2 a8 07 31 2b 33
       -0.2297 -0.2084 0.1631 -0.2593 0.3562 -0.0362 0.1571 0.224
000060 37 b1 6c 35 8e 36 27 b4 3d b5 f2 b3 01 37 81 38
       -0.163 0.3389 0.4097 -0.2595 -0.3274 -0.2483 0.4377 0.563
000070 46 30 e4 2d 30 30 7d 22 e5 2d 6f b8 0b 32 f4 b0
       0.1335 0.09204 0.1309 0.01267 0.0921 -0.554 0.1888 -0.1548
000080 65 31 0e 35 1c b8 69 30 4b 30 1d 30 df b1 d2 b2
       0.1686 0.316 -0.5137 0.1378 0.1342 0.1285 -0.1835 -0.2131
000090 c8 34 a5 b1 fb a4 50 b2 e5 2a 1a ad c9 2f 41 a9
       0.2988 -0.1764 -0.01945 -0.1973 0.05386 -0.0797 0.12164 -0.04105
0000a0 05 a5 1f 31 bd 2d 74 b3 52 b4 c5 b2 a4 a8 62 28
       -0.0196 0.16 0.08966 -0.2329 -0.27 -0.2115 -0.03625 0.03424
0000b0 27 21 29 34 7f 37 d2 b1 61 39 b8 b4 3c 36 f8 35
       0.01006 0.26 0.4685 -0.1819 0.6724 -0.295 0.3896 0.373
0000c0 ca b5 d8 b5 c7 26 55 33 0a 30 e1 b2 b4 b3 bc ab
       -0.3618 -0.3652 0.02647 0.2291 0.1262 -0.215 -0.2407 -0.06042
0000d0 77 36 ad ac 66 b8 9f 23 b7 33 6b af 32 a8 37 28
       0.404 -0.07306 -0.55 0.014885 0.2411 -0.1159 -0.03278 0.03293
0000e0 9f 2d d3 ad 2f a9 08 32 54 31 0f b1 c8 2f 1c 36
       0.0878 -0.091 -0.0405 0.1885 0.1665 -0.1581 0.1216 0.3818
0000f0 ce 35 b4 31 26 37 42 21 05 b5 34 b3 12 25 08 b6
       0.3628 0.1782 0.4468 0.01027 -0.3137 -0.2251 0.0198 -0.377
000100 df af 8f b7 04 b0 ea 36 59 39 2a 32 0b 30 87 b4
       -0.123 -0.4724 -0.1255 0.4321 0.6685 0.1926 0.1263 -0.283
000110 18 b0 ce aa b9 31 06 34 f4 2d 29 38 df b5 4a 34
       -0.1279 -0.05316 0.1788 0.2515 0.093 0.52 -0.367 0.268
000120 c9 28 c6 2d b4 31 65 b8 59 aa 8f b4 40 a3 0a 2a
       0.03738 0.0902 0.1782 -0.5493 -0.0496 -0.285 -0.01416 0.04718
000130 45 b5 15 2e 12 a9 74 b0 d8 af 41 26 2f 24 4d 32
       -0.3293 0.09503 -0.0396 -0.1392 -0.12256 0.02443 0.01634 0.1969
000140 43 34 a1 ad 5a b7 2b 36 7a 2a bc 30 be b4 45 b0
       0.2664 -0.08795 -0.4595 0.3855 0.0506 0.148 -0.2964 -0.1334
000150 5d 30 17 b0 a7 b8 0f 31 b3 a4 0e 2e 49 b6 4b b3
       0.1364 -0.1278 -0.5815 0.1581 -0.01836 0.0946 -0.3928 -0.2279
000160 66 1b a3 2c 5a b3 8f 24 74 b2 a5 36 0d b5 9c 2b
       0.003613 0.07245 -0.2297 0.0178 -0.2017 0.4153 -0.3157 0.05945
000170 cd b5 eb b7 02 3a 32 20 91 b5 65 b1 dc 2f bc 2d
       -0.3625 -0.4949 0.751 0.008194 -0.348 -0.1686 0.1228 0.0896
000180 c4 b4 bc b0 e7 ae 9d 2d 8b 2c 7d 2c ef a8 fa b4
       -0.2979 -0.148 -0.10785 0.0877 0.071 0.0701 -0.03854 -0.311
000190 d7 a8 cb b0 55 32 87 24 58 32 77 b9 67 22 2e a8
       -0.0378 -0.1498 0.1979 0.01768 0.1982 -0.683 0.012505 -0.03265
0001a0 ce 2c 28 34 c0 b3 4b 3a 2e b5 14 b1 7d ad a8 b6
       0.0751 0.2598 -0.2422 0.7866 -0.3237 -0.1587 -0.08575 -0.416
0001b0 36 2c 08 30 72 28 43 b0 fa b8 b9 2e 08 a9 0b b4
       0.0658 0.126 0.03473 -0.1332 -0.622 0.10504 -0.0393 -0.2527
0001c0 ca af 34 b0 29 23 61 b1 fc ab 4e b8 0a ad 00 2f
       -0.1217 -0.1313 0.013985 -0.1681 -0.06238 -0.538 -0.07874 0.1094
0001d0 66 1e df 24 a5 ae 05 ad cd 22 4b 2c ca af 50 1b
       0.00625 0.01903 -0.1038 -0.0784 0.01328 0.0671 -0.1217 0.00357
0001e0 21 b3 31 b5 4e 26 e0 29 8a 34 47 b1 19 b8 00 ae
       -0.2228 -0.3245 0.02463 0.0459 0.2837 -0.1649 -0.512 -0.09375
0001f0 b5 2f 63 a0 9d 17 b5 20 45 b2 16 b3 71 31 09 2b
       0.1204 -0.00857 0.001859 0.00919 -0.1959 -0.2214 0.17 0.05496

weight f2 [30]
000000 df 3d 65 3d 38 3d 3e 3d fc 3c cd 3c 3f 3c 40 3c
       1.468 1.349 1.305 1.311 1.246 1.2 1.062 1.0625
000010 51 3c 66 3d 1d 38 3e 37 d4 37 91 38 f1 36 51 36
       1.079 1.35 0.514 0.4526 0.4893 0.571 0.4338 0.3948
000020 8a 39 fe 36 46 38 d4 37 e2 38 05 38 3e 36 11 38
       0.6924 0.437 0.534 0.4893 0.6104 0.5024 0.3901 0.5083
000030 78 37 92 37 35 34 3d 38 c7 33 c0 38
       0.4668 0.4731 0.263 0.53 0.243 0.5938

bias f2 [30]
000000 71 a6 79 b0 c7 a6 0b 25 fb 18 4e af f0 a6 d9 b9
       -0.02516 -0.1398 -0.02647 0.0197 0.002432 -0.11414 -0.0271 -0.731
000010 63 b0 9c aa 5a 34 6d 31 43 b6 a8 b3 da b5 c7 32
       -0.1371 -0.05164 0.272 0.1696 -0.3914 -0.2393 -0.3657 0.2118
000020 4c b2 ee b3 84 30 63 a8 08 b9 6a 29 42 25 bd ac
       -0.1968 -0.2478 0.1411 -0.03427 -0.629 0.0423 0.02054 -0.07404
000030 d2 b5 db 38 b2 32 7e a3 43 34 5b 32
       -0.3638 0.607 0.2092 -0.01463 0.2664 0.1986

running_mean f2 [30]
000000 a7 9e 8a 15 32 94 8f 19 6d 92 dd 19 03 1c 65 9a
       -0.006496 0.001352 -0.001024 0.002714 -0.0007844 0.002863 0.003918 -0.003122
000010 6c 99 2f 1d 17 9a c2 92 2f 03 2c 1b 7d 9a df 20
       -0.002647 0.005062 -0.002974 -0.000825 4.86e-05 0.003502 -0.003168 0.009514
000020 eb 9a 15 13 f0 9d a4 9b 2c 1b 38 17 09 16 96 9f
       -0.003378 0.0008645 -0.0058 -0.00373 0.003502 0.001762 0.001473 -0.00741
000030 50 0c 6b 14 19 92 08 15 01 1e 0d 1d
       0.0002632 0.001079 -0.0007443 0.001228 0.005863 0.004932

running_var f2 [30]
000000 c9 45 cb 42 3a 42 a7 42 82 43 11 40 0e 3e 77 3a
       5.785 3.396 3.113 3.326 3.754 2.033 1.514 0.808
000010 f5 3d 35 44 5c 3f bb 3e 36 3b 98 38 cf 38 86 3b
       1.489 4.207 1.84 1.683 0.9014 0.574 0.601 0.9404
000020 0c 3d 2b 3d b2 3e 68 39 3b 39 a3 39 b7 38 34 3b
       1.262 1.292 1.674 0.676 0.654 0.7046 0.5894 0.9004
000030 ef 39 e3 3c 66 3b 75 3d 90 36 b6 3d
       0.7417 1.222 0.925 1.364 0.4102 1.428

weight f2 [15, 30, 1, 1]
000000 dc 2d ee b3 16 34 06 ac 44 ae 28 34 b3 2c cf 2c
       0.09155 -0.2478 0.2554 -0.06287 -0.0979 0.2598 0.0734 0.07513
000010 66 34 ea b4 ed ad f9 b5 77 34 53 38 d6 ac 7b b3
       0.275 -0.3071 -0.0926 -0.3733 0.279 0.5405 -0.07556 -0.2338
000020 5c 35 6b 36 5f 34 0c 95 2a b2 a2 a8 42 2d 84 31
       0.335 0.4011 0.2732 -0.001232 -0.1926 -0.0362 0.08215 0.1724
000030 4f 31 b6 35 cf b5 88 38 98 33 91 b4 bb b1 12 b1
       0.1659 0.357 -0.363 0.5664 0.2373 -0.2854 -0.1791 -0.1584
000040 d4 b7 17 39 89 b4 9d 38 74 20 19 8e f9 30 94 b5
       -0.4893 0.636 -0.2834 0.5767 0.0087 -0.0003722 0.1554 -0.3486
000050 49 36 ea ad af b0 4e 2b 91 b0 7b b2 94 b8 25 b0
       0.3928 -0.0924 -0.1464 0.05707 -0.1427 -0.2025 -0.5723 -0.1295
000060 91 b9 eb b8 41 b5 3a 34 f5 2d a4 b6 9b af 57 b6
       -0.696 -0.6147 -0.3284 0.2642 0.0931 -0.415 -0.11884 -0.3962
000070 9d b2 95 b1 ef 33 cb 35 22 b8 ab b0 69 39 33 a8
       -0.2067 -0.1744 0.2479 0.362 -0.5166 -0.1459 0.6763 -0.0328
000080 1d b5 2b 3e 90 2a ac b7 43 3c d8 a6 19 2b b0 32
       -0.3196 1.542 0.05127 -0.4795 1.065 -0.02673 0.05545 0.209
000090 8d 94 c2 b1 9a 2e ce 30 2b b0 17 b2 e8 2a 9f 2d
       -0.001111 -0.1799 0.10315 0.1501 -0.1302 -0.1903 0.05396 0.0878
0000a0 ae 33 fd 31 38 30 f6 2e 45 2a 7b 2d 84 32 2e ae
       0.24 0.1871 0.1318 0.10876 0.04898 0.08563 0.2036 -0.09656
0000b0 c9 9f db 33 46 32 58 b3 26 30 46 b6 e0 35 d1 b6
       -0.007603 0.2455 0.196 -0.2295 0.1296 -0.392 0.3672 -0.426
0000c0 c1 b4 e6 b4 a5 33 39 3b 82 36 99 b2 d9 af 80 2e
       -0.297 -0.3062 0.2389 0.903 0.4067 -0.2062 -0.1226 0.10156
0000d0 dc b1 98 30 02 b3 1a ae 4e b6 95 b4 be ad 74 38
       -0.1831 0.1436 -0.219 -0.09534 -0.394 -0.2864 -0.0897 0.5566
0000e0 27 38 12 b3 ce a9 3b 2d 5a b4 fa a6 58 2b 2d 35
       0.519 -0.221 -0.04535 0.0817 -0.272 -0.02725 0.05737 0.3235
0000f0 18 b6 39 27 d9 26 00 32 af aa ec 2c 3a b2 10 25
       -0.3809 0.02821 0.02675 0.1875 -0.05222 0.0769 -0.1946 0.01978
000100 5f 36 fc 31 71 2e b7 b9 9d 35 7f 35 31 b1 b4 27
       0.3982 0.187 0.10065 -0.7144 0.3508 0.3435 -0.1622 0.03009
000110 47 37 cf 31 4a b6 6b b7 54 b1 3e 37 52 39 c0 36
       0.4548 0.1815 -0.393 -0.4636 -0.1665 0.4526 0.665 0.4219
000120 19 35 bf bb 68 b9 d7 2e 7b 34 1e 30 9a b8 7b 3b
       0.3186 -0.9683 -0.676 0.1069 0.28 0.1287 -0.575 0.935
000130 23 39 23 b5 26 40 2f b0 18 b7 dd bc 16 2c 7a b0
       0.642 -0.321 2.074 -0.1307 -0.4434 -1.216 0.06384 -0.1399
000140 f0 a6 6c ad 17 ad bf 1f 2c 25 31 b2 76 b2 21 a8
       -0.0271 -0.0847 -0.0795 0.007565 0.0202 -0.1935 -0.2019 -0.03226
000150 fc ac 59 b2 38 28 27 ae ed a8 a7 a9 cf ac dc ad
       -0.0779 -0.1984 0.03296 -0.0961 -0.03848 -0.04416 -0.07513 -0.09155
000160 b4 aa fd b0 cb 27 7b b0 1b be ac 34 da a9 e7 2e
       -0.05237 -0.1559 0.03044 -0.14 -1.526 0.292 -0.04572 0.10785
000170 c0 aa 31 36 29 b2 72 b2 ea b1 c6 bd f5 a7 7d b1
       -0.05273 0.387 -0.1925 -0.2014 -0.1848 -1.443 -0.03108 -0.1715
000180 fd ae 00 a9 54 2e 17 a2 de aa 39 af 3e 31 c9 33
       -0.1092 -0.03906 0.0989 -0.011894 -0.05365 -0.11285 0.1638 0.2433
000190 3d af 00 30 6a 2e c0 2e 89 ad f0 34 13 af 46 ab
       -0.1131 0.125 0.1002 0.10547 -0.0865 0.3086 -0.11053 -0.05682
0001a0 e0 2d f4 b0 a7 b6 6a af 53 2c 5d 9d 06 38 01 b4
       0.0918 -0.1548 -0.4158 -0.11584 0.06757 -0.005238 0.503 -0.2502
0001b0 f3 a5 de b4 90 32 30 2c ad 32 02 38 dd a7 1d 33
       -0.02324 -0.3042 0.2051 0.0654 0.2086 0.501 -0.03072 0.2223
0001c0 ab 32 1d 3e b7 b1 40 2d 09 b5 98 27 81 38 f7 31
       0.2084 1.528 -0.1786 0.08203 -0.3147 0.02966 0.563 0.1864
0001d0 0a 30 84 25 0d ad 46 b2 57 35 78 2c a6 37 6f 39
       0.1262 0.02155 -0.0789 -0.196 0.3337 0.0698 0.478 0.679
0001e0 73 b4 7e b4 43 b1 f9 31 00 34 51 ae 4f a9 5c b1
       -0.278 -0.2808 -0.1644 0.1866 0.25 -0.0987 -0.04147 -0.1675
0001f0 d5 30 3c 33 24 3c ac 39 21 2b fb b6 4e 39 f4 b9
       0.151 0.2261 1.035 0.709 0.0557 -0.4363 0.663 -0.744

weight f2 [15]
000000 a3 36 f6 34 00 35 dd 35 89 38 1d 35 73 37 23 38
       0.4148 0.31 0.3125 0.3665 0.567 0.3196 0.4656 0.517
000010 64 38 46 38 b1 36 83 32 0c 36 94 3a ba 35
       0.549 0.534 0.4182 0.2035 0.378 0.8223 0.358

bias f2 [15]
000000 96 35 90 36 1f 33 41 38 63 3c 52 35 14 a5 b7 39
       0.349 0.4102 0.2225 0.5317 1.097 0.3325 -0.01984 0.7144
000010 b2 3b 7a b4 2f 32 04 38 aa a9 b2 b5 b1 35
       0.962 -0.2798 0.1932 0.502 -0.04425 -0.356 0.3557

running_mean f2 [15]
000000 43 36 c4 b8 e9 3b 16 35 7c b7 d9 33 f5 bb 40 3b
       0.3914 -0.5957 0.989 0.3179 -0.4678 0.2452 -0.9946 0.9062
000010 aa b4 8e bb 31 bb e5 b4 f8 3b 18 3a ee 39
       -0.2915 -0.9443 -0.899 -0.306 0.996 0.7617 0.741

running_var f2 [15]
000000 55 39 25 38 bf 39 34 36 de 38 03 3d 88 3e 27 39
       0.6665 0.518 0.7183 0.3877 0.6084 1.253 1.633 0.644
000010 d5 3a 15 39 e5 39 42 39 68 37 fb 38 cd 35
       0.854 0.6353 0.737 0.657 0.463 0.6226 0.3625

weight f2 [40, 15, 1, 1]
000000 5e 2f 75 ac 6e b4 3d a9 97 39 db ab 21 29 9a b6
       0.1151 -0.06964 -0.2769 -0.04092 0.6987 -0.06137 0.04007 -0.4126
000010 08 34 a9 a3 c8 25 66 2f b1 af c9 b5 19 ad 00 30
       0.252 -0.01496 0.02258 0.1156 -0.1202 -0.3616 -0.07965 0.125
000020 28 30 39 a9 0d 34 19 36 81 33 96 b0 be a8 18 b0
       0.1299 -0.0408 0.2532 0.381 0.2345 -0.1433 -0.03705 -0.1279
000030 66 b1 aa af 8f 2a c2 a7 cf a3 e7 35 50 2d 63 31
       -0.1687 -0.11975 0.05124 -0.0303 -0.01525 0.369 0.083 0.1683
000040 19 b1 05 a3 56 2a ff b5 2a b0 94 2b 69 b8 9d 25
       -0.1593 -0.01371 0.0495 -0.3748 -0.1301 0.0592 -0.5513 0.02193
000050 1a 2b 88 b1 f4 ad 95 b2 6e ac 58 34 d3 a9 f1 29
       0.05548 -0.1729 -0.093 -0.2057 -0.0692 0.2715 -0.0455 0.04642
000060 9b 31 fc 30 07 b5 17 b2 e8 22 28 b6 86 1d 9b b6
       0.1752 0.1558 -0.3142 -0.1903 0.01349 -0.3848 0.005394 -0.4128
000070 ec af fa 31 7b b4 4a 37 5c a5 8a a8 81 29 79 2f
       -0.1238 0.1868 -0.28 0.4556 -0.02094 -0.03546 0.043 0.11676
000080 fb 33 2f 26 49 b2 82 af 4f b2 d3 a4 19 b1 0c a8
       0.2494 0.02415 -0.1964 -0.1173 -0.1971 -0.01884 -0.1593 -0.03162
000090 ee 2d 56 30 c3 25 d1 a8 0f 35 80 2d 89 33 5c ac
       0.09265 0.1355 0.0225 -0.03763 0.3162 0.08594 0.2355 -0.0681
0000a0 37 a9 91 ae 69 32 ac 2f c1 2c a2 30 88 31 84 24
       -0.04074 -0.1026 0.2003 0.1199 0.0743 0.1448 0.1729 0.01764
0000b0 5e b0 61 b1 b8 ae af ab 6b b9 5e a6 ad b0 82 b6
       -0.1365 -0.1681 -0.105 -0.06003 -0.6772 -0.02487 -0.1461 -0.4067
0000c0 35 35 05 b0 75 29 c2 2c 06 30 e7 2c f8 af 8a af
       0.3254 -0.1256 0.04263 0.07434 0.1257 0.0766 -0.1245 -0.1178
0000d0 ee b2 87 36 06 b4 81 33 a1 2c a9 b4 b5 b3 e4 ae
       -0.2166 0.408 -0.2515 0.2345 0.0723 -0.2913 -0.2408 -0.10767
0000e0 c4 b1 54 b5 2e b2 49 ac 55 b6 5c 9e 06 ad 16 ad
       -0.1802 -0.333 -0.1931 -0.06696 -0.3958 -0.00621 -0.0785 -0.07947
0000f0 d1 b5 38 34 d7 b2 9d ab ff b3 2f b1 cd 31 5d 21
       -0.3635 0.2637 -0.2137 -0.05948 -0.2499 -0.162 0.1813 0.010475
000100 e7 9c 4e 32 68 35 11 b1 a1 af 12 b5 07 b1 d8 31
       -0.004787 0.197 0.338 -0.1583 -0.1192 -0.317 -0.1571 0.1826
000110 9c b1 4d b1 c9 b1 55 b3 ca 34 60 34 bb b4 ad ad
       -0.1753 -0.1656 -0.1808 -0.2291 0.2993 0.2734 -0.2957 -0.0887
000120 6c a6 d9 31 5c 28 30 b1 93 b5 cc 20 24 31 65 29
       -0.02509 0.1827 0.03406 -0.1621 -0.3484 0.00937 0.1606 0.04214
000130 79 35 d6 29 a0 32 9f b0 bf b0 f1 28 cf 2d 35 33
       0.342 0.0456 0.207 -0.1444 -0.1483 0.0386 0.09076 0.2252
000140 11 a5 0f b8 79 b0 79 ae 11 b2 f8 2b 9f 2f f6 2e
       -0.01979 -0.5073 -0.1398 -0.10114 -0.1896 0.06226 0.1191 0.10876
000150 51 ab 53 34 63 b1 12 1b 05 30 19 b8 10 af 56 b0
       -0.05716 0.2703 -0.1683 0.003452 0.1256 -0.512 -0.11035 -0.1355
000160 6b 1c bc 2e 39 b1 99 ac e7 2c 41 34 c2 b1 49 ae
       0.004314 0.1052 -0.1632 -0.07184 0.0766 0.2659 -0.1799 -0.0982
000170 1f 34 ca ac cf 2a f9 30 f3 b4 f5 a8 4f 35 3c ac
       0.2576 -0.0748 0.0532 0.1554 -0.3093 -0.03873 0.3318 -0.06616
000180 0e ae ea ac 8e 25 fb b2 43 31 55 32 56 28 6e 32
       -0.0946 -0.0768 0.0217 -0.2181 0.1644 0.1979 0.03387 0.2009
000190 20 9c 73 a8 9d 36 da a1 11 ab 6a b1 0b 2c 7b 30
       -0.00403 -0.03476 0.4133 -0.01143 -0.0552 -0.1692 0.0632 0.14
0001a0 4d b1 c4 29 dd 29 27 b6 fe 22 34 b5 1a b0 ab a9
       -0.1656 0.04504 0.0458 -0.3845 0.01366 -0.3252 -0.1282 -0.04428
0001b0 1a 2f c7 b1 3d a7 c7 ae ef aa 4e b1 83 30 32 ab
       0.11096 -0.1805 -0.02827 -0.1059 -0.05417 -0.1658 0.141 -0.0562
0001c0 9c 2f 10 a9 0e ae 2f a6 a5 b4 f1 ad 67 33 e2 30
       0.1189 -0.03955 -0.0946 -0.02415 -0.2903 -0.09283 0.2313 0.1526
0001d0 7d b4 a2 31 d2 34 49 35 8b a9 7a b1 9c b3 b3 b6
       -0.2805 0.176 0.3013 0.3303 -0.0433 -0.1711 -0.2378 -0.4187
0001e0 87 ac c2 30 47 b6 83 ae f1 30 13 b5 ac 2c c8 b1
       -0.07074 0.1487 -0.3923 -0.10175 0.1544 -0.3171 0.073 -0.1807
0001f0 5e 2a c0 b4 cc 34 80 b1 90 af f2 b2 71 35 26 31
       0.04974 -0.2969 0.2998 -0.1719 -0.11816 -0.217 0.34 0.1609

weight f2 [40]
000000 5c 3b 00 3c 00 3c 00 3c 00 3c 00 3c 00 3c d7 3b
       0.92 1.0 1.0 1.0 1.0 1.0 1.0 0.98
000010 fb 3b 00 3c 00 3c 00 3c 00 3c 00 3c 00 3c ee 3b
       0.9976 1.0 1.0 1.0 1.0 1.0 1.0 0.991
000020 00 3c 00 3c 00 3c 00 3c 00 3c 00 3c 00 3c 00 3c
       1.0 1.0 1.0 1.0 1.0 1.0 1.0 1.0
000030 00 3c 00 3c 00 3c 00 3c 00 3c 00 3c 00 3c 00 3c
       1.0 1.0 1.0 1.0 1.0 1.0 1.0 1.0
000040 00 3c 00 3c 00 3c 00 3c fd 3b 39 38 63 38 00 3c
       1.0 1.0 1.0 1.0 0.9985 0.528 0.5483 1.0

bias f2 [40]
000000 c4 37 26 34 e5 22 2e 34 c0 a9 80 2b e6 30 4a b4
       0.4854 0.2593 0.013466 0.2612 -0.04492 0.0586 0.1531 -0.268
000010 2c 36 22 32 7e b4 de 34 aa 31 f6 30 a2 2c 6e 34
       0.3857 0.1917 -0.2808 0.3042 0.177 0.155 0.0724 0.2769
000020 80 31 d9 b1 e9 33 e6 30 fb 2b 7e aa 95 35 23 32
       0.1719 -0.1827 0.2472 0.1531 0.06235 -0.05072 0.3489 0.1918
000030 2b 2f 90 b3 40 b0 84 34 99 30 d1 a6 9e 31 d1 35
       0.112 -0.2363 -0.1328 0.2822 0.1437 -0.02663 0.1755 0.3635
000040 4c b2 83 a9 3d 30 ca 31 c2 34 79 38 37 36 1c ac
       -0.1968 -0.04306 0.1324 0.1809 0.2974 0.559 0.3884 -0.0642

running_mean f2 [40]
000000 83 38 5a 39 79 b9 06 b2 cd 22 9a 37 ca b8 0e bc
       0.564 0.669 -0.684 -0.1882 0.01328 0.475 -0.5986 -1.014
000010 21 b8 94 b8 d8 2e 06 b2 24 31 52 38 69 b9 0d b6
       -0.516 -0.5723 0.10693 -0.1882 0.1606 0.54 -0.6763 -0.3782
000020 88 ad 50 2b 25 b7 fc 2d 6f ad 2a bb df b0 db b6
       -0.0864 0.05713 -0.4465 0.0935 -0.0849 -0.8955 -0.1522 -0.4285
000030 b9 33 4e 3c 44 29 b0 b9 dd 3a 13 b4 3f ba 03 b5
       0.2413 1.076 0.04114 -0.711 0.858 -0.2546 -0.781 -0.3132
000040 58 38 a3 35 cf 32 ac ac 72 2b a0 b9 9e 3c 19 35
       0.543 0.3523 0.2128 -0.073 0.05817 -0.703 1.154 0.3186

running_var f2 [40]
000000 16 34 22 2f 52 2f 37 30 cd 2c 4e 2d 92 2d 0d 30
       0.2554 0.11145 0.1144 0.1317 0.075 0.0829 0.08704 0.1266
000010 20 32 c2 2c 09 2a 00 2f f6 2c fb 2d aa 29 f9 2e
       0.1914 0.07434 0.04715 0.1094 0.0775 0.09344 0.04425 0.10895
000020 55 2c f7 2b 0f 30 c4 2d 9e 2e 1e 34 69 2e 2d 34
       0.0677 0.06223 0.1268 0.0901 0.1034 0.2573 0.10016 0.261
000030 a8 2d 40 2d 67 2c c3 2e 7c 31 ab 2a ab 31 ee 2e
       0.0884 0.08203 0.0688 0.10565 0.1714 0.0521 0.1771 0.1083
000040 a5 29 59 2f 65 2d 27 2c 27 30 39 32 0e 36 23 2d
       0.0441 0.1148 0.0843 0.0649 0.1298 0.1945 0.3784 0.08026

weight f2 [40, 1, 3, 3]
000000 cd 30 7b b4 43 b7 9b 3a e3 b0 b5 b6 19 32 93 30
       0.15 -0.28 -0.4539 0.8257 -0.1527 -0.4192 0.1906 0.143
000010 b6 2d 63 af db 2f f8 a8 96 36 44 b0 6e b8 ff 35
       0.08923 -0.1154 0.12274 -0.03882 0.4116 -0.1333 -0.5537 0.3748
000020 44 32 f8 b0 79 30 ea 32 f5 30 05 36 c7 ac 3a 91
       0.1958 -0.1553 0.1398 0.2161 0.1549 0.3762 -0.07465 -0.000638
000030 d5 b0 fb b8 49 b3 17 b7 5b b9 35 b2 0c 9b 38 32
       -0.151 -0.6226 -0.2277 -0.443 -0.6694 -0.194 -0.00344 0.1943
000040 f0 2d c7 34 9c 34 3f 32 91 31 c1 31 bd 26 17 b2
       0.0928 0.2986 0.288 0.1952 0.174 0.1798 0.02632 -0.1903
000050 65 b4 26 24 ae 2c 55 b0 7b 34 89 21 44 ab 9c a9
       -0.2747 0.0162 0.0731 -0.1354 0.28 0.01081 -0.05676 -0.04382
000060 5d b5 b4 37 b3 1c 68 29 e4 aa 99 b5 93 b8 ee ae
       -0.3352 0.4814 0.00459 0.04224 -0.05383 -0.3499 -0.572 -0.1083
000070 2f 2b 8c 2a 52 39 e8 ae 22 a9 14 35 86 b5 35 b2
       0.05612 0.05115 0.665 -0.1079 -0.0401 0.3174 -0.3452 -0.194
000080 20 b5 b8 b1 23 b3 0e b4 7d 2d f6 2c 93 2d ea 05
       -0.3203 -0.1787 -0.223 -0.2534 0.08575 0.0775 0.0871 9.024e-05
000090 f4 2d d5 38 18 2d 8b b8 9a 2d 4f 29 5e b3 9f b0
       0.093 0.604 0.0796 -0.568 0.0875 0.04147 -0.2302 -0.1444
0000a0 1b 2c 96 34 71 33 02 b1 ed 33 f0 2f 86 b4 26 2c
       0.06415 0.2866 0.2325 -0.1565 0.2477 0.124 -0.2827 0.0648
0000b0 01 b2 0d b4 cd b0 5c a2 09 b3 e7 36 36 ae 94 b0
       -0.1876 -0.2532 -0.15 -0.01242 -0.2198 0.4314 -0.09705 -0.1431
0000c0 75 ad 9a b4 b7 9e de b1 a2 30 27 31 5f b7 99 a5
       -0.08527 -0.2876 -0.006557 -0.1833 0.1448 0.161 -0.4607 -0.02187
0000d0 8b 36 4f b1 5e 2f 3c 31 c9 b4 d4 33 c1 33 1a b5
       0.409 -0.1659 0.1151 0.1636 -0.299 0.2446 0.2423 -0.3188
0000e0 a1 a8 da 35 98 21 42 a0 06 ae eb aa 99 ac 28 2d
       -0.03616 0.3657 0.010925 -0.008316 -0.0941 -0.05405 -0.07184 0.08057
0000f0 2a b3 8d af 8f 36 c5 b3 12 b1 1f 32 f0 2f 08 31
       -0.2239 -0.118 0.41 -0.2428 -0.1584 0.1913 0.124 0.1572
000100 1d a6 b0 b3 b3 34 bc b0 2c b1 93 24 6a b4 c1 30
       -0.02388 -0.2402 0.2937 -0.148 -0.1616 0.01787 -0.276 0.1486
000110 0d 30 30 32 81 b8 f7 ac 81 37 75 b5 b3 a5 67 31
       0.1266 0.1934 -0.563 -0.0776 0.469 -0.341 -0.02226 0.1688
000120 42 23 ed 33 b1 31 6d 38 83 27 c3 b0 c4 b4 72 b0
       0.014175 0.2477 0.1779 0.553 0.02934 -0.1488 -0.2979 -0.1389
000130 e0 28 da ae 0e 34 7a 2a 4c 34 5e 2e 80 2e 3c 2d
       0.0381 -0.10706 0.2534 0.0506 0.2686 0.0995 0.10156 0.0818
000140 d5 2a 59 29 2a b2 ee af 7b a4 d4 b5 01 36 50 2f
       0.05338 0.04178 -0.1926 -0.1239 -0.0175 -0.3643 0.3752 0.11426
000150 a9 b3 7b ab 6f ae 88 b0 60 36 f0 a3 e9 b4 fd a8
       -0.2394 -0.05844 -0.1005 -0.1416 0.3984 -0.0155 -0.307 -0.03897
000160 88 34 cd a3 de b4 4f 33 42 2b 6c 35 53 a8 ae 35
       0.2832 -0.015236 -0.3042 0.2284 0.0567 0.3389 -0.03378 0.355
000170 85 ad 55 b3 91 b6 50 b3 44 23 9a 1e 8e ba a0 b5
       -0.08624 -0.2291 -0.4104 -0.2285 0.01419 0.006447 -0.8193 -0.3516
000180 ae 26 bf 35 99 a3 72 24 60 35 08 33 5d 31 d5 ac
       0.0261 0.3591 -0.01484 0.01736 0.336 0.2197 0.1676 -0.0755
000190 a4 b3 88 b4 de b1 3f 27 33 b1 29 33 bb 35 ba 34
       -0.2388 -0.2832 -0.1833 0.0283 -0.1625 0.2238 0.3582 0.2954
0001a0 f5 2c a1 b3 e0 38 2a 2a f9 b9 d0 2e 16 b0 d5 2a
       0.07745 -0.2384 0.6094 0.04816 -0.7466 0.10645 -0.1277 0.05338
0001b0 79 36 42 35 16 2b 15 ac aa b1 42 ae 45 a8 cb b3
       0.4045 0.3286 0.05536 -0.0638 -0.177 -0.0978 -0.03336 -0.2435
0001c0 2e b4 33 20 9a 2d 7e 97 ac 27 00 37 a0 30 4b af
       -0.2612 0.0082 0.0875 -0.001829 0.02997 0.4375 0.1445 -0.11395
0001d0 8f 2c c2 ae 81 33 80 a5 7f 18 82 31 a4 a1 04 af
       0.0712 -0.1056 0.2345 -0.02148 0.002195 0.1721 -0.01102 -0.1096
0001e0 54 30 7d 34 93 31 74 32 07 38 37 24 20 b2 40 a9
       0.1353 0.2805 0.1742 0.2017 0.5034 0.01646 -0.1914 -0.04102
0001f0 ab a5 6c b0 f9 b6 ad 28 0c 13 f2 35 7b 28 dd b8
       -0.02214 -0.1382 -0.4358 0.03653 0.00086 0.3716 0.035 -0.608

weight f2 [40]
000000 14 39 41 38 15 37 0d 38 bb 39 b2 36 b9 37 18 38
       0.635 0.5317 0.4426 0.5063 0.7163 0.4185 0.4827 0.5117
000010 7e 38 89 35 54 35 53 37 2c 36 c5 36 72 36 f1 37
       0.5615 0.346 0.333 0.4578 0.3857 0.423 0.4028 0.4963
000020 0a 36 6a 39 26 36 3e 36 d9 36 d5 38 3b 36 bc 38
       0.3774 0.677 0.3843 0.3901 0.428 0.604 0.3894 0.592
000030 bf 37 93 38 49 38 89 36 1b 38 1a 37 05 38 b4 38
       0.4841 0.572 0.5356 0.4084 0.513 0.4438 0.5024 0.588
000040 a4 38 28 36 e5 37 69 32 7b 38 47 39 e9 39 50 39
       0.58 0.3848 0.4934 0.2003 0.56 0.6597 0.739 0.664

bias f2 [40]
000000 b4 08 eb 10 04 0a 31 06 6e 86 0b 04 22 8e 45 09
       0.0001435 0.0006003 0.0001836 9.45e-05 -9.81e-05 6.17e-05 -0.0003743 0.0001608
000010 8d 11 0e 86 ef 03 16 08 a3 8b fe 8c 0d 8b 56 0f
       0.0006776 -9.24e-05 6e-05 0.0001247 -0.000233 -0.0003047 -0.0002152 0.0004478
000020 85 87 bd 0c ea 10 1d 8d 74 04 cb 8a 68 09 9e 85
       -0.00011474 0.0002892 0.0006 -0.000312 6.795e-05 -0.0002073 0.000165 -8.57e-05
000030 06 8a 39 8a dc 0b 13 11 10 8e ab 8c 10 10 ff 85
       -0.0001838 -0.0001899 0.0002398 0.0006194 -0.00037 -0.000285 0.000496 -9.15e-05
000040 d6 8c d0 05 0c 85 05 8e 7c 06 40 8c 90 10 8b 02
       -0.0002952 8.87e-05 -7.7e-05 -0.0003674 9.894e-05 -0.0002594 0.000557 3.88e-05

running_mean f2 [40]
000000 1d 28 81 28 74 ac 93 af e8 1c 22 af 62 1e a9 b2
       0.03214 0.0352 -0.0696 -0.11835 0.00479 -0.11145 0.006233 -0.2081
000010 e3 25 4c 29 b4 b0 54 2e de 2c 9a ad 14 ac 3a 2a
       0.023 0.04138 -0.147 0.0989 0.07605 -0.0875 -0.0637 0.04865
000020 38 33 5c 32 bf b4 1e 29 e7 ac 83 ad 68 ae 4e 28
       0.2256 0.1987 -0.2966 0.03998 -0.0766 -0.0861 -0.1001 0.03363
000030 a2 a9 07 31 5f 33 9d a8 12 2c 30 28 cf 30 a1 ad
       -0.044 0.1571 0.2303 -0.03604 0.0636 0.0327 0.1503 -0.08795
000040 3c 30 92 ac 40 32 78 33 e0 2c b9 2a 24 1d 6f af
       0.1323 -0.0714 0.1953 0.2334 0.0762 0.05252 0.00502 -0.11615

running_var f2 [40]
000000 95 36 96 34 f1 30 2c 35 07 2c 98 2a e7 30 6a 2e
       0.4114 0.2866 0.1544 0.3232 0.0629 0.0515 0.1532 0.1002
000010 6d 31 5f 30 65 2e 9b 32 6f 2f dd 2e 6d 2e 42 33
       0.1696 0.1366 0.0999 0.2064 0.11615 0.10724 0.1004 0.2268
000020 96 30 ad 30 be 2d d1 2c e5 2e 26 34 4a 30 b4 34
       0.1433 0.1461 0.0897 0.07526 0.1077 0.2593 0.134 0.294
000030 c8 30 8f 30 28 31 cd 2e d7 30 55 2c b8 31 95 32
       0.1494 0.1425 0.1611 0.10626 0.1512 0.0677 0.1787 0.2057
000040 7c 2c c4 2c d3 2f 79 29 4e 33 62 30 8c 31 ba 2c
       0.07007 0.07446 0.12225 0.04276 0.2283 0.137 0.1733 0.07385

weight f2 [10, 40, 1, 1]
000000 34 ae 46 37 56 2e 7a 32 ab af a5 af bc b4 42 31
       -0.0969 0.4546 0.099 0.2024 -0.1198 -0.11945 -0.296 0.1643
000010 2d 35 88 b0 65 ab 4d 24 da 28 c5 b0 e7 28 de 37
       0.3235 -0.1416 -0.05777 0.0168 0.0379 -0.149 0.0383 0.4917
000020 d1 aa 38 ad 81 31 fd b0 d9 24 29 2e 69 b0 b8 2e
       -0.05325 -0.08154 0.172 -0.1559 0.01894 0.09625 -0.1378 0.105
000030 09 28 e5 b1 47 af 9a 33 f4 b8 5c 2b c3 a9 b9 30
       0.03152 -0.1842 -0.1137 0.2375 -0.619 0.0575 -0.045 0.1476
000040 c6 27 8b ad 8c a9 76 af b4 b2 c8 b0 00 27 53 30
       0.03036 -0.0866 -0.04333 -0.1166 -0.2095 -0.1494 0.02734 0.1351
000050 a7 37 59 2b c1 32 3f ac 47 2a 89 32 24 33 ec 34
       0.4783 0.0574 0.211 -0.06635 0.04904 0.2042 0.2231 0.3076
000060 00 ac 4d 2c e4 2d 8d b5 30 b2 61 30 a6 b0 d2 a7
       -0.0625 0.0672 0.09204 -0.347 -0.1934 0.1368 -0.1453 -0.03055
000070 09 34 aa 24 c2 ad 62 2c 4b b3 03 33 35 aa 8d b9
       0.2522 0.01822 -0.08997 0.0685 -0.2279 0.2191 -0.0485 -0.694
000080 81 33 5d a6 32 b3 8e a5 49 32 14 2c ab 35 e3 b3
       0.2345 -0.02486 -0.2249 -0.0217 0.1964 0.0637 0.3542 -0.2465
000090 17 b2 fe 34 92 a3 68 2e b5 b4 80 32 83 a8 da 33
       -0.1903 0.312 -0.014786 0.1001 -0.2942 0.2031 -0.03525 0.2454
0000a0 10 b0 a9 2b ef b8 e9 31 93 a3 48 a8 a1 2d c3 33
       -0.127 0.05984 -0.6167 0.1847 -0.01479 -0.03345 0.08795 0.2426
0000b0 33 b1 b1 b5 b1 a8 00 2f 48 9b 72 af e2 28 cc a7
       -0.1625 -0.3557 -0.03665 0.1094 -0.003555 -0.11633 0.03815 -0.03046
0000c0 08 ae a6 b4 a1 25 ad 9c 40 31 ca b3 3a ac 30 32
       -0.09424 -0.2905 0.02199 -0.004566 0.1641 -0.2434 -0.06604 0.1934
0000d0 06 b0 2c ac 86 ac e5 b4 3b a2 e3 b1 f2 a8 0c aa
       -0.1257 -0.0652 -0.0707 -0.306 -0.01217 -0.184 -0.03864 -0.04724
0000e0 36 2d 10 b6 37 b0 69 2e 90 35 59 b7 a5 b7 3a 2f
       0.0814 -0.379 -0.1317 0.10016 0.3477 -0.4592 -0.4778 0.1129
0000f0 bc b5 54 32 02 2d b8 b8 a7 33 70 b0 29 32 38 ab
       -0.3584 0.1978 0.07825 -0.59 0.2391 -0.1387 0.1925 -0.0564
000100 3c b6 b4 30 fa b3 36 24 89 32 5d b2 d3 2f f9 a7
       -0.3896 0.147 -0.2493 0.01645 0.2042 -0.1989 0.12225 -0.03114
000110 67 34 70 b5 f0 a7 b2 b0 44 30 5a 36 9b b5 cc 1d
       0.2751 -0.3398 -0.031 -0.1467 0.1333 0.397 -0.3503 0.00566
000120 5c 36 6d 26 66 b2 58 b1 d4 b4 d6 34 81 ac d6 31
       0.3975 0.0251 -0.2 -0.167 -0.3018 0.3022 -0.0704 0.1824
000130 e4 2e 54 a5 9d b4 5c 2f 64 b4 51 26 34 31 db 29
       0.10767 -0.02081 -0.2883 0.115 -0.2744 0.02467 0.1626 0.04575
000140 86 33 4b b0 a7 34 ae b5 2c b3 c0 36 82 b2 18 b2
       0.2351 -0.1342 0.2908 -0.355 -0.2241 0.4219 -0.2034 -0.1904
000150 9f aa 09 b5 cd b5 22 aa 58 29 f0 b1 79 b4 44 2c
       -0.05173 -0.3147 -0.3625 -0.0479 0.04175 -0.1855 -0.2795 0.06665
000160 94 35 30 b2 76 30 2a b4 69 22 f8 9e 62 2d 12 ab
       0.3486 -0.1934 0.1394 -0.2603 0.01252 -0.006805 0.0841 -0.05524
000170 8f 30 93 b1 9f 29 95 30 75 aa bf 2a bb b0 67 b2
       0.1425 -0.1742 0.0439 0.1432 -0.05045 0.0527 -0.1478 -0.2001
000180 d1 b5 bd a4 cc b3 13 b2 aa 9d 00 b3 59 b4 80 32
       -0.3635 -0.01851 -0.2437 -0.1898 -0.00553 -0.2188 -0.2717 0.2031
000190 89 34 57 b2 aa a9 5a 2b 34 b1 b7 b1 1d b6 5a a8
       0.2834 -0.1981 -0.04425 0.05743 -0.1626 -0.1786 -0.382 -0.034
0001a0 d1 31 d2 34 04 aa fd a4 10 2a 94 2e 71 34 67 22
       0.1818 0.3013 -0.047 -0.01949 0.04736 0.1028 0.2776 0.012505
0001b0 0e b4 00 b0 88 b5 6a ac 0b 32 24 b9 24 26 dc 2e
       -0.2534 -0.125 -0.3457 -0.069 0.1888 -0.6426 0.02399 0.1072
0001c0 b8 b6 e3 ad c4 31 57 32 0c a3 63 b6 08 b2 52 2d
       -0.42 -0.092 0.1802 0.1981 -0.01376 -0.3992 -0.1885 0.0831
0001d0 de ac 0a 32 4b 2c 27 a5 c1 32 d0 31 d4 33 cb 2b
       -0.07605 0.1887 0.0671 -0.02013 0.211 0.1816 0.2446 0.06088
0001e0 c5 b5 84 b7 3b 2c da 2d 1e 28 7b b0 2a b3 38 39
       -0.3606 -0.4697 0.0661 0.09143 0.03217 -0.14 -0.2239 0.6523
0001f0 55 2e bb a8 44 b3 77 33 25 36 7d b1 c5 b0 0e ad
       0.09894 -0.03696 -0.227 0.2333 0.384 -0.1715 -0.149 -0.079

weight f2 [25]
000000 13 33 ec 34 e9 35 28 35 f4 34 43 36 ad 35 68 33
       0.2211 0.3076 0.3694 0.3223 0.3096 0.3914 0.3547 0.2314
000010 7e 36 af 36 be 37 a4 37 d0 34 0f 36 35 36 08 38
       0.4058 0.4177 0.484 0.4775 0.3008 0.3787 0.388 0.504
000020 7a 39 9a 37 0f 38 ca 35 d6 36 41 34 9e 36 a1 38
       0.6846 0.475 0.5073 0.3618 0.4272 0.2659 0.4136 0.5786
000030 41 34
       0.2659

bias f2 [25]
000000 67 32 02 31 3e 35 a0 35 44 34 01 b0 d7 34 3c 34
       0.2001 0.1565 0.3276 0.3516 0.2666 -0.1251 0.3025 0.2646
000010 7f 2e 7e 30 c2 37 f1 34 f2 34 0a 38 a5 b3 af 38
       0.1015 0.1404 0.4849 0.3088 0.309 0.505 -0.2389 0.5854
000020 c3 af 9b 38 38 3a cf 31 c0 32 3d 33 de a9 20 2e
       -0.1213 0.5757 0.7773 0.1815 0.2109 0.2262 -0.04584 0.0957
000030 42 36
       0.391

running_mean f2 [25]
000000 b7 15 f5 86 b7 8f 4a 93 ea 0e 17 0f 04 8e 7a 95
       0.001395 -0.00010616 -0.0004709 -0.00089 0.000422 0.0004327 -0.0003672 -0.001337
000010 6a 92 fa 8a 43 36 c4 b8 e9 3b 16 35 7c b7 d9 33
       -0.000783 -0.0002129 0.3914 -0.5957 0.989 0.3179 -0.4678 0.2452
000020 f5 bb 40 3b aa b4 8e bb 31 bb e5 b4 f8 3b 18 3a
       -0.9946 0.9062 -0.2915 -0.9443 -0.899 -0.306 0.996 0.7617
000030 ee 39
       0.741

running_var f2 [25]
000000 26 39 02 3e e9 3c 1e 3d 69 38 61 3b ba 3c 48 3d
       0.6436 1.502 1.228 1.279 0.5513 0.9224 1.182 1.32
000010 96 3c 00 3d 55 39 25 38 bf 39 34 36 de 38 03 3d
       1.146 1.25 0.6665 0.518 0.7183 0.3877 0.6084 1.253
000020 88 3e 27 39 d5 3a 15 39 e5 39 42 39 68 37 fb 38
       1.633 0.644 0.854 0.6353 0.737 0.657 0.463 0.6226
000030 cd 35
       0.3625

weight f2 [40, 25, 1, 1]
000000 2e ae 61 35 bf b2 3a ac 0d 30 f2 a3 60 b4 a0 b0
       -0.09656 0.3362 -0.2108 -0.06604 0.1266 -0.01552 -0.2734 -0.1445
000010 75 29 03 2f fb 35 3b b2 0d ad d7 b1 f9 a8 7c 2f
       0.04263 0.10956 0.3738 -0.1947 -0.0789 -0.1825 -0.03885 0.11694
000020 f0 25 3c b2 87 b6 ad ad b2 b4 5e ac b9 29 53 b6
       0.0232 -0.1948 -0.408 -0.0887 -0.2935 -0.06824 0.0447 -0.3953
000030 fe af aa 2b e6 2e 1b af a3 b0 e2 b0 88 1d 04 2b
       -0.1249 0.05988 0.1078 -0.111 -0.1449 -0.1526 0.0054 0.0548
000040 e1 29 ef a4 33 b0 94 31 2a 2b 0b 2a ba b1 27 28
       0.04593 -0.01927 -0.1312 0.1743 0.05597 0.0472 -0.179 0.03244
000050 33 26 2a 28 40 b4 28 2a a3 aa e3 2f f6 ae a5 28
       0.02422 0.03253 -0.2656 0.0481 -0.05185 0.1232 -0.10876 0.0363
000060 f0 29 e3 31 2e 9d c7 aa 98 32 63 30 ce 2c 5f b3
       0.0464 0.184 -0.00506 -0.05295 0.206 0.1371 0.0751 -0.2303
000070 85 a9 74 30 0b 28 83 29 b8 34 01 b0 11 1b 83 29
       -0.04312 0.1392 0.0316 0.04306 0.295 -0.1251 0.00345 0.04306
000080 7b a8 df b1 bc ae 29 2e 93 b6 bb af b2 28 64 b4
       -0.035 -0.1835 -0.1052 0.09625 -0.411 -0.1208 0.03668 -0.2744
000090 03 31 5c af 60 a9 08 2e 9e a9 5d 33 c4 23 0d 28
       0.1566 -0.115 -0.042 0.09424 -0.04388 0.2301 0.01517 0.03165
0000a0 a8 a5 5e 26 0c 2d 8f 34 3a 29 9a 30 cc ae 9f b0
       -0.0221 0.02487 0.07886 0.285 0.04083 0.1438 -0.1062 -0.1444
0000b0 70 af 0f 2d df 29 1e a7 fa 30 3d ab e3 1b 85 34
       -0.1162 0.07904 0.04587 -0.0278 0.1555 -0.05655 0.00385 0.2825
0000c0 41 ae 06 b2 e2 34 1e a5 1a 23 46 a8 3e b3 6e 2f
       -0.0977 -0.1882 0.3052 -0.01999 0.01387 -0.0334 -0.2263 0.1161
0000d0 0a 31 1b 32 4b 34 49 34 c2 b1 49 9c d5 ac a6 30
       0.1575 0.1908 0.2683 0.2678 -0.1799 -0.004185 -0.0755 0.1453
0000e0 2d 2d 06 30 81 31 4b ad 71 a8 d6 ac 82 32 dc 2b
       0.0809 0.1257 0.172 -0.0827 -0.0347 -0.07556 0.2034 0.0614
0000f0 6b 2e c2 a5 d2 af b9 28 f5 34 2e b3 a8 a8 ee a6
       0.1003 -0.02249 -0.1222 0.0369 0.3098 -0.2244 -0.03638 -0.02707
000100 4c 30 5f ab 69 a8 65 b0 97 af a4 ad 8d 2d a1 2a
       0.1343 -0.0576 -0.03445 -0.1373 -0.1186 -0.08813 0.08673 0.0518
000110 f8 b1 8f 1c a8 b4 73 1f c2 af 06 a9 97 ae 1f 27
       -0.1865 0.00445 -0.291 0.007275 -0.1212 -0.03925 -0.10297 0.02782
000120 2f 33 6c b4 3c a8 57 32 7c b0 40 b5 a8 1a 70 2f
       0.2245 -0.2764 -0.03308 0.1981 -0.1401 -0.3281 0.00325 0.1162
000130 06 af 7a 20 80 2f 27 25 bd ac 63 ad f0 a0 01 ad
       -0.10974 0.00874 0.1172 0.02013 -0.07404 -0.08417 -0.00964 -0.0782
000140 17 30 70 b5 3b ad b1 b3 51 2c 18 aa 8c 32 35 b4
       0.1278 -0.3398 -0.0817 -0.2404 0.06744 -0.0476 0.2046 -0.263
000150 a5 37 85 9f a6 ad 72 aa b9 ae 97 ac e2 2d 14 a6
       0.4778 -0.007343 -0.08826 -0.05035 -0.10504 -0.0717 0.0919 -0.02374
000160 5d 1d 10 ab 8b 2e 1b 83 d4 b0 21 36 f1 a8 4c 2c
       0.005238 -0.05518 0.10223 -4.74e-05 -0.1509 0.383 -0.0386 0.06714
000170 f4 33 a5 33 2f b4 6f aa 51 a8 7c 9f fa 30 85 2d
       0.2485 0.2389 -0.2615 -0.05026 -0.03372 -0.00731 0.1555 0.08624
000180 3e b2 fa 2a 62 b0 01 b3 13 b2 92 30 7d b0 85 23
       -0.1951 0.0545 -0.137 -0.2189 -0.1898 0.1428 -0.1403 0.01469
000190 f6 1c ca b0 ab 32 64 b6 b3 b0 2b 2b e3 2f 4b b0
       0.004845 -0.1497 0.2084 -0.3994 -0.1469 0.056 0.1232 -0.1342
0001a0 a3 21 58 ad 22 35 cd 2d 94 34 3f 30 e2 32 cb 2c
       0.01101 -0.0835 0.3208 0.09064 0.2861 0.1327 0.2151 0.0749
0001b0 66 ad df b0 78 a6 5f 31 cb a4 13 af 5f 2e ee 25
       -0.08435 -0.1522 -0.02527 0.1678 -0.01872 -0.11053 0.09955 0.02316
0001c0 90 ac 5a 1c aa 9d 01 a3 f2 96 7d 31 28 b0 b0 2c
       -0.0713 0.00425 -0.00553 -0.01368 -0.001696 0.1715 -0.1299 0.07324
0001d0 18 29 1d af 9d 33 62 a8 34 30 66 33 1d 36 72 ad
       0.0398 -0.11115 0.2379 -0.03424 0.1313 0.2312 0.382 -0.0851
0001e0 02 b9 fa b0 6e ac 76 aa 26 a7 ab b3 f4 b0 eb 26
       -0.626 -0.1555 -0.0692 -0.05048 -0.02792 -0.2396 -0.1548 0.02702
0001f0 41 ae b8 ab 25 ae e3 b1 c3 30 4d 2a d6 b4 c8 a9
       -0.0977 -0.0603 -0.096 -0.184 0.1488 0.04922 -0.3022 -0.04517

weight f2 [40]
000000 00 3c 00 3c 00 3c 00 3c 00 3c 00 3c 00 3c 00 3c
       1.0 1.0 1.0 1.0 1.0 1.0 1.0 1.0
000010 00 3c 00 3c 00 3c 00 3c 00 3c 00 3c 00 3c 00 3c
       1.0 1.0 1.0 1.0 1.0 1.0 1.0 1.0
000020 00 3c 00 3c 00 3c 00 3c 00 3c 00 3c 00 3c 00 3c
       1.0 1.0 1.0 1.0 1.0 1.0 1.0 1.0
000030 00 3c 00 3c 00 3c 00 3c 00 3c 00 3c 00 3c 00 3c
       1.0 1.0 1.0 1.0 1.0 1.0 1.0 1.0
000040 00 3c 00 3c 00 3c 00 3c 00 3c 00 3c 00 3c 00 3c
       1.0 1.0 1.0 1.0 1.0 1.0 1.0 1.0

bias f2 [40]
000000 20 38 c5 91 62 28 24 1e ee 22 ff 2e f7 33 49 2f
       0.5156 -0.0007043 0.03424 0.005997 0.013535 0.1093 0.2489 0.11383
000010 6f 20 f2 31 f0 b4 c4 2a 9d 37 14 2e b3 33 54 ae
       0.00866 0.1858 -0.3086 0.05286 0.4758 0.095 0.2406 -0.0989
000020 15 32 40 2f 5e 33 6c a8 62 99 59 31 55 36 55 32
       0.1901 0.1133 0.2302 -0.03455 -0.002628 0.1671 0.3958 0.1979
000030 86 a3 60 34 5c 30 7f 32 d0 2a 1c 2d e5 2c 7d b3
       -0.014694 0.2734 0.1362 0.203 0.05322 0.07983 0.0765 -0.234
000040 09 30 fa b1 4f 2f 2a 22 49 36 bf 31 75 29 5e 33
       0.1261 -0.1868 0.1142 0.01204 0.3928 0.1796 0.04263 0.2302

running_mean f2 [40]
000000 09 ba 6a ad 8f b3 e2 34 d3 37 ce b8 80 ac f8 2a
       -0.7544 -0.0846 -0.2362 0.3052 0.489 -0.6006 -0.0703 0.05444
000010 80 30 01 b4 27 31 68 30 85 b5 ab 31 1c 2e 93 a5
       0.1406 -0.2502 0.161 0.1377 -0.345 0.1771 0.09546 -0.02177
000020 22 bc 69 b4 47 b6 81 b0 98 b8 6f 34 71 ad c1 35
       -1.033 -0.2756 -0.3923 -0.1407 -0.574 0.277 -0.085 0.3596
000030 3b b4 01 22 aa b3 a1 b0 5a 24 e4 ac b5 39 05 b1
       -0.2644 0.01173 -0.2395 -0.1447 0.017 -0.0764 0.7134 -0.1569
000040 79 b0 e7 b7 db 31 fc 2d 67 b4 99 b7 bd 38 a7 30
       -0.1398 -0.494 0.183 0.0935 -0.2751 -0.4749 0.5923 0.1454
