session6/densenet_mini_ref_maxfact/save_model/save_model_state_best.pth (torch, 403962 bytes, 353 tensors)

weight f2 [3, 1, 3, 3]
00000000: ac37 0b30 992d 9531 2fbc 6338 bfb4 76ba
00000010: c4b3 482f 62b5 3fb4 7a35 82b5 7939 c63a
00000020: 3430 dab8 3f2b ffb0 6635 3ab8 18bc 4a30
00000030: 5339 a334 e3b1
0.4795 0.1263 0.08746 0.1744 -1.046 0.5483 -0.2966 -0.8076
-0.2427 0.1138 -0.3364 -0.2654 0.3423 -0.3442 0.684 0.8467
0.1313 -0.6064 0.0566 -0.1561 0.3374 -0.5283 -1.023 0.134
0.6655 0.2898 -0.184

weight f2 [20, 3, 1, 1]
00000000: 1f2f f338 e636 d1b6 5dac cdb6 df38 7631
00000010: 0aa1 bab8 d9b7 77b3 c432 b7b8 2eab c7b7
00000020: 1038 2bab e3b4 7632 61b7 c5b4 edb2 3837
00000030: 3f39 5435 25b6 8937 b1b0 97b5 b22a 22b6
00000040: e5b8 33b6 8134 0338 7eb5 d6b6 98b6 f5b6
00000050: 4632 1e33 9cb6 8db9 c4ae 2232 70b8 4032
00000060: 4333 5c34 5c35 3434 2ab1 49b8 102f 05b5
00000070: d9ac 7c34 0e33 9036
0.11127 0.6187 0.4312 -0.426 -0.0682 -0.425 0.609 0.1707
-0.00984 -0.591 -0.4905 -0.2333 0.2114 -0.5894 -0.0561 -0.486
0.508 -0.056 -0.3054 0.2019 -0.4612 -0.298 -0.2164 0.4512
0.656 0.333 -0.384 0.471 -0.1466 -0.3494 0.0523 -0.3833
-0.612 -0.3875 0.2815 0.5015 -0.3433 -0.4272 -0.412 -0.4348
0.196 0.2224 -0.413 -0.694 -0.1057 0.1917 -0.5547 0.1953
0.2269 0.2725 0.335 0.2627 -0.1614 -0.5356 0.11035 -0.3137
-0.07574 0.2803 0.2205 0.4102

weight f2 [20]
00000000: 2e3c 753b f03b 573c 3b3b ea3b 663b e63b
00000010: 933b c13b 1b3c 383b 3d3c 9f3b 0d3c b23b
00000020: 593b e63b 6a3b 6f3b
1.045 0.932 0.992 1.085 0.904 0.9893 0.925 0.9873
0.947 0.969 1.026 0.9023 1.06 0.9526 1.013 0.962
0.9185 0.9873 0.927 0.929

bias f2 [20]
00000000: 9334 98a0 6629 3d31 ffae aead 28ad 7ba3
00000010: 5da6 e4ab 2b2d 75aa 4032 38aa 6b35 eca6
00000020: 91a1 dd25 2e21 a12e
0.286 -0.00897 0.04218 0.1637 -0.1093 -0.08875 -0.08057 -0.01461
-0.02486 -0.06165 0.08075 -0.05045 0.1953 -0.04858 0.3386 -0.02704
-0.01087 0.0229 0.01012 0.1036

running_mean f2 [20]
00000000: d982 ac85 b50c 808b 3706 4d8a dd80 598c
00000010: d30e ff0c e009 058d 2b84 2a8c 0d8a 0301
00000020: ad01 470c fb03 b101
-4.345e-05 -8.655e-05 0.0002873 -0.0002289 9.483e-05 -0.0001923 -1.32e-05 -0.0002654
0.0004165 0.000305 0.0001793 -0.0003064 -6.36e-05 -0.0002542 -0.0001847 1.544e-05
2.56e-05 0.000261 6.074e-05 2.58e-05

running_var f2 [20]
00000000: da35 4038 1235 8736 0838 ca3a 5939 1e34
00000010: 0436 5034 c835 3b35 7f35 0d34 1436 3139
00000020: 0e32 1834 2930 aa34
0.3657 0.5312 0.317 0.408 0.504 0.8486 0.6685 0.2573
0.376 0.2695 0.3613 0.327 0.3435 0.2532 0.38 0.649
0.1892 0.2559 0.13 0.2915

weight f2 [40, 20, 1, 1]
00000000: c3b2 c52d d4a3 46b0 44af 7bae be30 1aaf
00000010: a42c aab1 a030 70b3 e828 c028 b5b2 48ae
00000020: e22c aaa7 5aab 932e e8ad 7ab1 7031 52af
00000030: adb0 49a4 64b0 68a7 b9ab 432e e5b0 cfad
00000040: 21ad 9e2b 8db4 d3b0 212f aeb1 862c 7131
00000050: 7330 72a9 3e32 a823 19b0 40b1 0732 9e31
00000060: a121 7434 7f32 5a2e 0b29 a3ad c6b0 23ac
00000070: 3eb3 efad 0f2e 6bab 1ca7 2330 232c 4130
00000080: 3e32 4830 02ad 852c b3ae 7b2d c4a7 4baf
00000090: 7a34 922d 0e30 e3ad e92e ab31 5ba2 84b2
000000a0: c432 40b2 58b0 6624 561d 3731 09b1 992b
000000b0: b6b1 47b0 1daf a62d 90b0 a0b0 7a30 c6aa
000000c0: 0332 2931 8f26 f0ac b42e 04b1 f431 a228
000000d0: d731 e02f d932 2e2f c8b0 11a4 e132 2eac
000000e0: 0134 502d 7a31 8aa4 9532 6329 7910 692f
000000f0: 9830 82b1 3d25 d631 eb20 f02c a0b0 eda7
00000100: 6ab0 f5af 3831 4721 ca32 af25 8431 00af
00000110: 67ad 4432 06b4 e92f 7b28 67a9 9c33 4026
00000120: 882c cbaf 0928 47b3 632d e22d feb1 80b1
00000130: dc30 0fb3 8331 6c2e bcac 492f 532e cc30
00000140: 7033 68b1 e2aa 8fb1 2fb0 64b2 d8ae 332a
00000150: fcaf 5ba4 702f 3527 c231 77a7 04b1 e9b0
00000160: 3b31 3031 d8ad 082d bdb2 842e 8db1 b7a2
00000170: 58ac d529 9f2b f72e 3f28 e32e 7d31 eb31
00000180: fb30 3e20 48b1 44a6 00ae 6d22 8f31 54af
00000190: 78ac 97b2 aa2f a02d 4832 27a0 56af 8d30
000001a0: eaa9 0b2e e330 ec30 95ae af31 7825 232f
000001b0: b622 b8b0 0c1e 4732 b32e 4b25 9ab3 c330
000001c0: adb1 5b32 9d2f c8a0 5db1 5230 1f31 762e
000001d0: 8933 79b0 712c d3a4 5d29 8230 7a30 13a4
000001e0: 7bb2 df28 141d a5ad 9433 baa7 3fa7 00b1
000001f0: 3dae b5b0 4bb0 cfae 03ad b5a9 c033 8f34
-0.2113 0.09015 -0.01529 -0.1335 -0.1135 -0.10126 0.1482 -0.11096
0.0725 -0.177 0.1445 -0.2324 0.03833 0.0371 -0.2096 -0.09814
0.0763 -0.02994 -0.05743 0.1027 -0.0923 -0.1711 0.1699 -0.1144
-0.1461 -0.01674 -0.1372 -0.02893 -0.06033 0.09784 -0.153 -0.09076
-0.08014 0.0595 -0.2844 -0.1508 0.1114 -0.1775 0.0707 0.17
0.139 -0.04254 0.1951 0.01495 -0.128 -0.1641 0.1884 0.1755
0.010994 0.2783 0.203 0.09924 0.0394 -0.0881 -0.1492 -0.06464
-0.2263 -0.0927 0.09467 -0.05795 -0.02777 0.1293 0.06464 0.1329
0.1951 0.1338 -0.07825 0.0706 -0.1047 0.08563 -0.03033 -0.11395
0.2798 0.08704 0.1267 -0.092 0.108 0.1771 -0.01241 -0.2036
0.2114 -0.1953 -0.1357 0.01718 0.00521 0.163 -0.1573 0.05936
-0.1785 -0.1337 -0.11115 0.08826 -0.1426 -0.1445 0.1399 -0.05292
0.1879 0.1613 0.02562 -0.07715 0.10474 -0.1567 0.186 0.0362
0.1825 0.12305 0.214 0.1122 -0.1494 -0.01588 0.215 -0.0653
0.2502 0.083 0.1711 -0.01773 0.2057 0.04208 0.000546 0.1158
0.1436 -0.1721 0.02046 0.1824 0.009605 0.07715 -0.1445 -0.03096
-0.138 -0.1243 0.1631 0.01031 0.2122 0.0222 0.1724 -0.1094
-0.0844 0.1958 -0.2515 0.1236 0.035 -0.0422 0.2378 0.02441
0.0708 -0.12177 0.03152 -0.2274 0.08417 0.0919 -0.1873 -0.1719
0.1519 -0.2206 0.1722 0.10034 -0.074 0.11383 0.0988 0.1499
0.2324 -0.169 -0.05377 -0.1737 -0.1307 -0.1997 -0.10693 0.04843
-0.12476 -0.01701 0.1162 0.02815 0.1799 -0.02916 -0.1567 -0.1534
0.1635 0.1621 -0.0913 0.0786 -0.2106 0.1018 -0.1735 -0.013115
-0.0679 0.04556 0.05954 0.1088 0.03317 0.1076 0.1715 0.1849
0.1556 0.008286 -0.165 -0.02448 -0.09375 0.01255 0.1737 -0.1145
-0.0698 -0.2059 0.11975 0.0879 0.1963 -0.00811 -0.1146 0.1422
-0.0462 0.0944 0.1527 0.1538 -0.10284 0.1776 0.02136 0.1115
0.01311 -0.1475 0.005905 0.1962 0.1047 0.02068 -0.2375 0.1488
-0.1774 0.1986 0.11896 -0.00934 -0.1676 0.135 0.16 0.10095
0.2355 -0.1398 0.0694 -0.01884 0.0419 0.1409 0.1399 -0.01591
-0.2025 0.03806 0.00496 -0.0882 0.2368 -0.03018 -0.0283 -0.1562
-0.0975 -0.1471 -0.1342 -0.1064 -0.0783 -0.0446 0.2422 0.285

weight f2 [40]
00000000: 003c 003c 003c 003c 003c 003c 003c 003c
00000010: 003c 003c 003c 003c 003c 003c 003c 003c
00000020: 003c 003c 003c 003c 003c 003c 003c 003c
00000030: 003c 003c 003c 003c 003c 003c 003c 003c
00000040: 003c 003c 003c 003c 003c 003c 003c 003c
1.0 1.0 1.0 1.0 1.0 1.0 1.0 1.0
1.0 1.0 1.0 1.0 1.0 1.0 1.0 1.0
1.0 1.0 1.0 1.0 1.0 1.0 1.0 1.0
1.0 1.0 1.0 1.0 1.0 1.0 1.0 1.0
1.0 1.0 1.0 1.0 1.0 1.0 1.0 1.0

bias f2 [40]
00000000: 9a20 fd2d 16a0 6ba5 b31c 1fa2 6d23 5f23
00000010: 0d9b 15a6 7ca7 5c20 1925 5ca5 99a8 28a9
00000020: a126 362c 4ea0 e227 7c27 0f2f c231 4ca9
00000030: 7a0f 7c2d 7b29 0928 6427 fb2c 6220 ec28
00000040: 3ba1 4e94 f31c 0ea7 63a9 8aa8 f628 5ca9
0.00899 0.09357 -0.00798 -0.02116 0.00459 -0.011955 0.0145 0.0144
-0.003443 -0.02376 -0.02924 0.008514 0.01991 -0.02094 -0.03592 -0.04028
0.0259 0.0658 -0.00841 0.03079 0.02924 0.1103 0.1799 -0.04138
0.0004563 0.0857 0.04282 0.03152 0.02887 0.0778 0.00856 0.03845
-0.010216 -0.001051 0.004833 -0.02756 -0.04208 -0.03546 0.03876 -0.04187

running_mean f2 [40]
00000000: 41b5 ccb6 2d31 1e36 7aac 6639 da32 4932
00000010: 96af ec29 5234 ef35 84af e3b2 5d34 2d35
00000020: 8133 07b7 bd31 6aaf 0db8 95b6 2cb8 9fb5
00000030: 7426 14b9 8bb7 e0b4 03b6 07b1 17b1 86b6
00000040: 212f 37b1 d0b1 5236 c235 3c25 79af aa33
-0.3284 -0.4248 0.1617 0.3823 -0.06995 0.675 0.2141 0.1964
-0.1185 0.04626 0.27 0.3708 -0.11743 -0.2152 0.2727 0.3235
0.2345 -0.4392 0.1793 -0.11584 -0.5063 -0.4114 -0.5215 -0.3513
0.0252 -0.635 -0.4714 -0.3047 -0.3757 -0.1571 -0.159 -0.4077
0.1114 -0.163 -0.1816 0.395 0.3599 0.02045 -0.11676 0.2395

running_var f2 [40]
00000000: 5930 7b35 112b 7c33 cd2f c531 d730 8634
00000010: 1531 1932 0133 5534 4834 de37 0b31 ee31
00000020: 4b31 5d34 1732 9d33 f634 e836 fb36 d431
00000030: 6d35 3936 9e35 3536 6632 3c32 c531 2c34
00000040: e12b 9c32 0f32 fa2d c42e aa31 9632 532e
0.1359 0.3425 0.0552 0.2339 0.1219 0.1803 0.1512 0.2827
0.1588 0.1906 0.2189 0.2708 0.2676 0.4917 0.1576 0.1853
0.1654 0.2727 0.1903 0.2379 0.31 0.4316 0.4363 0.1821
0.339 0.389 0.351 0.388 0.2 0.1948 0.1803 0.2607
0.06155 0.2065 0.1893 0.0934 0.1057 0.177 0.2058 0.0988

weight f2 [40, 1, 3, 3]
00000000: 10ae c6af 82b2 e82e 7c28 b71c 1826 93b5
00000010: 5b2d 852c 3734 efad 54b4 13b4 0c35 2417
00000020: 0cb2 0235 c733 85b4 8db5 5aaa 6e34 8931
00000030: 5b34 fdb4 adb0 249f 972f 23b4 a8b4 83ac
00000040: c531 e3b2 f3b0 3ab1 68b4 cab3 89b4 9534
00000050: 8432 f733 c2ae dfac ff32 47a6 07b5 3735
00000060: e5af 9cb1 9134 2fb1 d4b0 e8ab 5134 d5ab
00000070: faad 9b2d e3b5 b3b1 9434 9931 6ab2 e134
00000080: a231 cc25 0eaf c6b2 df33 ceb5 80b3 f329
00000090: 3934 d331 5f30 26b4 f0ac 0a9f 6caf 1934
000000a0: 5533 13b2 0d30 ef2f c1b4 d0b0 4a33 7034
000000b0: 6d2d dbb0 1aa0 e2ad 6a34 2725 dd25 242e
000000c0: 37ab b530 dcb4 79ac 67ac 95ad 59b4 482c
000000d0: 8e29 71b0 272d b634 3128 45b2 3fb0 6a22
000000e0: 30b4 f7b1 fa32 e935 949f 542f 7bac 9fb1
000000f0: fc27 b12e 23b5 17ae 76a3 3ab5 44ad 70ac
00000100: f534 72a0 bdb4 0635 7cb4 a8ad af30 da23
00000110: 8630 c831 9534 6c2f 87ac 54b0 38b5 9028
00000120: ceb0 d9b4 cc32 17a1 f2b2 5ab5 9532 a12e
00000130: c0af f832 63b4 0434 1e24 b9b5 19ad df24
00000140: 0cb1 0f32 c034 4834 37b6 472c 5f34 5431
00000150: 762e 1bb2 5331 38ac 34b3 9c28 3832 61ac
00000160: c52a af32 0db3 7d33 54b4 0535 172d 3bb5
00000170: 7cb3 7736 3eb0 b932 dc1f 16ad b4ae 86ac
00000180: a7b0 ae36 e5b4 ab28 0437 38ad f8b3 c2b6
00000190: 6135 8a32 ac33 92b4 bb28 f62c b6b2 182a
000001a0: 5735 702e c1b4 d62b 3bb4 1331 aab2 a3aa
000001b0: 3131 3233 13ad f82c 6bb4 cd34 67b0 65b3
000001c0: f231 e936 a0b0 2ea9 99a8 33b2 7d2f b090
000001d0: 37ad 02b4 8f31 4234 f630 6e35 93b3 31b5
000001e0: cc30 33b1 64b0 a92f 2cb7 da34 03b2 3334
000001f0: 6f2c 7db4 81ac 2b33 5ea9 3136 b2b3 4db3
-0.0947 -0.12146 -0.2034 0.1079 0.03503 0.004604 0.0238 -0.3484
0.0837 0.0706 0.2634 -0.0927 -0.2705 -0.2546 0.3154 0.001743
-0.189 0.313 0.243 -0.2825 -0.347 -0.04962 0.2769 0.173
0.2722 -0.3118 -0.1461 -0.006973 0.1186 -0.2585 -0.291 -0.0705
0.1803 -0.2152 -0.1547 -0.1633 -0.2754 -0.2434 -0.2834 0.2864
0.2036 0.2489 -0.1056 -0.0761 0.2186 -0.02452 -0.3142 0.326
-0.12335 -0.1753 0.2854 -0.162 -0.1509 -0.06177 0.2698 -0.0612
-0.0934 0.0876 -0.368 -0.1781 0.2861 0.1749 -0.2004 0.305
0.176 0.02264 -0.1102 -0.2117 0.246 -0.3628 -0.2344 0.04648
0.264 0.182 0.1366 -0.2593 -0.07715 -0.006874 -0.11597 0.256
0.2291 -0.1898 0.1266 0.12396 -0.297 -0.1504 0.2278 0.2773
0.0848 -0.1517 -0.00801 -0.0919 0.276 0.02013 0.0229 0.09595
-0.05637 0.1471 -0.3037 -0.0699 -0.0688 -0.0872 -0.2717 0.0669
0.0434 -0.1388 0.0805 0.2944 0.03275 -0.1959 -0.1327 0.01253
-0.2617 -0.1864 0.218 0.3694 -0.0074 0.1145 -0.07 -0.1757
0.03119 0.10455 -0.321 -0.09515 -0.01457 -0.3267 -0.0823 -0.06934
0.3098 -0.00868 -0.2961 0.314 -0.2803 -0.0884 0.1464 0.015335
0.1414 0.1807 0.2864 0.11597 -0.07074 -0.1353 -0.3262 0.03564
-0.1501 -0.303 0.2124 -0.00994 -0.217 -0.3345 0.2057 0.1036
-0.1211 0.2178 -0.2742 0.251 0.01608 -0.3577 -0.07965 0.01903
-0.1577 0.1893 0.2969 0.2676 -0.3884 0.06683 0.2732 0.1665
0.10095 -0.1908 0.1664 -0.0659 -0.2251 0.036 0.1943 -0.0684
0.0529 0.2089 -0.2203 0.234 -0.2705 0.3137 0.0795 -0.327
-0.2339 0.404 -0.1326 0.2101 0.007675 -0.07947 -0.10474 -0.0707
-0.1454 0.4175 -0.306 0.03647 0.4385 -0.08154 -0.249 -0.4224
0.3362 0.2043 0.2397 -0.2856 0.03696 0.0775 -0.2097 0.0476
0.3337 0.1006 -0.297 0.06122 -0.2644 0.1586 -0.2083 -0.05185
0.1622 0.2249 -0.0793 0.07764 -0.2761 0.3 -0.1376 -0.2311
0.1858 0.432 -0.1445 -0.04047 -0.03592 -0.1937 0.117 -0.000572
-0.0815 -0.2505 0.1737 0.266 0.155 0.3394 -0.2367 -0.3245
0.1499 -0.1625 -0.1372 0.1197 -0.4482 0.3032 -0.1879 0.2625
0.0693 -0.2805 -0.0704 0.224 -0.04193 0.387 -0.2405 -0.2281

weight f2 [40]
00000000: 563b 033c a13b 9b3b b03b ee3b 003c c43b
00000010: ae3b d83b a43b 023c 993b d13b ef3b 9e3b
00000020: a23b 023c 983b e13b 733c 3b3c 173c 683b
00000030: 183c af3b 7c3b 0c3c 323c 983b 9a3b e83b
00000040: ce3b 113c cc3b 013c 933b bc3b ed3b 973b
0.917 1.003 0.9536 0.9507 0.961 0.991 1.0 0.9707
0.96 0.9805 0.955 1.002 0.9497 0.977 0.9917 0.952
0.954 1.002 0.949 0.985 1.112 1.058 1.022 0.926
1.023 0.9604 0.9355 1.012 1.049 0.949 0.95 0.9883
0.9756 1.017 0.9746 1.001 0.947 0.967 0.9907 0.9487

bias f2 [40]
00000000: eb01 b301 3a81 8681 2804 1c02 aa81 4403
00000010: 6100 4f00 6480 3904 bc82 5303 6c02 7401
00000020: a882 e583 7280 5e80 a606 5700 5f82 6b02
00000030: 5282 dd00 2903 c680 1a83 9b80 7704 5202
00000040: 0d82 3d03 3580 d303 cf00 b804 df82 9a01
2.927e-05 2.59e-05 -1.87e-05 -2.325e-05 6.34e-05 3.22e-05 -2.54e-05 4.98e-05
5.8e-06 4.7e-06 -5.96e-06 6.443e-05 -4.17e-05 5.07e-05 3.695e-05 2.22e-05
-4.053e-05 -5.94e-05 -6.8e-06 -5.6e-06 0.00010145 5.2e-06 -3.62e-05 3.69e-05
-3.54e-05 1.32e-05 4.82e-05 -1.18e-05 -4.73e-05 -9.24e-06 6.81e-05 3.54e-05
-3.13e-05 4.94e-05 -3.16e-06 5.835e-05 1.234e-05 7.2e-05 -4.38e-05 2.444e-05

running_mean f2 [40]
00000000: 1fb2 942a 8faa 6bb4 3425 5bb0 72a7 81a8
00000010: f631 4224 342a 8daa 6fad 1eb2 94a7 422d
00000020: 98b2 0eac 1634 7028 5e28 7c28 69af 17aa
00000030: ea2d f8ac fc2c 8110 58a7 592d b8ae 7c14
00000040: 62ac 51aa a82c 6eab 1fb4 2f28 02af 4230
-0.1913 0.0514 -0.05124 -0.2761 0.02032 -0.1361 -0.02908 -0.0352
0.1863 0.01663 0.04846 -0.05118 -0.0849 -0.1912 -0.0296 0.08215
-0.206 -0.06335 0.2554 0.03467 0.03412 0.03503 -0.1158 -0.04758
0.0924 -0.07764 0.0779 0.00055 -0.02869 0.08356 -0.105 0.001095
-0.0685 -0.04935 0.07275 -0.05804 -0.2576 0.03268 -0.1095 0.133

running_var f2 [40]
00000000: 552a fb2b db32 c032 a932 4f35 dc34 1e30
00000010: 4330 6229 4b26 942f 972e 7c2f 6431 662f
00000020: 8d34 5529 2c34 1d2e 9e2c d82e 2229 ed28
00000030: 8a2f a828 b62e 722c c528 642c 3529 5b28
00000040: ba31 532b 402e c032 f832 ec29 6230 f830
0.04947 0.06235 0.2142 0.2109 0.2081 0.3318 0.3037 0.1287
0.1332 0.04205 0.02458 0.1184 0.10297 0.11694 0.1685 0.1156
0.2844 0.04166 0.2607 0.0955 0.07214 0.10693 0.0401 0.03848
0.1178 0.03638 0.10486 0.06946 0.03726 0.0686 0.04068 0.03403
0.179 0.05722 0.09766 0.2109 0.2178 0.04626 0.137 0.1553

weight f2 [10, 40, 1, 1]
00000000: b3af 32b3 3bad 4a2e 1dad 03b1 fe32 e42a
00000010: bb2a fbb0 872c 8530 3aaf 0532 08b0 c321
00000020: a3a6 3431 762c 20a9 99b3 eaae 4822 b22e
00000030: 2325 84a4 5d1b cfb2 c0b3 44b0 4eac ec31
00000040: 782e 25b0 2db0 6aad 14ae 629a 6cab 1624
00000050: 28a9 8bae 62a9 c0ae e523 9124 77ab efac
00000060: d7ab 9722 db2c 5430 71ac 96aa fa27 abaf
00000070: b82d b333 9e1b 082e e434 11b4 3d30 9aac
00000080: 9f99 452c d632 412a 7435 88af e1af a732
00000090: 1420 092d 8e2b 6225 6caa 052c 8fa4 a5ac
000000a0: 12ac bc30 352f 2c2a 6bb1 ff21 4630 242e
000000b0: 8b28 fa30 d6a5 d31f ae2d 48a9 702e a1af
000000c0: 92ac a732 5226 4230 1134 1bb6 85b2 79aa
000000d0: 88af d234 0c2b e2af 592f 7f2c dda4 be2d
000000e0: 1db2 9731 9d2f de98 292d b730 cb2c 1130
000000f0: 88ae 44b1 5dab 7cad 3232 299a 3630 0130
00000100: dfa6 0725 69a9 7c28 18b2 be31 b5b3 4e1c
00000110: e7a0 1daf 5230 feab c532 482d 122e a2ac
00000120: 3fa9 6d31 b232 bc2e 28a8 2721 dc2d fe32
00000130: 99ae 3127 1130 0b30 3cad e431 3cb0 f2a2
00000140: 5c2d 99b4 472a e133 612f 452f 662c 4c28
00000150: c0ac 831c 25ae 7a2d 1aa6 4da4 782c cc31
00000160: 3db1 5628 e431 292b 6231 2034 1838 fa2c
00000170: 8a32 14b0 31aa 58b3 b033 7932 fcb2 a42b
00000180: b9a9 13b3 162f e4a4 3827 f030 072d 03ad
00000190: 9a28 c8b2 e22c 0931 c2a0 42b0 0cad 0bb0
000001a0: efaf 5f2b 762b 7032 0aaf 2734 e6b0 d4a8
000001b0: b931 0624 11af 312f 6533 342f 9830 7eae
000001c0: d6b1 712d eb2f 842d 5b2f 8ab0 4e2c 4230
000001d0: 68a5 e028 f924 2432 01a8 46ab a12d 422f
000001e0: 62aa 152d 162e 36a6 432c 68a4 1cb0 2634
000001f0: c32f b52a 879e a330 a6b0 09a6 152d 3faf
-0.1203 -0.2249 -0.0817 0.09827 -0.0799 -0.1566 0.2185 0.05383
0.05258 -0.1556 0.07074 0.1412 -0.1129 0.1881 -0.126 0.01125
-0.02592 0.1626 0.0697 -0.04004 -0.2374 -0.10803 0.01227 0.1046
0.02007 -0.01764 0.003595 -0.2128 -0.2422 -0.1333 -0.06726 0.185
0.1011 -0.1295 -0.1305 -0.0846 -0.095 -0.003117 -0.05798 0.01596
-0.04028 -0.10223 -0.04205 -0.10547 0.01542 0.01784 -0.05832 -0.0771
-0.06125 0.01287 0.07587 0.1353 -0.0694 -0.05145 0.03116 -0.1198
0.08936 0.2406 0.00372 0.09424 0.3057 -0.2542 0.1324 -0.0719
-0.002745 0.0667 0.2136 0.04886 0.3408 -0.1177 -0.1231 0.2079
0.007965 0.0787 0.05902 0.02103 -0.05017 0.0628 -0.0178 -0.0726
-0.0636 0.148 0.1126 0.04822 -0.1693 0.01171 0.1335 0.09595
0.0355 0.1555 -0.0228 0.00764 0.08875 -0.04126 0.1006 -0.1192
-0.0714 0.2079 0.02469 0.133 0.2542 -0.3816 -0.2037 -0.05057
-0.1177 0.3013 0.05505 -0.12317 0.1148 0.07025 -0.019 0.0897
-0.191 0.1747 0.11896 -0.002377 0.0806 0.1473 0.0749 0.1271
-0.10205 -0.1646 -0.05753 -0.0857 0.1936 -0.003008 0.1316 0.1251
-0.02684 0.01964 -0.04227 0.03503 -0.1904 0.1794 -0.2408 0.004204
-0.009575 -0.11115 0.135 -0.06244 0.2115 0.0825 0.09485 -0.0724
-0.041 0.1696 0.2092 0.1052 -0.03247 0.01006 0.09155 0.2185
-0.1031 0.02809 0.1271 0.1263 -0.0818 0.1841 -0.1323 -0.013565
0.08374 -0.2874 0.04904 0.2462 0.1153 0.1136 0.0687 0.03357
-0.0742 0.004406 -0.096 0.0856 -0.02383 -0.0168 0.0698 0.1812
-0.1637 0.03387 0.1841 0.05594 0.1682 0.2578 0.5117 0.07776
0.2043 -0.1274 -0.04837 -0.2295 0.2402 0.2023 -0.2183 0.0597
-0.0447 -0.2211 0.1107 -0.0191 0.0282 0.1543 0.07855 -0.0783
0.03595 -0.2119 0.0763 0.1573 -0.00929 -0.133 -0.07886 -0.1263
-0.12396 0.0576 0.0583 0.2012 -0.11 0.2595 -0.1531 -0.03772
0.1788 0.01572 -0.1104 0.11237 0.2311 0.11255 0.1436 -0.10144
-0.1824 0.085 0.1237 0.0862 0.1149 -0.1418 0.06726 0.133
-0.02112 0.0381 0.01942 0.1919 -0.03128 -0.05682 0.08795 0.1134
-0.04987 0.0794 0.0951 -0.02426 0.0666 -0.01721 -0.1284 0.2593
0.1213 0.0524 -0.006374 0.1449 -0.1453 -0.02357 0.0794 -0.1132

weight f2 [30]
00000000: ef3b 573c 6d3c f83b 533d 223c da3b e73c
00000010: 823b 113c 853b 023b a73b 183c 683b e83a
00000020: e13a f03b 5d3b 5c3b d03b 4e3b 153c c83a
00000030: d33b 923b 683b 5e3b 6b3a 083c
0.9917 1.085 1.106 0.996 1.331 1.033 0.9814 1.226
0.9385 1.017 0.94 0.876 0.9565 1.023 0.926 0.8633
0.86 0.992 0.9204 0.92 0.9766 0.913 1.0205 0.8477
0.978 0.9463 0.926 0.921 0.8022 1.008

bias f2 [30]
00000000: c224 0fb1 7da4 109e b2b1 8c2f 4a2b 7725
00000010: 3123 d8a7 7323 b0ae 78aa 9d25 292a 892b
00000020: 0ea9 38a5 a127 24a4 a830 f21d 6329 7fa5
00000030: 3b1f e0ad 5e2c 022c 38b3 73ae
0.01859 -0.1581 -0.01753 -0.00592 -0.178 0.1179 0.05695 0.02135
0.014046 -0.03064 0.01455 -0.1045 -0.05054 0.02193 0.04813 0.05887
-0.0395 -0.02039 0.0298 -0.01617 0.1455 0.005806 0.04208 -0.02147
0.00706 -0.0918 0.06824 0.0626 -0.2256 -0.10077

running_mean f2 [30]
00000000: 1582 1a80 ca01 dc06 5a81 ed01 3306 d103
00000010: b681 7f88 d982 ac85 b50c 808b 3706 4d8a
00000020: dd80 598c d30e ff0c e009 058d 2b84 2a8c
00000030: 0d8a 0301 ad01 470c fb03 b101
-3.177e-05 -1.55e-06 2.73e-05 0.00010467 -2.06e-05 2.94e-05 9.46e-05 5.823e-05
-2.61e-05 -0.0001372 -4.345e-05 -8.655e-05 0.0002873 -0.0002289 9.483e-05 -0.0001923
-1.32e-05 -0.0002654 0.0004165 0.000305 0.0001793 -0.0003064 -6.36e-05 -0.0002542
-0.0001847 1.544e-05 2.56e-05 0.000261 6.074e-05 2.58e-05

running_var f2 [30]
00000000: 0639 993e 0d40 d43a 9c40 ba3d 523c af40
00000010: 8f39 0e3e da35 4038 1235 8736 0838 ca3a
00000020: 5939 1e34 0436 5034 c835 3b35 7f35 0d34
00000030: 1436 3139 0e32 1834 2930 aa34
0.628 1.649 2.025 0.8535 2.305 1.432 1.08 2.342
0.695 1.514 0.3657 0.5312 0.317 0.408 0.504 0.8486
0.6685 0.2573 0.376 0.2695 0.3613 0.327 0.3435 0.2532
0.38 0.649 0.1892 0.2559 0.13 0.2915

weight f2 [15, 30, 1, 1]
00000000: 0dae 96b2 d0ae 902d fb38 1db2 ab33 68b4
00000010: a32a c5b0 d929 ce26 5ea5 d3a8 5221 e228
00000020: 58b0 3533 31aa 04ac 42ac db31 d2b1 7925
00000030: 002e 672e c22d 1da4 83a9 792c 3e32 f8b1
00000040: 69b0 d12d d6b0 5433 4a1a 2ba9 9cae 2ba4
00000050: 3630 b12a 8429 6a2c 5b28 c430 f327 0336
00000060: f0ad d230 d5b0 0932 79ac a02a fba8 4f34
00000070: 022c 992f d431 0533 5a2c d82f 7d34 bba6
00000080: 382e eb2e 85a9 6920 8ab1 112d db2e d22d
00000090: 5030 deb3 2532 f2a8 ddb1 fb9e 41ac 2735
000000a0: ef28 ec2c b51f cc23 4e2d 7b30 1a30 eb32
000000b0: b42b ac33 64b0 9bb2 a7b3 63ac bab5 a630
000000c0: ac30 c6b2 b9b0 f1a8 0fb1 782c 07b1 7aa9
000000d0: 51b1 d429 da25 f2b1 0bb4 65b4 4db3 5b2a
000000e0: 3a19 9b2b ceaa 99b1 76a4 94b4 08a4 b0b0
000000f0: 81b0 3631 66b2 b830 70b5 1d36 3db4 3e33
00000100: 452d 9db2 d0ae c4af 10ab df31 8533 07b2
00000110: 6faf 272f 35a6 b42b fb1c 26b1 d12d a3ac
00000120: 3233 5e2d 84a9 45aa dda9 4eb3 a7b0 29b3
00000130: 37b7 b4b2 8db5 8927 bf2c a6b5 efac 329d
00000140: 02ac f9a6 912f 97ad 63a5 b1af 8bab 32aa
00000150: 39b1 8b17 41b5 46a6 cdb2 2eac a1b4 04b0
00000160: 182b ddb2 8625 312e 19ab 0eb2 49aa 18b1
00000170: 32ad d530 37af 1cb8 842a 70b5 9eb2 bb28
00000180: 2dae cbb3 2734 32b0 1b2d dbb0 46ae b733
00000190: dd30 8c32 51ad 80ad 4cb3 55a4 baaf ac32
000001a0: 7c30 a1b3 ed31 502e a42f 5a2f 93b3 7ab0
000001b0: 9c32 58af ad31 7b28 65b1 652f c531 22b5
000001c0: e329 9fb3 ed95 94b2 4430 3527 ec33 24b4
000001d0: 3fb0 c6b0 0fa7 d92b c1b1 7432 51ae 71a6
000001e0: 5f2b f0b4 0fa9 b1a2 21b5 9823 1eb2 3bb7
000001f0: e032 39b0 9eae d32f 69a9 daa6 51b0 c8ae
-0.09454 -0.2058 -0.10645 0.0869 0.6226 -0.191 0.2396 -0.2754
0.05185 -0.149 0.0457 0.02658 -0.02097 -0.0377 0.01039 0.03815
-0.1357 0.2252 -0.04837 -0.06274 -0.0665 0.183 -0.1819 0.02138
0.09375 0.10004 0.08997 -0.01607 -0.04306 0.0699 0.1951 -0.1865
-0.1378 0.0909 -0.1511 0.229 0.00307 -0.04037 -0.1033 -0.01628
0.1316 0.05228 0.0431 0.069 0.03403 0.1489 0.03105 0.3757
-0.0928 0.1506 -0.151 0.1886 -0.0699 0.05176 -0.0389 0.2693
0.0626 0.1187 0.1821 0.2194 0.068 0.12256 0.2805 -0.02629
0.09717 0.1081 -0.04312 0.00861 -0.1731 0.07916 0.1071 0.09094
0.1348 -0.2458 0.192 -0.03864 -0.1832 -0.006817 -0.06647 0.322
0.03854 0.0769 0.007526 0.01523 0.0829 0.14 0.1282 0.2162
0.06018 0.2397 -0.1372 -0.2064 -0.2391 -0.06854 -0.358 0.1453
0.146 -0.2117 -0.1476 -0.0386 -0.1581 0.0698 -0.1571 -0.0428
-0.1661 0.04553 0.02286 -0.1858 -0.2527 -0.2747 -0.2281 0.04965
0.002552 0.05942 -0.05316 -0.1749 -0.01743 -0.2861 -0.01575 -0.1465
-0.1407 0.1628 -0.2 0.1475 -0.3398 0.382 -0.265 0.2263
0.08234 -0.2067 -0.10645 -0.12134 -0.05518 0.1835 0.235 -0.1884
-0.11615 0.11176 -0.02425 0.06018 0.004864 -0.1609 0.0909 -0.07245
0.2249 0.08386 -0.0431 -0.04898 -0.0458 -0.2283 -0.1454 -0.2238
-0.451 -0.2095 -0.347 0.02943 0.07416 -0.353 -0.0771 -0.005074
-0.0626 -0.02724 0.1182 -0.08734 -0.02104 -0.1202 -0.05893 -0.0484
-0.1632 0.001842 -0.3284 -0.0245 -0.2125 -0.0653 -0.2893 -0.1255
0.05542 -0.2145 0.02158 0.09674 -0.05545 -0.1892 -0.0491 -0.1592
-0.0812 0.151 -0.11273 -0.5137 0.0509 -0.3398 -0.2068 0.03696
-0.0965 -0.2435 0.2595 -0.1311 0.0798 -0.1517 -0.098 0.2411
0.152 0.2046 -0.08307 -0.08594 -0.228 -0.01692 -0.1207 0.2085
0.1401 -0.2384 0.1852 0.09863 0.1194 0.11487 -0.2367 -0.1399
0.2065 -0.11475 0.1774 0.035 -0.1686 0.11554 0.1803 -0.3208
0.046 -0.2382 -0.001447 -0.2056 0.1333 0.02815 0.2476 -0.2588
-0.1327 -0.1492 -0.02757 0.0613 -0.1798 0.2017 -0.0987 -0.02516
0.0576 -0.3086 -0.03952 -0.01307 -0.3206 0.01483 -0.1912 -0.452
0.2148 -0.132 -0.1034 0.12225 -0.04227 -0.02676 -0.1349 -0.10596

weight f2 [15]
00000000: 583b 2e3c 8d3b cc3b 483b a03c 2e3c bd3b
00000010: ff3b 153c 8f3b 4e3b 103c 703b 993b
0.918 1.045 0.944 0.9746 0.91 1.156 1.045 0.9673
0.9995 1.0205 0.945 0.913 1.016 0.9297 0.9497

bias f2 [15]
00000000: 7f97 931f d429 622f 23ac 502f 7330 fb2e
00000010: da2d c22f 782b b7a8 9b27 75ad 3698
-0.00183 0.007397 0.04553 0.11536 -0.06464 0.11426 0.139 0.1091
0.09143 0.1212 0.05835 -0.03683 0.02971 -0.08527 -0.002056

running_mean f2 [15]
00000000: 432f 6638 0e39 42bc f9ab b0bc 85b8 daae
00000010: 39b8 32b8 f2b7 9737 b1b1 d6b5 9338
0.11346 0.55 0.632 -1.064 -0.0623 -1.172 -0.565 -0.10706
-0.528 -0.5244 -0.4966 0.4744 -0.1779 -0.3647 0.572

running_var f2 [15]
00000000: e932 e334 9d35 5b38 0835 9338 2c37 8a33
00000010: e435 5f37 2035 3936 b637 8c34 3334
0.216 0.3054 0.3508 0.5444 0.3145 0.572 0.4482 0.2356
0.3682 0.4607 0.3203 0.389 0.482 0.2842 0.2625

weight f2 [40, 15, 1, 1]
00000000: 7b31 c7b3 7eb2 122e ee2c 59b1 1534 219a
00000010: ae30 74b2 5534 cb2e b8b0 152c 5c32 7eb3
00000020: 20ae 1d2f 2eb3 0ab1 4ba9 7a2f c2af 35b3
00000030: 6031 2bb3 dcb4 20b1 05a5 6230 23ac 3fa4
00000040: 05b2 1f25 e3b1 cc31 ca32 1c30 87ae fdac
00000050: cc30 2cac 8d34 e1ae 2dae fc31 9db1 d531
00000060: 2227 79b4 72ac ebaf e1b0 c8b2 8532 1530
00000070: 55b1 032d e7b1 6130 c5a5 a534 e926 932e
00000080: 3eac adab b031 e130 5db3 cc2e 5821 6834
00000090: 6eac 2a9f 8524 b829 8fb1 c5ac 4bb2 d9b3
000000a0: 3bb2 d2a8 94a1 98b4 57af 23ac 0dab 0bb0
000000b0: 53b3 43ae 64b0 f6b2 f9b0 91ae 9bab 0a33
000000c0: e4b1 0535 76af c5b4 1cb1 97b2 deb3 b52c
000000d0: 4d2c 7ba9 682d ccab fc2c 9b30 4dad 2fae
000000e0: 2132 6e30 12b1 0fb0 3933 6e32 30af 83b4
000000f0: d12b dcb1 9c24 3221 f82c 3731 8a32 082f
00000100: aab1 edb2 2c24 c6b3 a2ae 3cb0 c933 3b1f
00000110: a2ad 89b0 34b0 942f 5bb4 bab1 8aaf 4aad
00000120: 5fb4 deae e5b0 4331 952e 652f d9b2 4330
00000130: b429 95ad 5930 8aaa 612c 6c31 80ac 5db3
00000140: 2c2e 3c33 ed32 8ea5 79b3 d8a6 54ad 38aa
00000150: 4432 1827 e2b2 4733 43b2 962c 6734 29b2
00000160: 0ab1 b632 9430 44b5 eaa9 55b0 5232 e933
00000170: 06b3 f733 d9b0 5f21 c731 d02e a6af cd34
00000180: 4eb0 8ba9 ac31 fdb0 59a8 b931 1426 1b30
00000190: 0bb2 21ab b131 bcaf 22b4 0832 adb3 f4a3
000001a0: 2ab4 b02f a22d ba35 3027 8330 cbb0 aeb1
000001b0: 5bac 11af e8b3 a0b3 73b1 baa2 97ae 382f
000001c0: 62a4 ee2c e0b0 adac 0d34 04ac a52e 9533
000001d0: 002f ec28 1634 80a2 11b0 2234 c731 ecb0
000001e0: 052c eca8 8eae bb27 d5ad c333 f731 b42a
000001f0: 8833 e131 932f 132d 39b5 861a 5ab3 27b0
0.1713 -0.243 -0.2029 0.09485 0.077 -0.1671 0.2551 -0.002993
0.1462 -0.2017 0.2708 0.10614 -0.1475 0.0638 0.1987 -0.2341
-0.0957 0.11115 -0.2244 -0.1575 -0.04135 0.1168 -0.1212 -0.2252
0.168 -0.224 -0.3037 -0.1602 -0.0196 0.137 -0.06464 -0.01659
-0.1881 0.02 -0.184 0.1812 0.2122 0.1284 -0.102 -0.07794
0.1499 -0.0652 0.2844 -0.1075 -0.0965 0.187 -0.1754 0.1823
0.02786 -0.2795 -0.06946 -0.1237 -0.1525 -0.2119 0.2037 0.1276
-0.1666 0.0783 -0.1844 0.1368 -0.02254 0.2903 0.027 0.1027
-0.0663 -0.05997 0.1777 0.1525 -0.2301 0.1062 0.01044 0.2754
-0.0692 -0.006996 0.01765 0.04468 -0.1737 -0.0745 -0.1967 -0.2452
-0.1947 -0.03766 -0.010895 -0.287 -0.1147 -0.06464 -0.05508 -0.1263
-0.2289 -0.09784 -0.1372 -0.2175 -0.1554 -0.1026 -0.05942 0.22
-0.1841 0.3137 -0.1166 -0.298 -0.1597 -0.2059 -0.2458 0.07355
0.0672 -0.04282 0.0845 -0.0609 0.0779 0.1439 -0.0828 -0.0966
0.1915 0.1384 -0.1584 -0.1268 0.2257 0.2009 -0.1123 -0.282
0.06107 -0.1831 0.018 0.01015 0.07764 0.163 0.2043 0.10986
-0.177 -0.2164 0.0163 -0.2429 -0.10364 -0.1323 0.2433 0.00706
-0.088 -0.1417 -0.1313 0.1184 -0.2722 -0.179 -0.1178 -0.08264
-0.2732 -0.1073 -0.153 0.1644 0.10284 0.11554 -0.214 0.1332
0.04456 -0.0872 0.1359 -0.0511 0.0684 0.1694 -0.0703 -0.2301
0.09644 0.2261 0.2164 -0.0217 -0.2335 -0.02673 -0.08325 -0.04858
0.1958 0.02771 -0.2151 0.2274 -0.1957 0.07166 0.2751 -0.1925
-0.1575 0.2097 0.1431 -0.329 -0.0462 -0.1354 0.1975 0.2472
-0.2195 0.2489 -0.1515 0.01049 0.1805 0.10645 -0.1195 0.3
-0.1345 -0.0433 0.1772 -0.1559 -0.03397 0.1788 0.02374 0.1283
-0.1888 -0.0557 0.1779 -0.12085 -0.2583 0.1885 -0.2399 -0.01553
-0.2603 0.1201 0.088 0.358 0.02808 0.141 -0.1498 -0.1775
-0.06805 -0.1104 -0.2471 -0.2383 -0.1703 -0.01314 -0.10297 0.1128
-0.01712 0.077 -0.1523 -0.07306 0.2532 -0.06274 0.1038 0.2369
0.1094 0.03845 0.2554 -0.012695 -0.1271 0.2583 0.1805 -0.1538
0.0628 -0.03845 -0.1024 0.0302 -0.0911 0.2426 0.1864 0.05237
0.2354 0.1837 0.11835 0.0793 -0.3264 0.003185 -0.2297 -0.1298

weight f2 [40]
00000000: 003c 003c 003c 003c 003c 003c 003c 003c
00000010: 003c 003c 003c 003c 003c 003c 003c 003c
00000020: 003c 003c 003c 003c 003c 003c 003c 003c
00000030: 003c 003c 003c 003c 003c 003c 003c 003c
00000040: 003c 003c 003c 003c 003c 003c 003c 003c
1.0 1.0 1.0 1.0 1.0 1.0 1.0 1.0
1.0 1.0 1.0 1.0 1.0 1.0 1.0 1.0
1.0 1.0 1.0 1.0 1.0 1.0 1.0 1.0
1.0 1.0 1.0 1.0 1.0 1.0 1.0 1.0
1.0 1.0 1.0 1.0 1.0 1.0 1.0 1.0

bias f2 [40]
00000000: 012b dd26 5026 a11d 749e 611d 2024 4b26
00000010: 3028 6720 5a19 6a2e 53a7 7f16 5fab 6028
00000020: bd2c 0e29 419f 56a0 a6a3 369b 80a9 5b21
00000030: e7a5 0224 8f9b 3ba0 db27 d69f a829 6d9e
00000040: ea9b a82c 8526 0124 d395 959f ab23 7a29
0.05472 0.02681 0.02466 0.005497 -0.0063 0.005253 0.01611 0.02458
0.0327 0.0086 0.002613 0.1002 -0.02861 0.001586 -0.0576 0.03418
0.07404 0.0395 -0.007084 -0.00847 -0.01494 -0.003521 -0.04297 0.01046
-0.02306 0.01566 -0.00369 -0.00826 0.03069 -0.007652 0.0442 -0.006275
-0.003864 0.07275 0.02547 0.01564 -0.001422 -0.007404 0.01498 0.0428

running_mean f2 [40]
00000000: 9f30 b9b7 8b2e c7b0 a334 feb9 80b7 6727
00000010: 67a7 9ab7 222c 64a7 7e34 80b2 2fb4 d136
00000020: c432 57b8 00b2 22b5 c632 f437 12b0 f12d
00000030: 19b9 77ac 5ca8 abb6 0b33 23b6 d038 9736
00000040: 3734 5735 5fb3 08a7 8132 baaa 8c39 5ba8
0.1444 -0.4827 0.10223 -0.1493 0.2898 -0.749 -0.4688 0.02892
-0.02892 -0.475 0.0646 -0.02887 0.2808 -0.2031 -0.2615 0.426
0.2114 -0.5425 -0.1875 -0.3208 0.2117 0.497 -0.1272 0.09283
-0.637 -0.06976 -0.03406 -0.4167 0.2201 -0.3835 0.6016 0.4119
0.2634 0.3337 -0.2303 -0.02747 0.2032 -0.05255 0.6934 -0.03403

running_var f2 [40]
00000000: cb2e c330 7630 f92f 8d2d 072f b132 912f
00000010: dd32 8e2d 9630 3534 412d 5033 cc32 8934
00000020: 1c32 6b2f 9c30 382e 9d2e ab30 7332 c430
00000030: df30 bc31 dd30 c42b 2e30 3531 ab30 ad2b
00000040: 922e e733 0b2b 7832 4431 a92f bc32 3a31
0.10614 0.1488 0.1394 0.1246 0.08673 0.1098 0.2091 0.1182
0.2145 0.0868 0.1433 0.263 0.0821 0.2285 0.2124 0.2834
0.1909 0.1159 0.144 0.09717 0.10333 0.1459 0.2015 0.1489
0.1522 0.1792 0.152 0.06067 0.1306 0.1627 0.1459 0.05997
0.10266 0.247 0.05502 0.2021 0.1646 0.1197 0.2104 0.1633

weight f2 [40, 1, 3, 3]
00000000: 00b5 12b4 12a8 2bb1 6e32 0635 1632 c72f
00000010: fa2f b634 ffb4 f0b2 472f c635 4fb1 71a8
00000020: 4034 96a7 c0b1 54b4 beb0 d532 5631 6ba6
00000030: ebaf 3929 ea2b ebb4 70b1 7234 e9ad 42a9
00000040: c0b3 0420 2ba4 a0b4 6e34 2624 fd30 0632
00000050: d232 5034 0b33 d930 3d33 6ab4 0bb1 23b4
00000060: 802c 472d 092d 6234 3c34 9630 e734 422d
00000070: 61ac 562b 87b1 9833 37b4 e0b6 2934 5433
00000080: 19b4 ed31 fb30 122d daad 8dad 39af 3ab4
00000090: b231 0f34 f230 42b4 3db4 4635 e7b4 7a2f
000000a0: 312c d530 baac d0a0 d01a 1bb5 602c c4b1
000000b0: 9b26 48b5 29b1 cfb2 91b2 aba9 f4b4 6ab2
000000c0: 36a2 6526 922c ada8 d3ae 65b2 7fb4 21b4
000000d0: ba31 e934 c7ac 5b34 2ab1 1a32 20b3 a034
000000e0: 7735 7133 48b5 feab f22d eeaf 6ab0 7f31
000000f0: a733 7b1f 982f 4b31 77b5 8e31 e034 3431
00000100: c5a9 84b4 6c27 d7b2 5ab4 2fb4 aead c434
00000110: 78b1 e7b0 5e34 7c27 6dad 2324 a6af 01b4
00000120: 2c2c 7432 45b4 00b1 1837 5ea8 2eb2 1a31
00000130: b8b5 09b6 7dad cbb0 27b5 b6a1 c031 b834
00000140: daab 5933 5533 1534 5931 64b0 c5b2 2198
00000150: 7832 7ab2 feb4 34b2 f733 432f 87a9 d3ab
00000160: 0129 94b0 c0b2 e4b1 c9ac f3b0 ce30 d533
00000170: 9834 63b4 edac 6eb0 0e25 c0ac e5ad 7ab0
00000180: c436 5db1 4031 512b fd31 91ae b330 412d
00000190: 8e26 f528 4735 5d35 9eb0 662e bda4 4bb4
000001a0: 6d34 672d 2bb4 ef33 ac33 ca2e 95b6 17ad
000001b0: 4db5 552d ebb5 bd33 b5b3 1931 dc33 40b3
000001c0: 5db2 59b3 2d2b de30 b2b5 2232 bdb2 2a32
000001d0: 0236 63ad a22d e22e c92e b132 242e c4af
000001e0: 4528 692b ccb7 b4b5 e49c 8ab1 c634 a1ae
000001f0: 7423 82b5 222c f625 c622 0d1d 3126 8831
-0.3125 -0.2544 -0.0318 -0.1615 0.2009 0.314 0.1902 0.1215
0.12463 0.2944 -0.3123 -0.2168 0.1137 0.3608 -0.1659 -0.0347
0.2656 -0.02963 -0.1797 -0.2705 -0.1482 0.2135 0.1667 -0.02507
-0.1237 0.0408 0.06183 -0.3074 -0.1699 0.2778 -0.09235 -0.04108
-0.2422 0.00784 -0.01628 -0.289 0.2769 0.0162 0.1559 0.1882
0.2131 0.2695 0.2201 0.1515 0.2262 -0.276 -0.1576 -0.2585
0.0703 0.08246 0.0787 0.274 0.2646 0.1433 0.3064 0.08215
-0.0684 0.0573 -0.1727 0.2373 -0.2634 -0.4297 0.26 0.229
-0.256 0.1852 0.1556 0.0792 -0.09143 -0.08673 -0.11285 -0.2642
0.178 0.2537 0.1545 -0.266 -0.265 0.3296 -0.3064 0.1168
0.0655 0.151 -0.07385 -0.0094 0.003326 -0.319 0.06836 -0.1802
0.0258 -0.33 -0.1613 -0.2128 -0.2052 -0.04428 -0.3096 -0.2004
-0.01213 0.02498 0.0714 -0.03653 -0.1066 -0.1998 -0.281 -0.258
0.179 0.307 -0.07465 0.2722 -0.1614 0.1907 -0.2227 0.289
0.3416 0.2325 -0.33 -0.06244 0.0929 -0.1239 -0.138 0.1718
0.2391 0.007305 0.11865 0.1654 -0.3416 0.1736 0.3047 0.1626
-0.04507 -0.2822 0.02899 -0.2137 -0.272 -0.2615 -0.08875 0.2979
-0.1709 -0.1532 0.273 0.02924 -0.0848 0.01616 -0.1195 -0.2502
0.0652 0.2017 -0.2668 -0.1562 0.4434 -0.03412 -0.1931 0.1594
-0.3574 -0.3772 -0.08575 -0.1498 -0.322 -0.011154 0.1797 0.295
-0.06134 0.2296 0.2291 0.2551 0.1671 -0.1372 -0.2115 -0.002016
0.2021 -0.2024 -0.312 -0.1938 0.2489 0.11346 -0.04318 -0.06113
0.0391 -0.1431 -0.2109 -0.1841 -0.07477 -0.1547 0.1501 0.2448
0.287 -0.2742 -0.07697 -0.1384 0.01974 -0.0742 -0.0921 -0.1399
0.4229 -0.1676 0.1641 0.05716 0.1871 -0.1026 0.1469 0.0821
0.0256 0.03873 0.3298 0.3352 -0.1443 0.1 -0.01851 -0.2683
0.2766 0.0844 -0.2605 0.2479 0.2397 0.1061 -0.4114 -0.0795
-0.3313 0.0833 -0.3699 0.2418 -0.2408 0.1593 0.2456 -0.2266
-0.1989 -0.2296 0.05606 0.1521 -0.356 0.1917 -0.2106 0.1926
0.3755 -0.08417 0.088 0.10754 0.106 0.2091 0.09595 -0.12134
0.03336 0.0579 -0.4873 -0.3564 -0.004776 -0.1731 0.2983 -0.1036
0.01456 -0.3442 0.0646 0.02328 0.01323 0.004932 0.02419 0.1729

weight f2 [40]
00000000: 013c bc3b 033c 6f3b c23b a93b 323c b33b
00000010: d83b c13b 8b3b 353c ae3b ba3b 743b d23b
00000020: 373c 3f3c c63b 633b fe3b d53b 743b 223c
00000030: a43b c53b 0d3c 9a3b cc3b 213c d23b ef3b
00000040: 023c fa3b 7b3b 7f3b e43b 043c b73b 013c
1.001 0.967 1.003 0.929 0.9697 0.9575 1.049 0.9624
0.9805 0.969 0.943 1.052 0.96 0.966 0.9316 0.9775
1.054 1.062 0.9717 0.9233 0.999 0.979 0.9316 1.033
0.955 0.971 1.013 0.95 0.9746 1.032 0.9775 0.9917
1.002 0.997 0.935 0.937 0.9863 1.004 0.9644 1.001

bias f2 [40]
00000000: ca81 c582 8681 a380 2601 2800 a103 4101
00000010: 1781 d280 4081 c803 4502 be80 e082 c380
00000020: e382 6303 9480 5882 3980 1d00 9081 5a80
00000030: 2783 5581 a280 e701 d902 ac03 d502 8780
00000040: 4400 d684 b681 1800 fa80 cd80 4681 3680
-2.73e-05 -4.226e-05 -2.325e-05 -9.7e-06 1.75e-05 2.4e-06 5.54e-05 1.913e-05
-1.66e-05 -1.25e-05 -1.91e-05 5.77e-05 3.463e-05 -1.13e-05 -4.387e-05 -1.16e-05
-4.405e-05 5.17e-05 -8.8e-06 -3.576e-05 -3.4e-06 1.7e-06 -2.384e-05 -5.36e-06
-4.81e-05 -2.03e-05 -9.66e-06 2.9e-05 4.345e-05 5.6e-05 4.32e-05 -8.05e-06
4.05e-06 -7.38e-05 -2.61e-05 1.43e-06 -1.49e-05 -1.22e-05 -1.943e-05 -3.2e-06

running_mean f2 [40]
00000000: ad2c ab2f 91ae ceb4 e637 f92d caa3 32aa
00000010: f62d 12b4 31b6 a5ae 3931 6b2c 85b2 ffac
00000020: 2cac bab0 97a4 d1b0 f5a0 7f2e f034 e98d
00000030: 5ab3 6328 3a25 c0b1 6528 8f2e 66b0 212c
00000040: 58a5 f791 80a8 63b0 08a6 682f 682f 06a8
0.07306 0.1198 -0.1026 -0.3003 0.4937 0.0933 -0.01521 -0.0484
0.09314 -0.2544 -0.387 -0.1038 0.1632 0.06903 -0.2037 -0.07806
-0.0652 -0.1477 -0.01793 -0.1505 -0.00968 0.1015 0.3086 -0.0003607
-0.2297 0.03427 0.02042 -0.1797 0.03433 0.1025 -0.1375 0.0645
-0.02087 -0.000728 -0.03516 -0.1371 -0.02356 0.1157 0.1157 -0.03143

running_var f2 [40]
00000000: b830 ca2d c32b d130 1539 922e 6e2d 572e
00000010: b12d e02e e332 042e a82f 952d a332 bd2c
00000020: f72c 592f 502d 222a 5f2a 6c2d d232 692f
00000030: d82d dd30 682d a12d 0030 2d30 1f31 152d
00000040: 592f 2c2d 362f f02c d52a dc2b 002f f52d
0.1475 0.09045 0.06064 0.1505 0.6353 0.10266 0.08484 0.09906
0.0889 0.1074 0.2152 0.094 0.1196 0.0872 0.2074 0.07404
0.0776 0.1148 0.083 0.0479 0.04977 0.0847 0.2131 0.1158
0.0913 0.152 0.0845 0.08795 0.125 0.1305 0.16 0.0794
0.1148 0.0808 0.1127 0.07715 0.05338 0.0614 0.1094 0.0931

weight f2 [10, 40, 1, 1]
00000000: b62f b09f 3a32 0f29 7bac e6ac 5eb1 c6ad
00000010: fbb3 5e31 bb30 8daf 87aa d62f cfa2 a62d
00000020: 9523 e92f 1232 e82d 2f31 93a8 e226 f4a3
00000030: 6aad 0a2c 5334 9eab 881c e2b2 fea9 7da6
00000040: 3f30 dd30 bda7 4fac 08b3 d7ae 1227 fab3
00000050: 0035 0e2e cd2b bab1 74af 2b25 c3b2 c8b0
00000060: ed30 ed2f 2ea8 6828 c22d 85ae 952a 0eab
00000070: deaf 6432 c9aa a6b1 f8a2 b89d 4f2e 3d36
00000080: 162b f0ad 689b 702e 1d2d e8ae 5729 102e
00000090: 0b32 9aaa 40a4 6c2f e626 2e8e e131 eaa9
000000a0: 1332 5327 8526 f429 cdac 0724 faa0 d62a
000000b0: 50b0 0e2d d125 7aad 5dad b929 cd27 c3b2
000000c0: 1c28 5c33 4e2e 04a2 59ae 28a8 3aae 5134
000000d0: 0723 f224 9133 ba2d 3924 b025 27ad 97b3
000000e0: e2aa 5faf d3ae b02d 652a b0b4 e92d 98ae
000000f0: e6a9 d8a8 6f25 deae 922c 7c2b 9930 5baf
00000100: 2c28 6f30 682f ca31 e2af 1f24 b02c 1ab4
00000110: 6ea6 9ea8 af2a a8ac ba26 cdac 46ac cdb0
00000120: e22c b6ac d129 5e28 1ab1 4e31 fd31 d9b0
00000130: d4af 9eb4 4d33 b4b1 6324 581f 102e 3633
00000140: 7328 d42f 752b 6b29 3123 a333 5b2f 6c2c
00000150: 47b0 12ab 8caa 2d2e 01a2 492e 5629 1ca5
00000160: 35b4 b5b4 a3ad 5aab 2429 4caf 3322 02a9
00000170: ee24 3832 e7b2 bfb1 c22e 3aa9 e8a8 4328
00000180: 272e 3f31 8b20 8c2b 5cb3 75a5 dbab 81b1
00000190: b496 59af 86aa 0826 00b1 90b4 342e 7531
000001a0: f922 842b 2baf 5036 f428 d028 172d 17b2
000001b0: 9eb0 28b5 8d2f a331 39b0 b7af ec2d a42a
000001c0: 4f2e 5025 232c ada6 fc2e d1ad f42f 2398
000001d0: 99a0 43a6 db2e 0431 d531 b92d 31ae e3a9
000001e0: 5bac 5833 d5ae 93aa c9a8 da29 86b1 48a8
000001f0: fd2a 9d1c 132d bdad 95af 5aac c22f cdaf
0.1205 -0.007507 0.1946 0.03952 -0.07 -0.07654 -0.1677 -0.0902
-0.2494 0.1677 0.1478 -0.118 -0.051 0.12244 -0.0133 0.08826
0.01481 0.1236 0.1897 0.0923 0.162 -0.03574 0.02689 -0.01553
-0.0846 0.0631 0.2703 -0.0595 0.004425 -0.2151 -0.0468 -0.02534
0.1327 0.152 -0.03023 -0.0673 -0.2197 -0.1069 0.02762 -0.2493
0.3125 0.0946 0.06094 -0.179 -0.11646 0.02019 -0.2113 -0.1494
0.1539 0.12384 -0.03265 0.03442 0.08997 -0.10187 0.05142 -0.0551
-0.1229 0.1997 -0.053 -0.1765 -0.01361 -0.005585 0.0986 0.39
0.05536 -0.0928 -0.003616 0.1006 0.0799 -0.1079 0.04172 0.0947
0.1888 -0.05157 -0.0166 0.11597 0.02695 -0.0003772 0.1837 -0.0462
0.1898 0.02861 0.02547 0.0465 -0.075 0.01573 -0.00972 0.0534
-0.1348 0.079 0.02272 -0.0856 -0.0838 0.0447 0.03047 -0.2113
0.0321 0.23 0.0985 -0.01175 -0.0992 -0.03247 -0.0973 0.2698
0.013725 0.01932 0.2365 0.0895 0.0165 0.02222 -0.0805 -0.2372
-0.05377 -0.1152 -0.1066 0.08887 0.04996 -0.293 0.09235 -0.103
-0.04608 -0.03784 0.02122 -0.1073 0.0714 0.05847 0.1437 -0.1149
0.0326 0.1385 0.1157 0.1809 -0.12317 0.0161 0.07324 -0.2563
-0.02512 -0.03607 0.05222 -0.07275 0.02628 -0.075 -0.0668 -0.15
0.0763 -0.0736 0.04544 0.03412 -0.1594 0.1658 0.1871 -0.1515
-0.1223 -0.2886 0.2281 -0.1782 0.01714 0.00717 0.0947 0.2253
0.03476 0.1223 0.05826 0.04233 0.014046 0.2386 0.1149 0.0691
-0.1337 -0.05524 -0.05115 0.0965 -0.01173 0.0982 0.0417 -0.01996
-0.263 -0.2942 -0.0881 -0.05743 0.04016 -0.114 0.01211 -0.03912
0.01926 0.1943 -0.2157 -0.1796 0.1056 -0.04083 -0.03833 0.0333
0.0961 0.164 0.00887 0.05896 -0.23 -0.02132 -0.06137 -0.172
-0.0016365 -0.1148 -0.05096 0.02356 -0.1562 -0.2852 0.0969 0.1705
0.01362 0.05872 -0.112 0.3945 0.0387 0.0376 0.0795 -0.1903
-0.1443 -0.3223 0.118 0.1761 -0.132 -0.12054 0.0925 0.05188
0.0986 0.02075 0.06464 -0.02608 0.10913 -0.0909 0.12427 -0.00202
-0.00898 -0.02446 0.1071 0.1567 0.1823 0.0894 -0.09674 -0.046
-0.06805 0.2295 -0.10675 -0.05136 -0.03738 0.04572 -0.1726 -0.03345
0.0546 0.004505 0.0793 -0.08966 -0.11847 -0.068 0.1212 -0.1219

weight f2 [25]
00000000: 133c fb3b ff3b be3b b63b ac3b 4a3b b83b
00000010: dd3b b33b ee3b f53b a33b d23b 313c e83b
00000020: ce3b 7d3b d33b 1d3c 9e3b eb3b 893b e03b
00000030: 113c
1.019 0.9976 0.9995 0.968 0.964 0.959 0.911 0.965
0.983 0.9624 0.991 0.9946 0.9546 0.9775 1.048 0.9883
0.9756 0.936 0.978 1.028 0.952 0.9897 0.942 0.9844
1.017

bias f2 [25]
00000000: 632d ad2f 8e26 2128 ff29 db1f 4ba3 db24
00000010: c524 a329 302a 6f9e 84ac ae12 b52a ed2a
00000020: fe2d c924 39a2 be2b 1526 aa21 cc2b 98a8
00000030: 4c24
0.08417 0.11993 0.0256 0.03226 0.04684 0.00767 -0.014244 0.01897
0.01863 0.04404 0.04834 -0.006283 -0.07056 0.0008154 0.0524 0.0541
0.0936 0.01869 -0.01215 0.0605 0.02376 0.01106 0.0609 -0.0359
0.01678

running_mean f2 [25]
00000000: 6383 9680 9c00 a502 6680 5a00 a285 3081
00000010: 4302 2981 432f 6638 0e39 42bc f9ab b0bc
00000020: 85b8 daae 39b8 32b8 f2b7 9737 b1b1 d6b5
00000030: 9338
-5.17e-05 -8.94e-06 9.3e-06 4.035e-05 -6.1e-06 5.36e-06 -8.595e-05 -1.81e-05
3.45e-05 -1.77e-05 0.11346 0.55 0.632 -1.064 -0.0623 -1.172
-0.565 -0.10706 -0.528 -0.5244 -0.4966 0.4744 -0.1779 -0.3647
0.572

running_var f2 [25]
00000000: 6e3d 8e3b 1d3c 1f3b d23b 433c a93c 533d
00000010: 293c e23b e932 e334 9d35 5b38 0835 9338
00000020: 2c37 8a33 e435 5f37 2035 3936 b637 8c34
00000030: 3334
1.357 0.9443 1.028 0.89 0.9775 1.065 1.165 1.331
1.04 0.9854 0.216 0.3054 0.3508 0.5444 0.3145 0.572
0.4482 0.2356 0.3682 0.4607 0.3203 0.389 0.482 0.2842
0.2625

weight f2 [40, 25, 1, 1]
00000000: e231 73ac 2232 c6ad 26b1 0db0 7fae 9bb0
00000010: 92a4 8531 2332 eead f92e 22b0 35b2 0b33
00000020: e630 952b dfa1 f2ac 99ac 4b2c 74a7 d4a7
00000030: 1ead 6daa 4930 aa31 572e 2ba7 3c2f 0930
00000040: 8f30 4c32 70b0 152e a4ad 4eac 0032 ef31
00000050: e3ae 1332 2531 c72f e6ad 5d2c 78b0 5faf
00000060: 24a0 8723 f49f 7fb2 d69c db2e 3f31 b9b0
00000070: 261d 5f28 62a7 d5a2 8930 549b 4132 63b0
00000080: b2ac 3dae 3430 9e32 19ae 252d 9daf 4831
00000090: 23b2 c4ae a830 33af e4b0 63b1 dd2a f72a
000000a0: ca2b e42f a5b1 3f31 87af a123 5920 9427
000000b0: 2b26 80ad 4fae cf25 bf32 292e ffb1 e531
000000c0: 2f30 2234 4da6 93b0 b129 7a2b 3732 a9af
000000d0: c3af d42e aca1 b3ae 1a2e aeae 82b1 4d2c
000000e0: cb2e 489e 3d31 6e30 3632 b730 7fad d12c
000000f0: 1534 19b2 27af 9728 8a22 4b30 7a32 85a3
00000100: 43ab ebb1 62b0 85b1 3b2d d3b0 e8ad 78ac
00000110: dc28 33a9 7230 0098 a82e aa30 ceaf 5a9e
00000120: 8329 36ad 6db2 9530 ad2c a128 bfa8 1c31
00000130: 8231 6e31 4ea3 9029 1c2f 5b2c d131 abb3
00000140: c82c 7e23 3ca2 b42d b828 a62d 1d30 1029
00000150: abad fe24 6d9e 11a8 672c d529 bbb1 16ab
00000160: ceaf 50a8 ef2c 1aaa b5ac 9933 9b28 88ac
00000170: b82b a1b2 40b0 622b c8b1 8130 ceaf bd29
00000180: f523 8e31 4b32 8f17 e0a1 10ad 66a6 5ba4
00000190: b1b0 92ae 8730 13aa a2b3 4332 0832 bc95
000001a0: d026 2ab1 91b1 1da5 6b27 13b0 f2ae 6829
000001b0: 40b2 85b1 f7b2 6d2a 60b1 edae f5b0 c929
000001c0: d7b2 0baf 6331 c5ab 3621 03a0 e7ab 252b
000001d0: 6ab1 5fab 5d31 d4ae 71b0 c729 6832 ac2e
000001e0: 012b 41ad ff31 8232 9cac c5ad 2230 0fab
000001f0: c728 03b1 0ab4 cfad 33b3 01b1 3aa2 9333
0.1838 -0.0695 0.1917 -0.0902 -0.1609 -0.1266 -0.1015 -0.1439
-0.01785 0.1725 0.1918 -0.09265 0.10895 -0.1292 -0.194 0.2201
0.1531 0.05923 -0.01147 -0.0773 -0.07184 0.0671 -0.02911 -0.03058
-0.07996 -0.0502 0.1339 0.177 0.09906 -0.028 0.11304 0.1261
0.1425 0.1968 -0.1387 0.09503 -0.08813 -0.06726 0.1875 0.1854
-0.1076 0.1898 0.1608 0.1215 -0.09216 0.0682 -0.1396 -0.1152
-0.00809 0.0147 -0.007767 -0.203 -0.004723 0.1071 0.164 -0.1476
0.005028 0.03415 -0.02884 -0.01334 0.1417 -0.003578 0.1954 -0.1371
-0.07336 -0.0975 0.1313 0.2068 -0.0953 0.0804 -0.11896 0.165
-0.1918 -0.1057 0.1455 -0.1125 -0.1528 -0.1683 0.05362 0.0544
0.06085 0.1233 -0.1764 0.164 -0.1176 0.0149 0.00849 0.0296
0.0241 -0.08594 -0.0986 0.02269 0.2108 0.09625 -0.1874 0.1842
0.1307 0.2583 -0.02461 -0.143 0.04446 0.0584 0.1942 -0.1197
-0.1213 0.1067 -0.01108 -0.1047 0.09534 -0.1044 -0.1721 0.0672
0.10614 -0.006134 0.1637 0.1384 0.1941 0.1473 -0.0859 0.07526
0.2551 -0.1906 -0.11176 0.03586 0.01277 0.1342 0.2024 -0.01469
-0.05673 -0.1849 -0.137 -0.1725 0.0817 -0.1508 -0.0923 -0.0698
0.03796 -0.04062 0.1389 -0.001953 0.104 0.1458 -0.12195 -0.006203
0.04306 -0.0814 -0.2008 0.1432 0.07306 0.03616 -0.03708 0.1597
0.1721 0.1697 -0.01427 0.04346 0.1111 0.06805 0.1818 -0.2396
0.0747 0.01463 -0.01218 0.0891 0.03687 0.08826 0.1285 0.03955
-0.08856 0.0195 -0.006275 -0.03177 0.0688 0.04556 -0.1791 -0.05536
-0.12195 -0.0337 0.0771 -0.04767 -0.07355 0.2374 0.03598 -0.0708
0.0603 -0.2072 -0.1328 0.05768 -0.1807 0.1407 -0.12195 0.04483
0.01554 0.1736 0.1967 0.001845 -0.011475 -0.0791 -0.025 -0.01701
-0.1466 -0.10266 0.1415 -0.04745 -0.2385 0.1957 0.1885 -0.0014
0.02661 -0.1614 -0.174 -0.01997 0.02898 -0.1273 -0.1085 0.04224
-0.1953 -0.1725 -0.2177 0.0502 -0.168 -0.1082 -0.1549 0.0452
-0.2137 -0.11005 0.1683 -0.0607 0.01018 -0.007835 -0.06174 0.05582
-0.1692 -0.0576 0.1676 -0.1067 -0.1388 0.04514 0.2002 0.10425
0.05472 -0.0821 0.1874 0.2034 -0.072 -0.09015 0.1292 -0.05515
0.03732 -0.1566 -0.2524 -0.09076 -0.225 -0.1564 -0.01216 0.2367

weight f2 [40]
00000000: 003c 003c 003c 003c 003c 003c 003c 003c
00000010: 003c 003c 003c 003c 003c 003c 003c 003c
00000020: 003c 003c 003c 003c 003c 003c 003c 003c
00000030: 003c 003c 003c 003c 003c 003c 003c 003c
00000040: 003c 003c 003c 003c 003c 003c 003c 003c
1.0 1.0 1.0 1.0 1.0 1.0 1.0 1.0
1.0 1.0 1.0 1.0 1.0 1.0 1.0 1.0
1.0 1.0 1.0 1.0 1.0 1.0 1.0 1.0
1.0 1.0 1.0 1.0 1.0 1.0 1.0 1.0
1.0 1.0 1.0 1.0 1.0 1.0 1.0 1.0

bias f2 [40]
00000000: 1025 1c20 d824 9b28 f521 e3a5 c929 eb24
00000010: 139a 5522 399e 8e9c 2e1f ac26 d2a8 66a3
00000020: 0425 9a28 1225 eda2 b7a4 070d 0a9a cca7
00000030: 9e21 5f28 c9a4 2f21 c523 1424 a21d 812b
00000040: 629c f024 7b1e 09a1 fb27 2726 e025 8f26
0.01978 0.008026 0.01892 0.03598 0.011635 -0.023 0.0452 0.01921
-0.002966 0.01237 -0.006077 -0.004448 0.00701 0.02606 -0.03766 -0.01445
0.01959 0.03595 0.0198 -0.01353 -0.01842 0.0003068 -0.002949 -0.03046
0.01097 0.03415 -0.01869 0.010124 0.015175 0.01593 0.0055 0.05862
-0.00428 0.01929 0.00633 -0.009834 0.03117 0.02403 0.02295 0.02562

running_mean f2 [40]
00000000: 24a7 4a37 3b2a f125 3134 77aa bb35 1dad
00000010: 51b9 b52b 0b32 4024 2d33 90b0 c6b8 69ab
00000020: 53b5 51b8 94b2 0bb8 d631 34b0 a0b6 dc30
00000030: a5ad 3334 1e36 4cb6 9da4 71b4 1a34 98ad
00000040: 0d31 7f31 0f2e b2b4 db37 e62b 742f 0332
-0.0279 0.4556 0.04868 0.02321 0.262 -0.0505 0.3582 -0.0799
-0.6646 0.0602 0.1888 0.0166 0.2242 -0.1426 -0.5967 -0.0579
-0.3328 -0.5396 -0.2056 -0.5054 0.1824 -0.1313 -0.414 0.1519
-0.0882 0.2625 0.3823 -0.3936 -0.01802 -0.2776 0.2563 -0.0874
0.1578 0.1718 0.09467 -0.2935 0.491 0.0617 0.11646 0.1879

running_var f2 [40]
00000000: c12f 8a31 f831 fc30 ac30 4830 0c31 e92c
00000010: 1433 a12f 5831 a530 8c30 fe32 8030 6331
00000020: f033 3e34 7c2e be32 9232 2b30 3d2c 6f30
00000030: b431 3e32 9932 7131 de2e 5835 872e 9532
00000040: 932f e52d 8533 a030 ac32 2430 ae31 3730
0.12115 0.1731 0.1865 0.1558 0.146 0.1338 0.1577 0.0767
0.2212 0.1192 0.167 0.1451 0.1421 0.2185 0.1406 0.1683
0.248 0.2651 0.1013 0.2107 0.2053 0.1302 0.0662 0.1385
0.1782 0.1951 0.2062 0.17 0.1073 0.334 0.102 0.2057
0.11835 0.0921 0.235 0.1445 0.2085 0.1294 0.1775 0.1317

weight f2 [40, 1, 3, 3]
00000000: d327 7834 d3aa a6b0 0ea3 911a 4835 22b3
00000010: 892f 0a2e fcb5 3033 cc30 8a33 6cb4 6f31
00000020: 19b4 4e29 85a8 b62e 6eb2 512f 3429 c52f
00000030: a530 532f ea31 4030 7034 9332 fb2d d1ad
00000040: a434 10b2 b130 7094 4d2e d3a0 6d2e 8a27
00000050: 6db3 61ac 0e2a 4537 18af 5a2d e634 c828
00000060: 6233 f5b4 872b 08b1 35b3 d22b 7232 e92b
00000070: 03b5 6135 e4b4 daa9 0014 822c a1b4 37b4
00000080: d2a9 8733 11b0 0932 f434 ff2e a0b1 5eb5
00000090: 6430 5234 8caf a730 3636 7631 5930 f7b4
000000a0: 1c35 3bb4 bdaa 8c2e 5199 3b31 30ab 3133
000000b0: 2c34 cfb4 f728 8234 8c33 062d 3e30 db34
000000c0: fb31 0432 2cad cb33 ff31 9533 2429 f4a4
000000d0: a7b4 6220 dfb1 bcb2 39b1 e4b4 bfab 0f34
000000e0: cdaf 74b5 491c 01b1 1eb5 a7b4 57a8 fab0
000000f0: 89ad 7a35 7eb0 7db3 b3b0 9936 68b0 27a4
00000100: 671e 38b0 d8b4 71b4 85b4 c3a5 41ae a335
00000110: 33af 9a34 4fae 83a5 49b1 5e29 3c2e b8b1
00000120: a732 b6b0 f52f be1c 45b2 e22a c134 64b0
00000130: 6836 84b5 9334 7a97 3db0 6233 c5a1 d3b4
00000140: 7034 7732 97b4 2cb5 452c 6bb4 e6b1 a92a
00000150: 0432 7934 5134 2db3 3ab5 deb2 0c9f db2e
00000160: 72ae c532 942f 8db0 30b2 b5ac 1e2c 5a34
00000170: d4b4 e5af 8d31 dfac 4eb0 2a24 6ab3 93b4
00000180: d2ac ed2c a724 9fb2 d7ac 4536 a7b4 c3b3
00000190: 3035 4d33 74ae 7caf 47af 2bb0 1935 fbb2
000001a0: c0af 862c 0628 4bb2 7cb4 632e 81b2 1b35
000001b0: 18b0 6db1 8f18 642a 5fb0 5732 b7b3 c228
000001c0: c7ad 48aa 3f34 1535 a732 63b3 9e17 8e28
000001d0: 6bab fbb0 cd33 92b1 9027 8632 7f34 6830
000001e0: 36b4 5b34 c1ac 8c31 4330 6024 1230 89b2
000001f0: 2a29 5eb5 6ca8 0c35 4732 bead 8734 da29
0.03056 0.2793 -0.0533 -0.1453 -0.01378 0.003206 0.33 -0.2229
0.11774 0.09436 -0.374 0.2246 0.1499 0.2356 -0.2764 0.1698
-0.256 0.04144 -0.0353 0.10486 -0.2009 0.1143 0.04065 0.1214
0.1451 0.11444 0.1848 0.1328 0.2773 0.2054 0.09344 -0.0909
0.29 -0.1895 0.1466 -0.001083 0.09845 -0.00942 0.1004 0.02945
-0.232 -0.0684 0.0473 0.4543 -0.11084 0.0836 0.3062 0.03735
0.2307 -0.3098 0.0588 -0.1572 -0.2252 0.0611 0.2014 0.0618
-0.3132 0.3362 -0.3057 -0.04572 0.000977 0.07043 -0.2893 -0.2634
-0.04547 0.2352 -0.1271 0.1886 0.3096 0.1093 -0.1758 -0.3354
0.1372 0.27 -0.1179 0.1454 0.3882 0.1707 0.1359 -0.3103
0.3193 -0.2644 -0.05264 0.1023 -0.002596 0.1635 -0.05615 0.2247
0.2607 -0.3005 0.0388 0.2817 0.2358 0.0785 0.1326 0.3035
0.1869 0.188 -0.0808 0.2435 0.1874 0.2369 0.04016 -0.01935
-0.2908 0.00856 -0.1835 -0.2104 -0.1632 -0.3057 -0.06052 0.2537
-0.1219 -0.3408 0.004185 -0.1564 -0.3198 -0.2908 -0.0339 -0.1555
-0.0865 0.3423 -0.1404 -0.234 -0.1469 0.4124 -0.1377 -0.01622
0.006252 -0.1318 -0.3027 -0.2776 -0.2825 -0.0225 -0.0977 0.3523
-0.1125 0.2876 -0.0986 -0.02153 -0.1652 0.04193 0.0974 -0.1787
0.2079 -0.1472 0.1243 0.00463 -0.1959 0.05377 0.297 -0.1372
0.4004 -0.3447 0.286 -0.001825 -0.1324 0.2307 -0.01127 -0.3015
0.2773 0.202 -0.2869 -0.3232 0.0667 -0.2761 -0.1843 0.05203
0.188 0.2795 0.2698 -0.2242 -0.3267 -0.2146 -0.00688 0.1071
-0.1007 0.2115 0.1184 -0.1422 -0.1934 -0.07355 0.06433 0.272
-0.3018 -0.12335 0.1735 -0.0761 -0.1345 0.01627 -0.2317 -0.286
-0.0753 0.07697 0.01817 -0.2069 -0.0756 0.3918 -0.2908 -0.2426
0.3242 0.2281 -0.1008 -0.11694 -0.1137 -0.1302 0.3186 -0.2181
-0.1211 0.0707 0.03143 -0.1967 -0.2803 0.0998 -0.2032 0.319
-0.1279 -0.1696 0.002226 0.04993 -0.1366 0.1981 -0.2411 0.03717
-0.0903 -0.04907 0.2654 0.3176 0.2079 -0.2308 0.00186 0.03558
-0.05795 -0.1556 0.2438 -0.1741 0.02954 0.2039 0.281 0.1377
-0.2632 0.2722 -0.0743 0.1733 0.1332 0.01709 0.1272 -0.2042
0.04034 -0.3354 -0.03455 0.3154 0.1962 -0.0897 0.283 0.04572

weight f2 [40]
00000000: ba3b c53b da3b a53b f23b e03b ee3b b43b
00000010: e33b f13b aa3b e03b f43b e53b d03b fa3b
00000020: f43b 083c e13b f93b fc3b ea3b d63b d53b
00000030: e83b 053c f83b b73b af3b 243c f03b cb3b
00000040: ec3b b33b e73b f53b c03b a33b 003c fc3b
0.966 0.971 0.9814 0.9556 0.993 0.9844 0.991 0.963
0.986 0.9927 0.958 0.9844 0.994 0.987 0.9766 0.997
0.994 1.008 0.985 0.9966 0.998 0.9893 0.9795 0.979
0.9883 1.005 0.996 0.9644 0.9604 1.035 0.992 0.974
0.99 0.9624 0.988 0.9946 0.9688 0.9546 1.0 0.998
