session6/densenet_mini_ref_fact/save_model/save_model_state_final.pth (torch, 889912 bytes, 518 tensors)

weight f2 [3, 1, 3, 3]
-0.7363 0.1206 -0.686 0.6157 1.151 0.869 -1.316 2.904
-0.2944 0.11066 0.9336 0.308 0.718 -4.78 0.2473 0.4167
-0.4946 0.1346 -0.514 -0.1733 -0.7886 0.125 1.359 1.024
-0.9126 0.7534 2.217
00000000: e4b9 b82f 7db9 ed38 9b3c f43a 44bd cf41
00000010: b6b4 152f 783b ee34 be39 c8c4 ea33 ab36
00000020: eab7 4f30 1db8 8cb1 4fba 0030 703d 193c
00000030: 4dbb 073a 6f40

weight f2 [24, 3, 1, 1]
-0.1854 -0.591 0.0886 0.08344 -0.606 0.1902 -0.3782 -0.1915
0.6343 -0.6074 0.3135 0.2937 0.3394 1.025 0.555 0.127
-0.302 -0.945 -1.015 -0.1421 0.79 0.5254 -0.3008 -0.9287
-0.8115 -0.6006 -0.1225 0.663 0.7065 -0.1659 -0.6836 -0.4358
-0.1887 0.04443 0.1879 -0.536 -0.0962 -0.494 0.4397 -0.3984
-0.8877 -0.4368 1.331 0.5503 -0.1874 0.6987 0.3372 0.1814
0.3196 0.7734 0.02571 -0.1387 0.621 0.1777 -0.1506 -0.751
-0.6763 -0.259 -0.8164 -0.2961 0.6606 -0.1663 -0.3064 0.3215
-0.001965 -0.804 -0.439 -0.662 -0.05942 0.2369 0.785 0.7803
00000000: efb1 bab8 ac2d 572d d9b8 1632 0db6 21b2
00000010: 1339 dcb8 0435 b334 6e35 1a3c 7138 1030
00000020: d5b4 8fbb 0fbc 8cb0 523a 3438 d0b4 6ebb
00000030: 7eba ceb8 d7af 4e39 a739 4fb1 78b9 f9b6
00000040: 0ab2 b029 0332 4ab8 28ae e7b7 0937 60b6
00000050: 1abb fdb6 533d 6738 ffb1 9739 6535 ce31
00000060: 1d35 303a 9526 70b0 f838 b031 d2b0 02ba
00000070: 69b9 25b4 88ba bdb4 4939 52b1 e7b4 2535
00000080: 0698 6fba 06b7 4cb9 9bab 9533 483a 3e3a

weight f2 [24]
0.2605 0.3916 0.388 0.3538 0.314 0.3833 0.3528 0.2717
0.186 0.269 0.3992 0.3638 0.5244 0.2319 0.4504 0.303
0.5005 0.7437 0.211 0.2996 0.4507 0.2834 0.3655 0.3389
00000000: 2b34 4436 3536 a935 0635 2236 a535 5934
00000010: f431 4e34 6336 d235 3238 6c33 3537 d934
00000020: 0138 f339 c132 cb34 3637 8934 d935 6c35

bias f2 [24]
0.555 -0.4187 -0.253 0.1177 0.286 -0.3147 0.146 0.3828
0.2742 -0.0844 -0.2123 -0.10626 0.8867 0.3804 0.726 -0.1586
-0.2988 -0.7227 0.3486 0.5186 -0.09595 0.1231 -0.261 -0.1304
00000000: 7138 b3b6 0cb4 882f 9334 09b5 ac30 2036
00000010: 6334 67ad cbb2 cdae 183b 1636 cf39 13b1
00000020: c8b4 c8b9 9435 2638 24ae e12f 2db4 2cb0

running_mean f2 [24]
-0.01229 -0.007996 -0.01551 -0.010475 0.0156 0.006615 -0.02892 0.014435
-0.02309 0.024 -0.01778 0.007965 -0.01223 -0.01599 0.03543 0.01685
0.0164 0.00394 -0.00717 -0.01345 0.013596 0.013275 -0.01701 0.00845
00000000: 4ba2 18a0 f1a3 5da1 fd23 c61e 67a7 6423
00000010: e9a5 2526 8da4 1420 43a2 18a4 8928 5024
00000020: 3324 091c 589f e3a2 f622 cc22 5ba4 5420

running_var f2 [24]
0.697 1.743 0.4954 1.103 0.7183 0.673 0.571 0.552
0.2776 0.359 0.3376 0.8594 1.459 0.45 0.8877 0.5
0.729 1.047 0.4338 0.5796 0.786 0.5767 0.28 0.485
00000000: 9339 f93e ed37 693c bf39 6239 9138 6a38
00000010: 7134 be35 6735 e03a d63d 3337 1a3b 0038
00000020: d539 303c f136 a338 4a3a 9d38 7b34 c337

weight f2 [48, 24, 1, 1]
-0.1565 0.02576 -0.01692 0.1663 0.2328 -0.1178 -0.04993 -0.1998
0.01999 0.0842 0.03403 -0.00428 -0.2279 -0.10767 -0.06204 0.05853
0.1342 0.0944 -0.271 -0.1655 -0.0472 0.011696 0.006645 0.1227
-0.0508 0.0325 0.004177 0.2546 0.1135 -0.05817 0.2495 -0.0622
0.0794 -0.00832 0.03476 -0.06033 -0.0734 -0.0678 -0.1261 -0.001361
0.04318 0.006104 -0.02493 -0.0787 0.0761 -0.05954 -0.00973 0.01537
-0.04886 0.0377 0.1528 -0.011635 0.1096 -0.1647 0.162 -0.07983
-0.134 0.089 -0.1042 -0.01825 -0.02744 -0.2413 0.125 0.04688
0.03723 -0.02927 -0.2177 -0.0979 0.00879 0.081 -0.0819 -0.03217
-0.05804 -0.000997 0.0965 -0.01636 0.314 -0.01971 0.05566 -0.1998
-0.09106 0.1092 -0.01854 0.03099 -0.0133 -0.3777 0.1884 0.187
0.0516 -0.1401 -0.3271 -0.304 0.04102 -0.01152 -0.0723 0.01242
0.10785 0.1954 0.2006 -0.012924 0.02411 -0.02457 0.11505 -0.264
-0.08325 -0.1032 -0.06537 -0.002756 0.3013 -0.1561 0.0258 0.1387
-0.11334 -0.04297 -0.2013 -0.02786 0.0914 -0.00972 -0.136 0.0521
-0.1086 0.001464 -0.1414 -0.0921 -0.1512 0.1228 -0.0706 0.1493
0.00825 -0.06696 0.0472 0.1539 -0.2078 0.02419 -0.0752 -0.06033
-0.04483 -0.1328 0.1349 -0.0759 -0.05078 0.1425 -0.0885 -0.06335
0.05377 0.1493 -0.00947 -0.0785 -0.0964 0.0841 -0.1797 0.1587
-0.1804 -0.038 -0.07526 0.02634 0.1311 0.014565 0.373 0.108
-0.0479 0.01255 0.02426 0.034 0.2805 0.05417 -0.0626 0.01342
0.2468 0.1343 -0.07666 -0.11694 -0.1682 0.0557 0.03111 0.1659
0.0482 0.06335 0.02884 -0.09937 0.2505 0.2676 0.04977 -0.0565
-0.09735 -0.3396 0.1633 0.3652 0.02325 0.009 0.1069 0.03088
-0.02158 0.0439 -0.05557 0.0157 0.1763 -0.0261 -0.0896 -0.1462
0.0434 0.00859 0.0635 -0.0914 0.0161 0.001254 0.0983 0.085
0.0708 -0.02185 -0.0297 -0.04306 -0.01862 -0.1616 0.0337 0.3845
-0.2172 -0.05267 -0.0656 -0.11566 0.09174 0.02843 -0.0448 0.0477
-0.1065 0.1978 -0.1957 0.03195 -0.4133 -0.003975 0.04855 -0.1543
0.1989 0.0321 -0.002472 -0.1367 -0.0924 0.163 -0.03796 -0.1702
0.01 -0.005383 -0.05786 0.1586 -0.074 0.1045 -0.03836 -0.03928
0.007195 0.04727 0.11505 0.1283 0.04388 0.02217 -0.1022 0.005814
00000000: 02b1 9826 55a4 5231 7333 8aaf 64aa 65b2
00000010: 1e25 642d 5b28 629c 4bb3 e4ae f1ab 7e2b
00000020: 4b30 0b2e 56b4 4cb1 0baa fd21 ce1e da2f
00000030: 81aa 2928 471c 1334 442f 72ab fc33 f6ab
00000040: 152d 43a0 7328 b9ab b3ac 57ac 09b0 9395
00000050: 8729 401e 62a6 09ad df2c 9fab fba0 df23
00000060: 41aa d328 e430 f5a1 042f 45b1 2f31 1cad
00000070: 4ab0 b22d abae aca4 06a7 b9b3 0030 002a
00000080: c428 7ea7 f7b2 44ae 8020 2f2d 3ead 1ea8
00000090: 6eab 1594 2d2e 30a4 0635 0ca5 202b 65b2
000000a0: d4ad fd2e bfa4 ef27 cfa2 0bb6 0732 fc31
000000b0: 9b2a 7cb0 3cb5 ddb4 4029 e6a1 a1ac 5c22
000000c0: e72e 4132 6b32 9ea2 2c26 4aa6 5d2f 39b4
000000d0: 54ad 9bae 2fac a599 d234 ffb0 9b26 7030
000000e0: 41af 80a9 71b2 22a7 d92d faa0 5ab0 ab2a
000000f0: f3ae ff15 86b0 e5ad d7b0 dc2f 85ac c730
00000100: 3920 49ac 0b2a ed30 a6b2 3126 d0ac b9ab
00000110: bda9 40b0 5130 dcac 80aa 8f30 aaad 0eac
00000120: e22a c730 d9a0 06ad 2bae 622d c0b1 1431
00000130: c6b1 dda8 d1ac be26 3230 7523 f835 e92e
00000140: 22aa 6d22 3626 5a28 7d34 ef2a 02ac df22
00000150: e633 4c30 e8ac 7caf 62b1 212b f727 4f31
00000160: 2b2a 0e2c 6227 5cae 0234 4834 5f2a 3bab
00000170: 3bae 6fb5 3a31 d835 f425 9c20 d72e e827
00000180: 86a5 9f29 1dab 0524 a431 aea6 bcad aeb0
00000190: 8e29 6620 102c d9ad 1f24 2315 4b2e 712d
000001a0: 882c 98a5 9aa7 83a9 c4a4 2cb1 5028 2736
000001b0: f3b2 beaa 33ac 67af df2d 4727 bca9 1b2a
000001c0: d1ae 5432 43b2 1728 9db6 129c 372a f0b0
000001d0: 5d32 1c28 1099 60b0 eaad 3731 dca8 72b1
000001e0: 1f21 839d 68ab 1331 bcac b02e e9a8 07a9
000001f0: 5e1f 0d2a 5d2f 1b30 9e29 ad25 8aae f41d

weight f2 [48]
0.2693 1.0 1.0 0.9844 1.0 1.0 1.0 0.2128
1.0 0.8994 1.0 1.0 1.0 0.4487 0.979 1.0
1.0 0.3894 1.0 1.0 0.9976 0.497 0.3435 0.4133
1.0 1.0 0.4453 1.0 1.0 1.0 1.0 0.304
1.0 1.0 1.0 0.2974 1.0 0.4873 1.0 1.0
0.3057 1.0 0.999 0.908 0.9795 0.9795 0.3027 0.9297
00000000: 4f34 003c 003c e03b 003c 003c 003c cf32
00000010: 003c 323b 003c 003c 003c 2e37 d53b 003c
00000020: 003c 3b36 003c 003c fb3b f437 7f35 9d36
00000030: 003c 003c 2037 003c 003c 003c 003c dd34
00000040: 003c 003c 003c c234 003c cc37 003c 003c
00000050: e434 003c fe3b 443b d63b d63b d834 703b

bias f2 [48]
0.482 -0.09906 0.2805 0.251 -0.001509 0.2622 -0.003567 0.557
-0.2979 0.4175 -0.3745 -0.1733 -0.09125 0.2842 0.376 0.1027
0.1189 0.5254 -0.1247 -0.1387 -0.5166 0.4705 0.5654 0.544
-0.05954 0.05414 -0.4792 -0.1355 0.2068 0.1697 0.094 0.5425
0.03787 -0.12366 -0.0957 0.5347 0.1791 0.2825 0.118 0.0773
0.5815 -0.2004 0.3694 0.467 0.3154 0.321 0.6484 0.3096
00000000: b637 57ae 7d34 0434 2e96 3234 4e9b 7538
00000010: c4b4 ae36 feb5 8cb1 d7ad 8c34 0436 932e
00000020: 9c2f 3438 fbaf 70b0 22b8 8737 8638 5a38
00000030: 9fab ee2a abb7 56b0 9e32 6e31 042e 5738
00000040: d928 eaaf 20ae 4738 bb31 8534 8d2f f22c
00000050: a738 6ab2 e935 7937 0c35 2335 3039 f434

running_mean f2 [48]
-0.51 -0.12494 -0.1698 -0.3086 0.1112 -0.3013 0.4304 0.737
0.0339 -0.5337 0.0568 0.2351 0.11096 0.2588 0.317 0.1729
0.385 -0.3135 -0.163 -0.04852 0.1982 -0.4468 0.4666 0.7114
-0.09204 0.4277 0.1975 0.0599 -0.1727 -0.1486 0.204 0.28
-0.2764 0.07355 0.4756 0.4763 0.1569 0.714 -0.4338 -0.5894
-0.72 0.1908 0.1605 -0.04898 -0.10535 0.2029 -0.498 -0.6416
00000000: 14b8 ffaf 6fb1 f0b4 1e2f d2b4 e336 e539
00000010: 5728 45b8 452b 8633 1a2f 2434 1235 8831
00000020: 2936 04b5 37b1 36aa 5832 26b7 7737 b139
00000030: e4ad d836 5232 ab2b 87b1 c1b0 8732 7b34
00000040: 6cb4 b52c 9c37 9f37 0531 b639 f1b6 b7b8
00000050: c3b9 1b32 2331 45aa beae 7e32 f8b7 22b9

running_var f2 [48]
0.1732 0.0615 0.0393 0.1133 0.08246 0.0509 0.1527 0.2517
0.02109 0.1323 0.03085 0.03415 0.03674 0.1372 0.09937 0.0536
0.0846 0.0582 0.05255 0.0659 0.045 0.1483 0.2031 0.3074
0.03546 0.0771 0.04358 0.02852 0.0418 0.05966 0.04147 0.1534
0.09845 0.04202 0.02814 0.1073 0.05008 0.1201 0.0998 0.0844
0.2205 0.03137 0.06995 0.11 0.07965 0.0758 0.0724 0.1709
00000000: 8b31 df2b 0829 402f 472d 842a e330 0734
00000010: 6625 3c30 e627 5f28 b428 6430 5c2e dc2a
00000020: 6a2d 732b ba2a 382c c329 bf30 8032 eb34
00000030: 8a28 ef2c 9429 4d27 5a29 a32b 4f29 e930
00000040: 4d2e 6129 3427 de2e 692a b02f 632e 672d
00000050: 0e33 0428 7a2c 0a2f 192d da2c a22c 7831

weight f2 [48, 1, 3, 3]
0.1686 -0.2334 0.2411 0.2556 0.5454 -0.3767 -0.1665 -0.3677
-0.2903 -0.1486 0.26 0.1443 0.1964 0.04013 0.1073 0.0827
-0.4016 -0.0621 0.02573 0.1564 -0.2148 -0.1501 0.3176 -0.1354
-0.2191 0.3457 -0.1051 0.08606 -0.416 -0.00256 0.395 -0.281
-0.3616 0.202 0.12213 -0.08356 0.445 0.294 -0.2493 -0.04675
0.3347 0.0861 -0.3098 -0.3042 -0.013016 -0.1511 -0.3403 0.2986
-0.1798 -0.1553 0.1636 0.461 0.0337 0.0208 -0.0696 0.3367
0.1884 0.6426 0.12024 -0.3274 -0.131 -0.5615 -0.1876 -0.2451
0.3098 -0.0874 -0.1575 0.944 -0.3154 0.02197 -0.9395 0.2362
0.1588 0.05026 -0.1156 -0.113 0.1823 -0.2356 -0.1965 0.0458
0.2615 -0.1019 0.2002 -0.1442 -0.549 -0.353 0.3274 -0.159
-0.02481 0.552 0.1026 0.1692 -0.2463 -0.08496 0.00958 0.009125
0.04178 -0.4377 0.04538 -0.033 0.03818 0.1897 -0.0694 -0.0943
0.07477 -0.00671 -0.3564 -0.0632 0.1279 0.1554 -0.0686 -0.147
0.2499 0.0984 -0.3528 -0.04175 0.01501 0.3347 -1.276 0.10144
-0.1197 0.0759 -0.1183 0.1509 0.378 0.333 0.08813 -0.01712
-0.0789 0.441 -0.003355 -0.4563 0.02641 0.3955 -0.4995 0.04575
0.05286 0.1244 -0.1015 -0.423 -0.1433 0.1425 0.34 0.02042
-0.126 0.1428 -0.02129 -0.4282 -0.3835 0.1644 0.01913 0.2188
0.332 0.173 -0.4756 -0.1628 0.3315 -0.2336 0.1748 -0.1294
0.3909 -0.1511 0.2089 -0.1024 -0.01678 0.2185 -0.3484 0.0461
0.000911 -0.0241 0.1422 -0.10535 -0.2986 0.1774 -0.01678 -0.3567
0.1 0.08704 0.347 0.1571 0.0716 0.0913 -0.06683 0.1455
0.0303 0.1454 0.2365 0.2194 0.07385 -0.0952 -0.2067 -0.04468
-0.2178 -0.557 -0.1312 0.1515 0.609 0.325 -0.1625 -0.3145
0.627 -0.511 -0.5103 0.633 0.2676 -0.2279 0.09937 0.05417
-0.1298 -0.05716 0.2297 -0.1628 1.113 -0.01086 -0.937 0.0323
-0.1908 0.1962 0.1515 -0.04285 -0.1691 0.11334 0.3018 -0.0924
-0.2302 -0.2291 0.3545 -0.09357 -0.3267 0.0234 0.3242 0.08765
-0.1488 0.02936 -0.219 0.2847 -0.216 0.1498 0.2588 0.1466
-0.010185 0.07654 0.0404 0.075 -0.3044 0.03708 -0.0999 -0.06094
-0.0693 0.03665 0.0463 -0.01791 0.1373 0.3018 0.09064 0.104
00000000: 6531 78b3 b733 1734 5d38 07b6 54b1 e2b5
00000010: a5b4 c1b0 2934 9e30 4932 2329 de2e 4b2d
00000020: 6db6 f3ab 9626 0131 e0b2 ceb0 1535 55b0
00000030: 03b3 8835 baae 822d a8b6 3e99 5236 7fb4
00000040: c9b5 7732 d12f 59ad 1f37 b434 fab3 fca9
00000050: 5b35 832d f5b4 deb4 aaa2 d6b0 72b5 c734
00000060: c1b1 f8b0 3c31 6037 5028 5325 74ac 6335
00000070: 0732 2439 b22f 3db5 31b0 7eb8 01b2 d8b3
00000080: f534 98ad 0ab1 8d3b 0cb5 a025 84bb 8f33
00000090: 1531 6f2a 66af 3baf d531 8ab3 4ab2 dd29
000000a0: 2f34 86ae 6832 9db0 64b8 a6b5 3d35 17b1
000000b0: 5aa6 6a38 912e 6a31 e2b3 70ad e820 ac20
000000c0: 5929 01b7 cf29 39a8 e328 1232 71ac 09ae
000000d0: c92c df9e b4b5 0bac 1830 f930 64ac b4b0
000000e0: ff33 4c2e a5b5 58a9 af23 5b35 1bbd 7e2e
000000f0: a9af dc2c 92af d430 0c36 5435 a42d 62a4
00000100: 0dad 0e37 df9a 4db7 c326 5436 feb7 db29
00000110: c42a f62f 7fae c5b6 96b0 8f30 7135 3a25
00000120: 08b0 9230 73a5 dab6 23b6 4331 e624 0033
00000130: 5035 8931 9cb7 36b1 4e35 7ab3 9831 24b0
00000140: 4136 d6b0 af32 8eae 4ca4 fe32 93b5 e729
00000150: 7713 2ba6 8d30 beae c7b4 ad31 4ca4 b5b5
00000160: 662e 922d 8d35 0731 952c d82d 47ac a830
00000170: c227 a730 9133 0533 ba2c 18ae 9db2 b8a9
00000180: f8b2 75b8 33b0 d930 df38 3335 33b1 08b5
00000190: 0439 17b8 15b8 1039 4834 4bb3 5c2e ef2a
000001a0: 27b0 51ab 5a33 36b1 743c 8fa1 7fbb 2228
000001b0: 1bb2 4732 d930 7ca9 69b1 412f d434 eaad
000001c0: 5eb3 55b3 ac35 fdad 3ab5 fe25 3035 9c2d
000001d0: c3b0 8427 02b3 8e34 e9b2 cb30 2434 b130
000001e0: 37a1 e62c 2c29 cd2c dfb4 bf28 65ae cdab
000001f0: 6fac b128 ed29 96a4 6530 d434 cd2d a82e

weight f2 [48]
0.4712 0.302 0.365 0.252 0.2976 0.2688 0.4412 0.6113
0.2595 0.4268 0.3674 0.2668 0.2515 0.3784 0.3953 0.217
0.3218 0.4043 0.3093 0.3455 0.4744 0.425 0.589 0.7188
0.2308 0.2194 0.3516 0.1512 0.282 0.2437 0.3362 0.535
0.3308 0.2059 0.2472 0.56 0.3044 0.4182 0.268 0.3118
0.64 0.2297 0.3516 0.289 0.3442 0.328 0.423 0.4377
00000000: 8a37 d534 d735 0834 c334 4d34 0f37 e438
00000010: 2734 d436 e135 4534 0634 0e36 5336 f232
00000020: 2635 7836 f334 8735 9737 cd36 b638 c039
00000030: 6333 0533 a035 d730 8334 cc33 6135 4838
00000040: 4b35 9732 e933 7b38 df34 b136 4a34 fd34
00000050: 1f39 5a33 a035 a034 8235 3f35 c536 0137

bias f2 [48]
0.001775 -2.35e-05 0.0003223 0.0004883 0.000907 0.0003228 -0.001337 -0.001088
0.00011396 -0.0006633 -0.00031 -0.0002444 0.0008864 0.002283 -0.0007014 -2.396e-05
0.001192 0.0012865 0.001169 -0.0001534 0.0008526 -0.002064 -1.21e-05 -0.0003252
-0.0007677 -0.0002713 0.00115 -0.000703 -0.0005302 -0.0003278 0.001366 -0.0002818
0.0003657 -7.35e-05 3.636e-05 0.001658 -0.0005274 0.0004487 -0.000258 -0.000835
-0.001466 -0.0009212 -0.001013 -0.0001305 -0.0001383 0.0004036 -6.13e-05 0.001119
00000000: 4517 8a81 480d 0010 6e13 4a0d 7a95 7594
00000010: 7807 6f91 148d 018c 4313 ad18 bf91 9281
00000020: e214 4515 ca14 0789 fc12 3a98 cb80 548d
00000030: 4a92 728c b614 c291 5890 5f8d 9815 9e8c
00000040: fe0d d184 6202 cb16 5290 5a0f 3a8c d792
00000050: 0196 8c93 2694 4788 8888 9d0e 0484 9514

running_mean f2 [48]
-0.08966 0.0726 0.03702 -0.1793 0.1007 0.0584 0.009796 -0.11646
0.01223 -0.1721 -0.07086 -0.0873 0.03503 -0.04886 -0.0548 0.01709
-0.0444 -0.03906 0.00782 -0.00903 0.1497 -0.11115 -0.06805 0.0741
0.002836 0.010826 0.02173 -0.1096 0.1033 0.004025 0.0257 0.02829
-0.0009465 -0.1015 0.0732 0.04813 -0.04913 0.08014 -0.009254 0.0979
-0.05936 -0.1256 0.032 0.05878 -0.02449 -0.0168 0.0775 0.11
00000000: bdad a52c bd28 bdb1 722e 7a2b 0421 74af
00000010: 4322 82b1 89ac 96ad 7c28 41aa 04ab 6024
00000020: afa9 00a9 0120 a0a0 ca30 1daf 5bac be2c
00000030: cf19 8b21 9025 04af 9c2e 1f1c 9426 3e27
00000040: c193 7fae af2c 292a 4aaa 212d bda0 442e
00000050: 99ab 05b0 1928 862b 45a6 4da4 f62c 0a2f

running_var f2 [48]
0.03482 0.04846 0.1609 0.1998 0.1345 0.0789 0.1624 0.02054
0.04446 0.2253 0.05276 0.0819 0.0675 0.0919 0.1816 0.0349
0.1146 0.03705 0.08575 0.081 0.1448 0.0976 0.08386 0.1256
0.02118 0.04984 0.01037 0.0533 0.1757 0.0422 0.0555 0.06494
0.1206 0.04865 0.09644 0.0421 0.09314 0.06415 0.0774 0.0745
0.09753 0.08136 0.1403 0.1674 0.11255 0.1663 0.03162 0.199
00000000: 7528 342a 2631 6532 4e30 0d2d 3231 4225
00000010: b129 3633 c12a 3e2d 522c e22d d031 7828
00000020: 562f be28 7d2d 2f2d a230 3f2e 5e2d 0530
00000030: 6c25 612a 4f21 d32a 9f31 6729 1b2b 282c
00000040: b82f 3a2a 2c2e 6429 f62d 1b2c f42c c52c
00000050: 3e2e 352d 7d30 5b31 342f 5231 0c28 5e32

weight f2 [12, 48, 1, 1]
-0.3035 -0.2742 0.05698 0.1469 0.09924 0.03087 0.646 0.2142
0.1971 -0.03995 0.216 0.2527 -0.001924 -0.295 0.01675 0.10114
-0.01987 -0.0921 0.1757 0.0506 -0.259 0.05743 -0.3633 -0.142
-0.2524 -0.04678 -0.3215 0.1497 -0.1497 0.429 -0.1968 0.223
-0.175 -0.1483 -0.1516 0.1143 0.04034 -0.02486 0.0723 0.399
0.1265 0.1617 -0.009865 -0.1599 -0.0367 0.1648 0.06122 -0.4316
0.1256 -0.2286 -0.1908 -0.06122 -0.2656 -0.2374 0.007473 0.163
-0.1923 -0.1824 -0.08405 0.08575 -0.2125 -0.392 -0.1598 0.08887
0.1009 0.2057 0.09204 -0.1355 -0.000716 -0.3125 0.04056 0.1444
0.1113 0.01804 0.07007 0.1389 0.3767 0.00836 -0.1954 0.2253
0.0092 -0.04034 0.1335 -0.0646 -0.2445 0.04068 -0.07996 -0.002348
0.146 0.0871 -0.03302 -0.4336 0.2585 0.1515 0.3125 -0.4102
-0.0691 0.1472 -0.1022 -0.06168 -0.01665 0.1826 -0.3694 0.0876
0.04953 0.4045 -0.168 0.0106 0.01585 0.3972 0.1735 -0.1842
-0.211 0.2019 0.2524 0.2018 0.0785 0.2004 0.198 0.0808
-0.1425 -0.1346 -0.04553 -0.03165 -0.1776 -0.218 0.2588 -0.5967
-0.1505 -0.1971 -0.1099 0.0789 -0.07935 -0.2031 -0.005318 -0.1824
-0.02045 0.06616 -0.2279 0.2925 -0.1277 -0.074 -0.314 0.256
0.03943 0.004364 0.0533 0.06192 -0.1608 -0.0757 -0.0999 -0.0973
-0.04013 -0.1854 0.05334 -0.07153 -0.0597 0.2703 -0.01164 0.09033
0.0716 0.2617 -0.1273 -0.07684 -0.0656 -0.307 0.1235 -0.4255
0.01651 -0.088 -0.05167 0.0703 -0.2164 0.05142 0.1666 0.00547
-0.11725 0.03116 0.10876 0.7554 0.1525 -0.03198 0.157 -0.04608
0.06107 0.0689 -0.441 0.02893 -0.03558 0.0853 -0.0062 0.2391
0.3765 0.1328 -0.1855 0.2198 -0.1334 -0.1159 -0.1896 -0.7446
0.0498 -0.1951 0.206 0.01889 -0.06824 0.232 -0.1815 -0.07135
0.2317 -0.2231 -0.010216 -0.3013 -0.06415 -0.3433 0.1752 -0.004993
-0.01157 0.01433 -0.1777 -0.138 -0.1427 -0.03387 0.07825 0.3884
0.10706 0.2532 -0.1084 -0.1813 -0.09985 0.324 -0.02554 -0.1523
-0.2183 -0.2253 0.161 0.1329 0.1344 -0.185 0.08777 0.2092
0.2124 0.007072 0.16 0.7007 0.1121 0.163 0.00902 0.3342
-0.07477 -0.4497 -0.0988 0.02818 0.0962 0.11694 -0.3965 -0.07916
00000000: dbb4 63b4 4b2b b330 5a2e e727 2b39 db32
00000010: 4f32 1da9 e932 0b34 e197 b8b4 4a24 792e
00000020: 16a5 e5ad 9f31 7a2a 25b4 5a2b d0b5 8bb0
00000030: 0ab4 fda9 25b5 ca30 cab0 dd36 4cb2 2333
00000040: 9ab1 bfb0 dab0 512f 2a29 5da6 a12c 6236
00000050: 0c30 2d31 0da1 1eb1 b3a8 4631 d62b e8b6
00000060: 0530 51b3 1bb2 d6ab 40b4 99b3 a71f 3731
00000070: 27b2 d6b1 61ad 7d2d cdb2 46b6 1db1 b02d
00000080: 752e 9532 e42d 56b0 de91 00b5 3129 9f30
00000090: 202f 9e24 7c2c 7230 0736 4820 41b2 3633
000000a0: b620 2aa9 4630 22ac d3b3 3529 1ead cf98
000000b0: ac30 932d 3aa8 f0b6 2334 d930 0035 90b6
000000c0: 6cac b630 8aae e5ab 43a4 d831 e9b5 9b2d
000000d0: 572a 7936 60b1 6d21 0f24 5b36 8d31 e5b1
000000e0: c1b2 7632 0a34 7532 062d 6a32 5632 2c2d
000000f0: 8fb0 4fb0 d4a9 0da8 afb1 fab2 2434 c6b8
00000100: d1b0 4fb2 09af 0d2d 14ad 80b2 729d d6b1
00000110: 3ca5 3c2c 4bb3 ae34 16b0 bcac 06b5 1934
00000120: 0c29 781c d32a ed2b 25b1 d8ac 65ae 3aae
00000130: 23a9 efb1 d42a 94ac a4ab 5334 f6a1 c82d
00000140: 952c 3034 13b0 ebac 33ac e9b4 e72f cfb6
00000150: 3a24 a2ad 9daa 802c edb2 952a 5531 9a1d
00000160: 81af fa27 f62e 0b3a e130 18a8 0631 e6a9
00000170: d12b 692c 0eb7 6827 8ea8 762d 599e a733
00000180: 0636 4030 f0b1 0933 45b0 6baf 11b2 f5b9
00000190: 602a 3eb2 9832 d624 5eac 6d33 cfb1 91ac
000001a0: 6a33 24b3 3ba1 d2b4 1bac 7eb5 9b31 1d9d
000001b0: eda1 5623 b0b1 6ab0 91b0 56a8 022d 3736
000001c0: da2e 0d34 f0ae cdb1 64ae 2f35 8aa6 e0b0
000001d0: fcb2 36b3 2731 4130 4d30 ecb1 9e2d b232
000001e0: cc32 3e1f 1f31 9b39 2d2f 3731 9e20 5935
000001f0: c9ac 32b7 53ae 3727 282e 7c2f 58b6 11ad

weight f2 [36]
0.469 0.4143 0.422 0.55 0.66 0.3972 0.3909 0.6313
0.7627 0.5376 0.731 0.6846 0.317 0.1497 0.2134 0.4006
0.386 0.3406 0.2286 0.1927 0.283 0.3052 0.2319 0.2754
0.2854 0.306 0.309 0.1763 0.453 0.3225 0.2546 0.264
0.277 0.2815 0.3162 0.25
00000000: 8137 a136 c136 6638 4839 5b36 4136 0d39
00000010: 1a3a 4d38 d939 7a39 1235 ca30 d432 6936
00000020: 2d36 7335 5133 2b32 8734 e234 6c33 6834
00000030: 9134 e534 f234 a431 3f37 2935 1334 3934
00000040: 6f34 8134 0f35 0034

bias f2 [36]
0.192 0.3801 0.08966 0.2769 0.4758 0.285 0.3704 -0.0705
0.25 0.2678 0.2822 0.4958 -0.2556 -0.1888 -0.1549 -0.0918
-0.09326 -0.1515 -0.0904 0.05194 -0.2166 -0.2301 -0.0288 -0.02312
-0.2932 -0.268 -0.1726 0.0869 -0.2329 0.05084 0.1162 -0.3174
-0.11 -0.2043 -0.10486 -0.000337
00000000: 2532 1536 bd2d 6e34 9d37 8f34 ed35 83ac
00000010: 0034 4934 8434 ef37 17b4 0bb2 f5b0 e0ad
00000020: f8ad d9b0 c9ad a62a eeb2 5db3 5fa7 eba5
00000030: b1b4 4ab4 86b1 902d 74b3 822a 702f 14b5
00000040: 0aaf 8ab2 b6ae 858d

running_mean f2 [36]
-0.004078 -0.001351 0.00219 0.00381 0.003468 0.00212 -0.0005946 0.002844
-0.001737 -0.0004222 -0.002796 -0.004223 -0.01229 -0.007996 -0.01551 -0.010475
0.0156 0.006615 -0.02892 0.014435 -0.02309 0.024 -0.01778 0.007965
-0.01223 -0.01599 0.03543 0.01685 0.0164 0.00394 -0.00717 -0.01345
0.013596 0.013275 -0.01701 0.00845
00000000: 2d9c 8995 7c18 ce1b 1a1b 5718 df90 d319
00000010: 1d97 eb8e ba99 539c 4ba2 18a0 f1a3 5da1
00000020: fd23 c61e 67a7 6423 e9a5 2526 8da4 1420
00000030: 43a2 18a4 8928 5024 3324 091c 589f e3a2
00000040: f622 cc22 5ba4 5420

running_var f2 [36]
0.9287 0.333 0.5137 1.151 1.624 0.748 0.3708 0.5186
1.838 0.887 1.87 1.56 0.697 1.743 0.4954 1.103
0.7183 0.673 0.571 0.552 0.2776 0.359 0.3376 0.8594
1.459 0.45 0.8877 0.5 0.729 1.047 0.4338 0.5796
0.786 0.5767 0.28 0.485
00000000: 6e3b 5435 1c38 9b3c 7f3e fc39 ef35 2638
00000010: 5a3f 193b 7b3f 3d3e 9339 f93e ed37 693c
00000020: bf39 6239 9138 6a38 7134 be35 6735 e03a
00000030: d63d 3337 1a3b 0038 d539 303c f136 a338
00000040: 4a3a 9d38 7b34 c337

weight f2 [48, 36, 1, 1]
-0.11163 -0.0168 -0.2217 0.07715 0.2108 0.0966 -0.078 -0.1126
-0.1186 -0.03967 -0.1636 -0.2815 -0.01415 -0.0095 0.00276 -0.1222
-0.0814 0.005375 -0.06995 0.01605 -0.04074 0.03876 -0.03973 -0.010124
0.01173 -0.0438 0.11957 0.01772 -0.01944 -0.007996 -0.045 -0.02666
0.08105 0.02826 -0.1326 -0.03918 0.2344 0.03452 -0.1464 -0.3994
-0.1492 0.05542 0.3235 0.1216 -0.05374 0.01894 -0.008385 0.2764
0.06915 0.04575 0.1109 0.03992 -0.04388 -0.02919 0.1236 -0.11316
0.005108 -0.0785 0.0367 -0.01067 0.08856 0.03137 -0.08765 -0.08356
-0.06525 0.02992 -0.02539 0.06027 -0.01329 -0.02835 -0.04135 0.07324
0.1669 -0.1092 -0.02287 0.1893 -0.0785 -0.08484 0.08826 -0.1004
-0.1736 0.03198 0.1324 -0.2651 -0.03065 0.0002851 -0.000977 -0.1781
-0.06647 -0.066 0.006645 0.0948 -0.05234 0.02916 -0.1279 -0.02588
-0.03574 0.1272 0.04684 -0.001035 -0.03084 -0.0618 0.03284 0.04205
0.0875 -0.02097 -0.010864 -0.05194 -0.04974 -0.014694 -0.2952 -0.07074
0.1315 -0.2178 0.1279 -0.1743 0.08105 -0.5728 0.1068 -0.3833
-0.00857 -0.01888 0.106 -0.03665 -0.03836 0.01278 0.0644 0.081
-0.12305 0.03134 -0.07764 0.0531 -0.00864 0.000911 -0.03723 0.02242
0.02426 -0.0332 -0.01304 -0.0034 0.0439 0.163 -0.0188 0.0247
-0.2903 0.03912 -0.03955 -0.11096 0.2913 0.1124 0.05466 -0.3938
-0.4956 0.2847 -0.407 -0.009476 -0.03882 -0.013885 0.01697 0.001035
0.0827 -0.01392 -0.01932 0.04553 0.01569 0.06192 -0.05157 0.1032
0.01633 -0.04248 -0.013115 0.0213 0.03204 0.0833 -0.0428 -0.002432
-0.0495 0.0545 -0.1309 -0.0381 0.1459 -0.1475 0.009 0.0276
-0.04004 -0.0613 0.01383 -0.04208 0.1393 0.0905 0.0271 0.184
0.05017 -0.012184 -0.01712 0.04657 -0.02927 0.000994 0.03583 -0.03607
0.02975 0.01608 0.08954 0.03082 0.01836 0.0787 -0.07196 -0.166
0.01452 0.02876 0.07666 0.0969 -0.07764 -0.00937 0.10693 -0.02261
-0.08014 -0.2068 -0.0767 -0.2915 -0.2034 0.0938 -0.263 -0.09485
0.2922 -0.1865 -0.02249 0.12445 0.1025 0.1128 0.04492 0.006104
-0.0838 0.01776 0.01678 -0.001825 -0.03696 -0.02184 0.01352 0.002493
0.1335 0.01962 0.05716 0.02733 -0.00311 -0.04987 -0.01325 0.1326
0.08356 0.03061 0.06683 -0.06287 0.1597 0.02513 0.1255 0.10223
00000000: 25af 4da4 18b3 f02c bf32 2f2e feac 35af
00000010: 97af 14a9 3cb1 81b4 3fa3 dda0 a719 d2af
00000020: 36ad 811d 7aac 1c24 37a9 f628 16a9 2fa1
00000030: 0122 9ba9 a72f 8924 faa4 18a0 c3a9 d3a6
00000040: 302d 3c27 3eb0 04a9 8033 6b28 afb0 64b6
00000050: c6b0 182b 2d35 c82f e1aa d924 4ba0 6c34
00000060: 6d2c db29 192f 1c29 9ea9 79a7 e92f 3eaf
00000070: 3b1d 06ad b328 77a1 ab2d 0428 9cad 59ad
00000080: 2dac a927 80a6 b72b cea2 42a7 4ba9 b02c
00000090: 5731 fdae dba5 0f32 06ad 6ead a62d 6dae
000000a0: 8eb1 1828 3d30 3eb4 d9a7 ac0c 0094 b3b1
000000b0: 41ac 39ac ce1e 112e b3aa 7727 18b0 a0a6
000000c0: 93a8 1230 ff29 3d94 e5a7 e9ab 3428 6229
000000d0: 9a2d 5ea5 90a1 a6aa 5eaa 86a3 b9b4 87ac
000000e0: 3530 f8b2 1830 94b1 302d 95b8 d62e 22b6
000000f0: 63a0 d5a4 c92e b1a8 e9a8 8b22 1f2c 2f2d
00000100: e0af 0328 f8ac cc2a 6ca0 7713 c4a8 bd25
00000110: 3626 40a8 ada2 f79a 9f29 3731 d0a4 5326
00000120: a5b4 0229 10a9 1aaf a934 322f ff2a 4db6
00000130: eeb7 8e34 83b6 daa0 f8a8 1ca3 5824 3d14
00000140: 4b2d 21a3 f2a4 d429 0424 ed2b 9aaa 9b2e
00000150: 2e24 70a9 b7a2 7425 1a28 552d 7aa9 fb98
00000160: 56aa fa2a 30b0 e0a8 ab30 b8b0 9c20 1127
00000170: 20a9 d9ab 1523 63a9 7530 cb2d f026 e331
00000180: 6c2a 3da2 62a4 f629 7ea7 1214 9628 9ea8
00000190: 9e27 1e24 bb2d e427 b324 092d 9bac 50b1
000001a0: 6f23 5d27 e82c 342e f8ac cca0 d82e caa5
000001b0: 21ad 9eb2 e9ac aab4 82b2 012e 35b4 12ae
000001c0: ad34 f8b1 c2a5 f72f 8f2e 382f c029 401e
000001d0: 5dad 8c24 4c24 7a97 bba8 97a5 ec22 1b19
000001e0: 4630 0625 512b ff26 5f9a 62aa c9a2 3e30
000001f0: 592d d627 472c 06ac 1c31 6f26 0430 8b2e

weight f2 [48]
1.0 1.0 1.0 1.0 0.995 1.0 1.0 1.0
1.0 1.0 1.0 1.0 0.686 0.999 1.0 1.0
0.4695 1.0 1.0 1.0 1.0 1.0 1.0 0.997
1.0 1.0 1.0 1.0 1.0 1.0 1.0 1.0
1.0 1.0 1.0 0.916 0.939 0.9995 1.0 1.0
0.9966 1.0 0.864 0.389 1.0 1.0 1.0 1.0
00000000: 003c 003c 003c 003c f63b 003c 003c 003c
00000010: 003c 003c 003c 003c 7d39 fe3b 003c 003c
00000020: 8337 003c 003c 003c 003c 003c 003c fa3b
00000030: 003c 003c 003c 003c 003c 003c 003c 003c
00000040: 003c 003c 003c 543b 833b ff3b 003c 003c
00000050: f93b 003c e93a 3936 003c 003c 003c 003c

bias f2 [48]
0.2246 0.1342 0.08386 -0.008545 0.05386 -0.0896 0.1987 0.11884
0.3374 0.02501 -0.1021 0.0787 -0.1526 -0.1556 0.4087 0.2405
0.4702 0.1875 0.1361 0.3845 0.0548 -0.009 0.1732 0.2634
0.10474 0.04483 0.0925 -0.3933 0.1324 -0.224 0.06012 0.2073
0.2175 0.1771 -0.0657 0.5884 0.2347 0.2046 0.1501 -0.03186
0.2607 0.01823 0.3496 0.3313 0.246 0.168 0.1794 0.2109
00000000: 3033 4b30 5e2d 60a0 e52a bcad 5c32 9b2f
00000010: 6635 6726 89ae 092d e2b0 fbb0 8a36 b233
00000020: 8637 0032 5b30 2736 042b 9ca0 8b31 3734
00000030: b42e bd29 ec2d 4bb6 3d30 2bb3 b22b a232
00000040: f632 ab31 34ac b538 8333 8c32 ce30 14a8
00000050: 2c34 ab24 9835 4d35 df33 6031 be31 c032

running_mean f2 [48]
-0.289 0.12445 -0.1827 -0.429 -0.2268 0.1637 -0.324 -0.1416
0.0455 -0.2954 0.1361 -0.08307 -0.3542 -0.1982 -0.1378 -0.00696
-0.242 -0.4365 -0.373 -0.3242 -0.0783 0.08093 -0.3396 -0.1508
-0.0836 -0.1449 -0.3003 -0.1519 -0.04657 -0.00782 -0.01823 -0.10596
-0.004593 -0.369 -0.4758 -0.0931 -0.5537 -0.4404 -0.3545 0.03577
-0.3918 -0.3804 0.06573 0.002022 -0.2174 -0.449 -0.4075 -0.09534
00000000: a0b4 f72f d9b1 ddb6 42b3 3d31 2fb5 88b0
00000010: d329 bab4 5b30 51ad abb5 58b2 69b0 219f
00000020: beb3 fcb6 f8b5 30b5 03ad 2e2d 6fb5 d3b0
00000030: 5aad a3b0 ceb4 dcb0 f6a9 01a0 aba4 c8ae
00000040: b49c e7b5 9db7 f5ad 6eb8 0cb7 acb5 9428
00000050: 45b6 16b6 352c 2418 f5b2 2fb7 85b6 1aae

running_var f2 [48]
0.1083 0.1215 0.05118 0.2141 0.3442 0.04477 0.1022 0.1068
0.0673 0.08453 0.04865 0.04535 0.408 0.167 0.0675 0.09314
0.1782 0.1711 0.09875 0.1138 0.082 0.04413 0.1478 0.201
0.02722 0.05875 0.0565 0.0465 0.1118 0.02037 0.08075 0.10803
0.0866 0.1274 0.11725 0.1088 0.1927 0.2063 0.0992 0.09
0.2448 0.0877 0.1382 0.10724 0.0798 0.11755 0.09576 0.1021
00000000: ee2e c72f 8d2a da32 8235 bb29 8a2e d62e
00000010: 4f2c 692d 3a2a ce29 8736 5831 522c f62d
00000020: b431 7a31 522e 482f 3f2d a629 bb30 6f32
00000030: f826 852b 3b2b f429 282f 3725 2b2d ea2e
00000040: 8b2d 1430 812f f72e 2b32 9a32 592e c32d
00000050: d533 9d2d 6c30 dd2e 1b2d 862f 212e 892e

weight f2 [48, 1, 3, 3]
-0.1833 -0.1055 0.10913 0.3975 0.132 0.0604 -0.3408 0.1037
-0.2238 -0.00848 0.5312 -0.2522 0.003275 -0.4646 0.2169 -0.1167
-0.1434 -0.0638 -0.1348 -0.0685 0.0838 0.1874 -0.1959 0.1018
-0.1635 0.4517 0.026 0.10455 -0.12006 -0.1779 0.0891 -0.4111
0.06586 0.1092 -0.4143 0.356 0.1438 -0.3525 0.3748 0.2957
-0.395 0.277 -0.08765 0.015305 0.1942 0.1696 -0.11536 0.08685
-0.1675 -0.10516 0.356 -0.1874 0.3005 -0.1497 -0.2035 -0.02654
0.1813 -0.281 0.4377 -0.00546 0.3555 -0.1467 -0.2847 -0.1458
0.1697 0.07654 -0.365 0.4458 -0.1965 -0.1893 0.3713 0.0009117
0.10974 0.0852 -0.293 -0.1278 -0.3289 0.2983 -0.1564 0.334
-0.07117 0.3174 -0.02753 -0.10266 0.068 0.3284 0.2815 -0.307
-0.1814 -0.25 0.2062 0.1743 0.1259 -0.03525 0.01055 0.0535
0.01203 0.1041 0.015434 -0.0644 -0.2922 0.26 0.03357 -0.4006
0.07556 0.1877 0.1406 -0.09424 0.0978 0.1348 -0.1312 0.1584
0.193 0.391 0.0658 0.2593 -0.208 -0.0841 -0.078 -0.00824
-0.5205 -0.1365 0.06012 -0.234 0.0617 -0.02557 0.2191 -0.3765
0.0842 -0.006798 0.238 -0.10425 -0.2515 0.3972 -0.3188 -0.04993
-0.3547 0.1953 -0.1683 -0.0798 0.2291 0.00725 0.008156 -0.219
-0.08966 -0.02202 0.05777 0.00984 -0.4468 -0.3606 0.081 0.5684
0.14 -0.10345 -0.1504 -0.06445 0.3853 -0.1837 -0.314 0.05328
0.358 0.04028 -0.02107 0.03998 0.004543 -0.1613 0.448 0.1823
0.0699 -0.3022 0.09766 0.2969 -0.07465 -0.3418 -0.527 0.19
0.2404 0.4434 -0.1605 -0.09564 -0.2417 0.11566 -0.05267 0.1887
-0.185 0.0944 -0.2125 -0.2272 -0.01137 -0.1335 -0.2522 0.1787
0.09515 0.0988 0.0835 -0.1915 -0.0348 -0.184 -0.1652 -0.00268
-0.05585 -0.295 0.05246 0.2029 0.0775 0.554 -0.04443 0.02158
-0.2583 0.2373 -0.3674 -0.131 0.2878 0.1072 0.48 -0.1676
-0.08344 0.1959 0.2113 -0.1109 0.0757 -0.2079 -0.1602 -0.1488
0.0656 -0.2598 -0.1991 0.0873 -0.154 -0.1448 -0.001262 0.2487
0.2272 0.1775 -0.1962 -0.1821 0.1437 0.208 -0.1935 -0.1537
0.3342 0.1432 -0.16 -0.11993 -0.2006 -0.10065 -0.292 -0.1903
-0.0722 0.1272 0.0754 0.03784 0.024 -0.01393 0.067 -0.11743
00000000: deb1 c1ae fc2e 5c36 3930 bb2b 74b5 a32e
00000010: 29b3 57a0 4038 09b4 b51a 6fb7 f132 78af
00000020: 97b0 15ac 50b0 62ac 5d2d ff31 45b2 842e
00000030: 3bb1 3a37 a826 b12e afaf b1b1 b42d 94b6
00000040: 372c fd2e a1b6 b235 9a30 a4b5 ff35 bb34
00000050: 52b6 6f34 9cad d623 3732 6d31 62af 8f2d
00000060: 5cb1 bbae b235 ffb1 cf34 cab0 83b2 cba6
00000070: cd31 7fb4 0137 979d b035 b2b0 8eb4 aab0
00000080: 6e31 e62c d7b5 2237 4ab2 0fb2 f135 7813
00000090: 062f 742d b0b4 17b0 43b5 c634 01b1 5835
000000a0: 8eac 1435 0ca7 92ae 5a2c 4135 8134 e9b4
000000b0: ceb1 00b4 9932 9431 0730 83a8 6721 d92a
000000c0: 2922 aa2e e723 1fac adb4 2934 4c28 69b6
000000d0: d62c 0232 8030 08ae 422e 5030 33b0 1231
000000e0: 2d32 4236 362c 2634 a8b2 62ad feac 38a0
000000f0: 2ab8 5eb0 b22b 7db3 e62b 8ca6 0333 06b6
00000100: 642d f69e 9e33 acae 06b4 5b36 1ab5 64aa
00000110: adb5 4032 63b1 1bad 5533 6d1f 2d20 02b3
00000120: bdad a3a5 652b 0a21 26b7 c5b5 2f2d 8c38
00000130: 7b30 9fae d0b0 20ac 2a36 e1b1 06b5 d22a
00000140: ba35 2829 65a5 1e29 a71c 29b1 2b37 d531
00000150: 792c d6b4 402e c034 c7ac 78b5 37b8 1432
00000160: b133 1837 23b1 1fae bcb3 672f beaa 0a32
00000170: ecb1 0b2e cdb2 45b3 d2a1 46b0 09b4 b831
00000180: 172e 532e 582d 21b2 74a8 e3b1 49b1 7d99
00000190: 26ab b8b4 b72a 7e32 f62c 6f38 b0a9 8625
000001a0: 22b4 9833 e1b5 31b0 9b34 dc2e ae37 5db1
000001b0: 57ad 4532 c332 19af d82c a7b2 20b1 c3b0
000001c0: 332c 28b4 5fb2 962d eeb0 a2b0 2b95 f533
000001d0: 4533 ae31 47b2 d4b1 9930 a832 31b2 ebb0
000001e0: 5935 9530 1fb1 adaf 6bb2 71ae acb4 17b2
000001f0: 9fac 1230 d32c d828 2526 22a3 4a2c 84af

weight f2 [48]
0.372 0.443 0.2854 0.3408 0.542 0.2595 0.4397 0.5786
0.305 0.2842 0.2378 0.3604 0.3408 0.3154 0.44 0.2852
0.5713 0.3762 0.3254 0.561 0.2085 0.3108 0.2489 0.4521
0.2445 0.2979 0.3062 0.2712 0.373 0.2605 0.328 0.4036
0.3274 0.3206 0.3115 0.416 0.3943 0.4502 0.3586 0.2042
0.5225 0.32 0.5435 0.5312 0.4512 0.369 0.3547 0.3054
00000000: f435 1737 9134 7435 5638 2734 0937 a138
00000010: e134 8c34 9c33 c435 7435 0c35 0a37 9034
00000020: 9238 0536 3535 7d38 ac32 f934 f733 3c37
00000030: d333 c434 e634 5734 f835 2b34 3f35 7536
00000040: 3d35 2135 fc34 a836 4f36 3437 bd35 8932
00000050: 2e38 1f35 5938 4038 3837 e735 ad35 e334

bias f2 [48]
0.000815 0.001504 0.001134 -1.69e-05 -0.000747 -3.994e-05 0.000846 8.18e-05
0.0009565 -0.001737 0.0003138 0.000693 -0.000106 -2.646e-05 0.0005445 0.0006194
0.000836 -0.001719 0.0004573 -2.277e-05 6.71e-05 -0.0004003 0.0007277 -0.001521
0.0002549 -0.000396 0.0005894 0.0002694 -7.49e-05 -0.000931 -0.001541 0.0007663
0.0001698 -0.0006857 -0.001554 -0.000593 0.000911 0.00095 0.0008802 0.00091
0.0004184 0.000806 0.001831 -0.0005264 -0.00145 -0.001552 -0.0001034 -8.31e-05
00000000: ad12 2916 a514 1c81 1f92 9e82 ee12 5c05
00000010: d613 1d97 240d ad11 f286 bc81 7610 1311
00000020: d912 0b97 7e0f 7e81 6604 8f8e f611 3b96
00000030: 2d0c 7d8e d410 6a0c e984 a093 5096 4712
00000040: 9009 9e91 5d96 dc90 7713 c813 3613 7413
00000050: db0e 9a12 8017 5090 f095 5b96 c786 7285

running_mean f2 [48]
-0.01417 -0.1252 0.11975 -0.1349 0.1483 0.0566 0.0184 0.072
-0.0856 0.05045 0.1666 -0.0667 0.1267 -0.252 -0.0627 -0.2032
-0.04327 0.008064 0.1522 -0.0165 -0.189 -0.11597 0.1433 0.095
-0.06018 -0.01317 -0.02574 -0.1417 0.05505 -0.131 -0.02615 0.1399
-0.0782 0.01697 0.1451 0.002071 0.0518 -0.1001 -0.0386 -0.1531
-0.218 0.08575 0.002058 -0.01229 0.0677 -0.167 0.01422 -0.0773
00000000: 41a3 02b0 aa2f 51b0 bf30 3f2b b624 9c2c
00000010: 7aad 752a 5531 45ac 0e30 08b4 03ac 81b2
00000020: 8aa9 2120 df30 39a4 0cb2 6caf 9630 142e
00000030: b4ab bea2 97a6 89b0 0c2b 31b0 b2a6 7a30
00000040: 01ad 5824 a530 3e18 a12a 68ae f1a8 e6b0
00000050: fab2 7d2d 3718 4ba2 552c 58b1 4823 f2ac

running_var f2 [48]
0.0932 0.1431 0.06714 0.0655 0.1714 0.0795 0.12354 0.3743
0.0627 0.0839 0.1019 0.1604 0.02032 0.2465 0.1498 0.09125
0.08435 0.08875 0.077 0.1602 0.07355 0.051 0.1089 0.1387
0.0722 0.078 0.0692 0.0697 0.07733 0.0851 0.05176 0.0744
0.1149 0.0787 0.06097 0.17 0.12024 0.1519 0.0696 0.09344
0.1649 0.0541 0.1595 0.041 0.1498 0.0936 0.0829 0.08636
00000000: f72d 9430 4c2c 312c 7c31 172d e82f fd35
00000010: 032c 5f2d 862e 2231 3425 e333 cb30 d72d
00000020: 662d ae2d ee2c 2031 b52c 872a f82e 7030
00000030: 9f2c fe2c 6e2c 762c f32c 722d a02a c32c
00000040: 5b2f 092d ce2b 7131 b22f dc30 742c fb2d
00000050: 4731 ed2a 1b31 3f29 cb30 fe2d 4e2d 872d

weight f2 [12, 48, 1, 1]
0.1578 0.1981 0.02634 -0.264 -0.11523 -0.0461 -0.5234 -0.2463
0.2103 -0.06155 -0.1254 0.072 0.4082 0.1604 0.09534 -0.3264
-0.1163 0.07367 0.11035 -0.04706 -0.10156 0.1367 0.4077 0.4297
0.1776 0.1655 -0.2712 0.0546 -0.03564 -0.1309 0.2136 -0.4446
0.2094 -0.2532 0.264 -0.08777 0.1816 0.11426 -0.09375 -0.02919
-0.1748 -0.1015 -0.1367 0.1823 -0.06323 -0.172 0.3008 -0.2803
0.0807 -0.1621 -0.10815 -0.0363 -0.04688 0.286 0.1224 0.00902
-0.01204 -0.03476 -0.0919 -0.0006742 -0.083 0.2832 0.001946 0.1587
-0.05444 -0.15 -0.0579 0.525 0.1371 0.03192 -0.296 -0.5107
-0.1912 0.2056 -0.01767 -0.1733 -0.0688 0.1143 0.006454 0.02686
-0.3967 0.2252 -0.0181 -0.1113 0.03958 -0.5103 0.04044 0.05118
0.095 -0.1871 0.4297 -0.05487 -0.1573 0.3457 -0.11053 -0.0784
0.2423 0.1846 0.05325 -0.06137 0.04285 0.2205 -0.09467 0.1444
0.2299 0.02415 0.1804 0.06976 -0.3242 0.4963 0.2668 -0.2308
-0.2341 0.03003 -0.06238 -0.08795 0.145 0.1903 -0.04178 -0.0982
0.1039 -0.082 0.0885 0.008026 0.04236 0.2683 -0.05096 -0.06158
-0.04254 0.02487 -0.2803 -0.2001 0.326 0.2375 -0.04718 -0.3784
-0.1051 0.3787 0.04187 0.2054 0.05106 -0.2014 -0.3035 0.0363
-0.4805 -0.05035 -0.0793 -0.0708 -0.0672 -0.03397 0.1904 -0.0487
-0.091 0.116 -0.09314 0.07745 -0.1361 0.1495 -0.1475 -0.06155
0.4536 -0.03708 -0.3032 -0.1378 -0.2178 -0.2496 0.1586 0.2094
0.06247 -0.10944 -0.006847 0.01273 0.02873 -0.002869 -0.1224 -0.0797
0.1202 -0.125 0.252 0.4258 -0.7485 -0.3335 0.1158 -0.121
0.08435 -0.08203 0.0898 -0.01332 0.03885 -0.1732 -0.1469 0.1829
-0.2637 0.2244 -0.3591 -0.09564 -0.214 0.2112 -0.246 -0.08905
0.2194 0.10046 0.05835 0.135 -0.1971 0.0832 0.1803 0.0942
-0.0332 -0.012505 0.2046 -0.2406 -0.1014 -0.03943 -0.02507 -0.003061
-0.04895 -0.05417 0.0918 0.07306 0.324 -0.1514 0.03091 -0.2524
-0.2255 -0.1285 -0.01239 -0.0919 0.04977 0.2158 0.0959 0.252
-0.143 -0.1733 0.401 0.636 -0.2996 -0.076 0.007866 -0.02791
-0.04962 -0.04623 0.01389 0.0713 0.3242 -0.07263 0.2257 0.4067
-0.06915 -0.1626 -0.1311 0.1791 0.2177 -0.0717 -0.4417 0.1691
00000000: 0d31 5732 be26 39b4 60af e7a9 30b8 e2b3
00000010: bb32 e1ab 03b0 9c2c 8836 2231 1a2e 39b5
00000020: 71af b72c 102f 06aa 80ae 6030 8636 e036
00000030: af31 4c31 57b4 fd2a 90a8 30b0 d632 1db7
00000040: b332 0db4 3934 9ead d031 502f 00ae 79a7
00000050: 98b1 7fae 60b0 d531 0cac 81b1 d034 7cb4
00000060: 2a2d 30b1 ecae a5a8 00aa 9334 d52f 9e20
00000070: 2aa2 73a8 e2ad 8691 50ad 8834 f917 1431
00000080: f8aa cdb0 69ab 3338 6330 1628 bcb4 16b8
00000090: 1eb2 9432 86a4 8cb1 67ac 512f 9c1e e026
000000a0: 59b6 3533 a2a4 20af 1129 15b8 2d29 8d2a
000000b0: 142e fdb1 e036 06ab 09b1 8835 13af 05ad
000000c0: c133 e831 d12a dbab 7c29 0e33 0fae 9f30
000000d0: 5b33 2f26 c631 772c 30b5 f137 4534 63b3
000000e0: 7eb3 b027 fcab a1ad a430 1732 59a9 49ae
000000f0: a62e 3fad aa2d 1c20 6c29 4b34 86aa e2ab
00000100: 72a9 5e26 7cb4 67b2 3735 9a33 0aaa 0eb6
00000110: baae 0f36 5c29 9332 892a 72b2 dbb4 a528
00000120: b0b7 72aa 13ad 88ac 4dac 59a8 1832 3caa
00000130: d3ad 6d2f f6ad f52c 5bb0 c930 b8b0 e1ab
00000140: 4237 bfa8 dab4 69b0 f8b2 fdb3 1331 b332
00000150: ff2b 01af 039f 8522 5b27 e099 d5af 1aad
00000160: b12f 00b0 0834 d036 fdb9 56b5 692f beaf
00000170: 662d 40ad bf2d d2a2 f928 8bb1 b3b0 da31
00000180: 38b4 2e33 bfb5 1fae d9b2 c232 dfb3 b3ad
00000190: 0533 6e2e 782b 5230 4fb2 532d c531 072e
000001a0: 40a8 67a2 8c32 b3b3 7dae 0ca9 6ba6 459a
000001b0: 44aa efaa e02d ad2c 2f35 d8b0 ea27 0ab4
000001c0: 37b3 1db0 58a2 e2ad 5f2a e832 232e 0834
000001d0: 93b0 8cb1 6a36 1739 cbb4 ddac 0720 25a7
000001e0: 5aaa eba9 1d23 902c 3035 a6ac 3933 8236
000001f0: 6dac 34b1 32b0 bb31 f732 97ac 11b7 6931

weight f2 [48]
1.056 0.932 0.846 0.81 1.011 0.963 0.9985 0.9106
0.729 0.8604 0.783 1.222 0.873 0.441 0.718 0.8853
0.824 0.8516 0.7603 0.489 0.633 0.643 0.9556 0.847
0.3184 0.2068 0.3535 0.7085 0.5117 0.4485 0.3484 0.29
0.3938 0.2856 0.333 0.524 0.329 0.4543 0.4302 0.3335
0.556 0.4116 0.3108 0.4705 0.4167 0.616 0.2725 0.4465
00000000: 393c 753b c53a 7b3a 0b3c b43b fd3b 493b
00000010: d539 e23a 443a e33c fc3a 0e37 be39 153b
00000020: 983a d03a 153a d337 1039 2539 a53b c73a
00000030: 1835 9e32 a835 ab39 1838 2d37 9335 a434
00000040: 4d36 9234 5435 3138 4435 4537 e236 5635
00000050: 7338 9636 f934 8737 ab36 ee38 5c34 2537

bias f2 [48]
0.00488 -0.1344 0.08154 -0.02844 -0.1469 0.0832 -0.1225 0.02379
0.02226 -0.0866 -0.04025 -0.1355 -0.1217 0.1565 0.01915 -0.1048
0.2769 -0.03137 -0.269 -0.00858 -0.01515 0.1293 0.007793 -0.09894
-0.2698 0.09595 0.0809 -0.3955 0.1423 -0.00445 0.1381 0.1927
-0.01628 0.2065 0.2268 -0.2465 -0.3389 0.08417 0.0498 -0.3186
-0.247 0.08923 0.1803 -0.1287 -0.3835 -0.2479 0.1804 0.2385
00000000: ff1c 4db0 382d 48a7 b3b0 532d d7af 1726
00000010: b325 8bad 27a9 56b0 caaf 0231 e724 b5ae
00000020: 6e34 04a8 4eb4 65a0 c2a3 2330 fb1f 55ae
00000030: 51b4 242e 2d2d 54b6 8e30 8f9c 6b30 2b32
00000040: 2ba4 9c32 4233 e3b3 6cb5 632d 602a 19b5
00000050: e7b3 b62d c531 1eb0 23b6 efb3 c631 a233

running_mean f2 [48]
-0.001229 0.0003233 0.001569 -0.001536 0.001463 0.0001533 0.006493 -0.004593
0.00472 -0.002926 0.000626 0.001513 -0.004078 -0.001351 0.00219 0.00381
0.003468 0.00212 -0.0005946 0.002844 -0.001737 -0.0004222 -0.002796 -0.004223
-0.01229 -0.007996 -0.01551 -0.010475 0.0156 0.006615 -0.02892 0.014435
-0.02309 0.024 -0.01778 0.007965 -0.01223 -0.01599 0.03543 0.01685
0.0164 0.00394 -0.00717 -0.01345 0.013596 0.013275 -0.01701 0.00845
00000000: 0995 4c0d 6d16 4b96 fe15 0609 a61e b49c
00000010: d51c fe99 2111 3216 2d9c 8995 7c18 ce1b
00000020: 1a1b 5718 df90 d319 1d97 eb8e ba99 539c
00000030: 4ba2 18a0 f1a3 5da1 fd23 c61e 67a7 6423
00000040: e9a5 2526 8da4 1420 43a2 18a4 8928 5024
00000050: 3324 091c 589f e3a2 f622 cc22 5ba4 5420

running_var f2 [48]
1.243 0.953 0.4465 0.9785 0.8296 1.53 1.0625 1.067
0.4263 0.6787 0.513 1.29 0.9287 0.333 0.5137 1.151
1.624 0.748 0.3708 0.5186 1.838 0.887 1.87 1.56
0.697 1.743 0.4954 1.103 0.7183 0.673 0.571 0.552
0.2776 0.359 0.3376 0.8594 1.459 0.45 0.8877 0.5
0.729 1.047 0.4338 0.5796 0.786 0.5767 0.28 0.485
00000000: f93c a03b 2537 d43b a33a 1f3e 403c 453c
00000010: d236 6e39 1b38 293d 6e3b 5435 1c38 9b3c
00000020: 7f3e fc39 ef35 2638 5a3f 193b 7b3f 3d3e
00000030: 9339 f93e ed37 693c bf39 6239 9138 6a38
00000040: 7134 be35 6735 e03a d63d 3337 1a3b 0038
00000050: d539 303c f136 a338 4a3a 9d38 7b34 c337

weight f2 [24, 48, 1, 1]
0.71 0.569 0.1564 -0.455 0.2988 0.3066 -0.3098 -0.7505
-0.2534 -0.02219 -0.3608 -0.391 0.4316 0.2289 0.4353 -0.1333
0.4343 -0.4836 -0.3206 0.00913 -0.0481 -0.0432 -0.5044 0.1359
0.076 0.03217 0.0653 -0.1114 0.1812 -0.00434 -0.04388 0.0785
0.10126 0.105 -0.0246 -0.02528 0.00592 0.03494 0.05374 0.055
-0.03992 -0.1711 0.04495 0.1255 0.01588 0.03336 0.0793 0.1653
0.0998 -0.07855 -0.186 -0.2228 0.4238 0.2502 0.0249 -0.03305
-0.02731 0.06223 -0.04373 -0.1492 -0.1028 -0.3696 0.373 -0.1694
-0.0664 -0.0756 -0.00954 -0.1655 0.03033 -0.0254 0.2654 -0.2242
-0.006966 -0.05438 0.10046 0.4392 -0.1234 -0.2406 0.3782 -0.4883
0.4753 -0.7153 0.448 -0.2192 -0.019 0.1545 -0.54 -0.1654
-0.36 0.2175 0.01563 -0.01215 -0.2239 -0.5303 0.1848 -0.02298
0.6523 0.1271 -0.526 0.02364 0.62 0.1409 0.616 0.2139
-0.2512 -0.1835 -0.1185 -0.3738 -0.3193 -0.3428 -0.3413 0.1145
0.007652 -0.01223 -0.1943 -0.009186 0.05984 -0.07074 0.1655 0.1049
-0.0775 -0.1442 -0.11005 -0.1277 -0.2795 0.3484 -0.1471 0.04343
-0.265 -0.00929 0.0664 0.1315 -0.01348 -0.1533 -0.4739 -0.2307
-0.0855 0.1653 0.11725 -0.2698 -0.0594 0.1555 -0.1946 -0.325
-0.1351 -0.01784 0.0801 0.05032 0.1042 0.037 -0.2532 -0.05643
-0.0701 0.1208 0.2922 0.0396 0.001744 0.3196 0.285 -0.0838
-0.072 0.2217 0.1222 -0.01797 -0.3262 -0.0752 -0.04446 -0.1643
0.172 0.10425 -0.1833 -0.343 0.472 0.3806 -0.652 0.2045
-0.2308 0.519 -0.173 0.3542 0.0384 0.2158 0.209 0.1355
0.42 0.2363 0.2632 0.3184 0.3164 0.3933 -0.0707 0.2644
-0.279 -0.3044 -0.3147 -0.51 0.2817 -0.1785 0.676 0.068
-0.02498 -0.396 0.5986 -0.599 -0.5146 -0.1692 -0.3071 -0.207
-0.525 0.1783 -0.03012 -0.1295 -0.2874 0.3696 0.00589 0.2212
0.03323 -0.05026 -0.02606 -0.1299 0.078 -0.03162 -0.06696 0.0204
0.12213 0.0519 0.003504 -0.0851 0.006943 0.0698 0.01481 -0.02731
-0.1245 -0.05884 0.0181 -0.01224 -0.03485 -0.10736 0.0748 0.0918
-0.105 -0.5522 -0.1577 -0.1371 -0.53 -0.2036 0.12463 -0.2482
-0.2393 0.3994 -0.4019 -0.2766 0.2236 -0.3003 -0.1725 -0.3135
00000000: ae39 8d38 0131 48b7 c834 e834 f5b4 01ba
00000010: 0eb4 aea5 c6b5 42b6 e836 5333 f736 44b0
00000020: f336 bdb7 21b5 ad20 28aa 88a9 09b8 5930
00000030: dd2c 1e28 2e2c 21af cc31 729c 9ea9 062d
00000040: 7b2e b82e 4ca6 79a6 101e 7928 e12a 0a2b
00000050: 1ca9 7ab1 c129 0430 1124 4528 132d 4a31
00000060: 632e 07ad f4b1 21b3 c836 0134 6026 3ba8
00000070: fea6 f72b 99a9 c6b0 94ae eab5 f835 6cb1
00000080: 40ac d7ac e2a0 4cb1 c427 81a6 3f34 2db3
00000090: 229f f6aa 6e2e 0737 e6af b3b3 0d36 d0b7
000000a0: 9b37 b9b9 2b37 04b3 dda4 f230 52b8 4bb1
000000b0: c3b5 f632 0024 39a2 2ab3 3eb8 ea31 e2a5
000000c0: 3839 1130 35b8 0d26 f638 8230 ee38 d832
000000d0: 05b4 dfb1 96af fbb5 1cb5 7cb5 76b5 542f
000000e0: d61f 43a2 38b2 b4a0 a92b 87ac 4c31 b72e
000000f0: f6ac 9db0 0baf 16b0 79b4 9335 b5b0 8f29
00000100: 3db4 c2a0 402c 3530 e7a2 e8b0 95b7 62b3
00000110: 79ad 4a31 812f 51b4 9aab fa30 3ab2 33b5
00000120: 53b0 91a4 202d 712a ab2e bc28 0db4 39ab
00000130: 7dac bb2f ad34 1229 2517 1d35 8f34 5dad
00000140: 9cac 1833 d22f 9aa4 38b5 d0ac b1a9 42b1
00000150: 8131 ac2e deb1 7db5 8d37 1736 37b9 8b32
00000160: 63b3 2738 89b1 ab35 ea28 e832 b032 5630
00000170: b836 9033 3634 1835 1035 4b36 86ac 3b34
00000180: 77b4 dfb4 09b5 14b8 8234 b6b1 6839 5a2c
00000190: 65a6 56b6 ca38 cbb8 1eb8 6ab1 eab4 a0b2
000001a0: 33b8 b531 b6a7 25b0 99b4 ea35 081e 1433
000001b0: 4128 6faa aca6 28b0 fe2c 0ca8 49ac 3925
000001c0: d12f a52a 2d1b 72ad 1c1f 782c 9523 fea6
000001d0: f8af 88ab a224 44a2 76a8 dfae ca2c e02d
000001e0: b8ae 6bb8 0cb1 63b0 3db8 84b2 fa2f f1b3
000001f0: a8b3 6436 6eb6 6db4 2833 ceb4 85b1 04b5

weight f2 [24]
0.2085 0.4004 0.291 0.3923 0.141 0.265 0.3662 0.3813
0.1445 0.3115 0.345 0.2876 0.2634 0.2546 0.2642 0.4146
0.6675 0.5776 0.3496 0.492 0.2388 0.5073 0.2434 0.2489
00000000: ac32 6836 a834 4736 8330 3d34 dc35 1a36
00000010: a030 fc34 8535 9a34 3734 1334 3a34 a236
00000020: 5739 9f38 9835 df37 a433 0f38 ca33 f733

bias f2 [24]
0.04675 0.6973 0.3987 0.4497 0.2515 0.005222 -0.1843 0.2142
0.2385 0.4365 -0.02753 0.2915 -0.00697 -0.09436 0.1087 0.2218
-0.2045 0.4834 0.6533 -0.013084 0.2214 0.7153 0.06323 0.08704
00000000: fc29 9439 6136 3237 0634 591d e6b1 db32
00000010: a233 fc36 0ca7 aa34 239f 0aae f52e 1933
00000020: 8bb2 bc37 3a39 b3a2 1633 b939 0c2c 922d

running_mean f2 [24]
0.1721 -0.236 -0.2338 0.6396 -0.766 -1.051 0.8486 0.5586
-1.035 0.3286 -0.1196 -0.1754 -0.5234 -1.18 -0.8975 -0.53
-0.5522 0.1965 -0.7095 -0.6997 -0.471 0.4321 1.544 -0.4976
00000000: 8231 8db3 7bb3 1e39 21ba 34bc ca3a 7838
00000010: 24bc 4235 a8af 9db1 30b8 b8bc 2ebb 3db8
00000020: 6bb8 4a32 adb9 99b9 89b7 ea36 2d3e f6b7

running_var f2 [24]
0.2825 0.3364 0.325 0.2451 0.331 0.4377 0.4329 0.379
0.4243 0.306 0.3074 0.285 0.3638 0.4043 0.6772 0.7383
0.432 0.5005 0.4492 0.6406 0.466 0.6284 0.4785 0.3718
00000000: 8534 6235 3335 d833 4c35 0137 ed36 1036
00000010: ca36 e534 eb34 8f34 d235 7836 6b39 e839
00000020: e936 0138 3037 2039 7537 0739 a837 f335

weight f2 [48, 24, 1, 1]
-0.0342 -0.3035 0.0627 0.248 0.11554 0.01738 -0.2012 -0.0419
-0.00881 -0.1058 0.01058 0.1953 -0.178 0.0371 0.04474 0.09796
-0.0256 -0.03116 0.09686 0.2444 -0.1512 -0.2878 -0.01775 0.06915
0.02065 -0.09326 -0.09686 0.0478 0.02238 -0.01452 0.0528 0.1772
0.001367 -0.1731 0.2178 0.05774 -0.01483 0.1399 -0.09753 0.2064
0.05573 -0.03268 -0.02748 -0.1918 -0.03217 0.04602 -0.02567 0.01591
0.05475 -0.2198 0.06824 0.05975 0.006626 0.05856 -0.0646 -0.12164
0.2637 -0.1753 -0.1482 -0.02412 -0.0806 0.1231 0.11914 -0.013245
0.1549 -0.0008283 0.1399 -0.03308 0.01616 -0.1515 -0.01738 0.12274
0.01379 0.1616 -0.01949 -0.08057 0.006775 -0.03168 -0.044 -0.1713
-0.0455 -0.04858 -0.01656 -0.00895 -0.0771 -0.1866 0.0507 -0.00259
0.0515 -0.0952 0.12134 -0.052 0.03143 0.376 0.04242 -0.04254
-0.08936 0.0595 -0.4033 0.2003 -0.1694 -0.005615 0.2113 0.02597
-0.01677 0.003252 0.0702 -0.1029 0.06204 0.04642 -0.05542 0.0426
0.1302 0.03058 -0.1243 0.007015 0.1649 0.005512 -0.01787 0.0706
0.04034 0.2727 0.05063 -0.2229 0.0463 0.04514 -0.0781 -0.1081
0.02454 -0.0709 -0.05463 -0.05774 0.001299 -0.03995 -0.01136 0.001148
-0.067 -0.247 0.18 0.01113 -0.04306 0.1748 -0.0194 -0.01746
-0.002436 -0.01225 -0.178 0.0795 -0.04825 -0.14 0.06003 0.0431
-0.02597 -0.2151 -0.05316 -0.07 -0.0885 -0.10077 -0.00895 -0.1694
0.18 -0.06116 0.2463 -0.04523 0.1387 0.1599 0.11096 -0.02985
-0.1837 -0.0811 -0.354 -0.1273 -0.217 0.02678 0.03314 -0.085
0.0325 -0.2228 -0.1238 -0.1078 -0.12244 0.1686 -0.002417 0.1888
0.1943 0.0246 0.1285 -0.11176 -0.06555 -0.2073 -0.1802 0.0649
0.0699 0.1655 -0.01854 -0.2595 -0.12164 0.0943 0.0566 0.003626
-0.004166 0.1234 -0.000816 -0.02686 0.0797 -0.09985 0.06046 -0.00567
0.02817 -0.1476 -0.083 -0.08887 0.05313 0.1659 0.03705 0.01211
0.09766 0.06635 -0.0726 0.2002 -0.03485 -0.1002 0.10223 0.09125
-0.007725 -0.1637 -0.0868 0.0932 -0.00276 0.0606 0.09247 -0.1084
0.0868 0.3308 -0.0861 -0.0708 0.1696 0.0408 0.0271 -0.1082
0.06235 0.07263 -0.00902 0.345 -0.07855 -0.01843 -0.07263 0.04266
-0.02264 0.1805 0.0335 0.0741 0.01884 -0.04333 -0.228 0.2305
00000000: 61a8 dbb4 032c f033 652f 7324 70b2 5da9
00000010: 83a0 c5ae 6b21 4032 b2b1 c028 ba29 452e
00000020: 8ea6 faa7 332e d233 d7b0 9bb4 8ba4 6d2c
00000030: 4925 f8ad 33ae 1e2a bb25 6fa3 c22a ac31
00000040: 9915 8ab1 f832 642b 98a3 7a30 3eae 9b32
00000050: 222b 2fa8 09a7 23b2 1ea8 e429 92a6 1324
00000060: 022b 09b3 5e2c a62b c91e 7f2b 22ac c9af
00000070: 3834 9cb1 beb0 2da6 29ad e12f a02f c8a2
00000080: f530 c992 7a30 3ca8 2324 d9b0 73a4 db2f
00000090: 0f23 2c31 fda4 28ad f01e 0ea8 a2a9 7bb1
000000a0: d3a9 38aa 3da4 95a0 efac f9b1 7d2a 4e99
000000b0: 982a 18ae c42f a8aa 0628 0436 6e29 72a9
000000c0: b8ad 9e2b 74b6 6932 6cb1 c09d c332 a626
000000d0: 4ba4 a91a 7e2c 96ae f12b f129 18ab 7429
000000e0: 2b30 d427 f5af 2f1f 4731 a51d 93a4 852c
000000f0: 2a29 5d34 7b2a 22b3 ed29 c729 00ad ebae
00000100: 4826 8aac feaa 64ab 5215 1da9 d1a1 b414
00000110: 4aac e7b3 c331 b321 83a9 9831 f7a4 78a4
00000120: fd98 46a2 b2b1 172d 2daa 7bb0 af2b 8429
00000130: a6a6 e2b2 ceaa 7bac aaad 73ae 95a0 6cb1
00000140: c331 d4ab e233 caa9 7030 1e31 1a2f a4a7
00000150: e1b1 31ad aab5 13b0 f2b2 db26 3e28 71ad
00000160: 2928 21b3 ecaf e6ae d6af 6531 f398 0b32
00000170: 3832 4c26 1d30 27af 32ac a2b2 c4b1 272c
00000180: 792c 4c31 bfa4 27b4 c9af 092e 3f2b 6d1b
00000190: 449c e62f af92 e0a6 1a2d 64ae bd2b ce9d
000001a0: 3627 b9b0 50ad b0ad cd2a 4f31 be28 3322
000001b0: 402e 3f2c a5ac 6832 76a8 6aae 8b2e d72d
000001c0: e99f 3db1 8ead f72d a799 c22b eb2d f0ae
000001d0: 8e2d 4b35 83ad 88ac 6d31 3929 f026 edae
000001e0: fb2b a62c 9ea0 8535 07ad b8a4 a6ac 7629
000001f0: cca5 c731 4a28 be2c d324 8ca9 4cb3 6033

weight f2 [48]
1.0 1.0 1.0 1.0 0.9995 1.0 1.0 1.0
1.0 1.0 1.0 1.0 1.0 1.0 1.0 1.0
1.0 1.0 1.0 1.0 1.0 1.0 1.0 1.0
1.0 1.0 1.0 1.0 1.0 1.0 1.0 1.0
1.0 1.0 1.0 1.0 1.0 1.0 1.0 1.0
1.0 1.0 1.0 1.0 1.0 1.0 1.0 1.0
00000000: 003c 003c 003c 003c ff3b 003c 003c 003c
00000010: 003c 003c 003c 003c 003c 003c 003c 003c
00000020: 003c 003c 003c 003c 003c 003c 003c 003c
00000030: 003c 003c 003c 003c 003c 003c 003c 003c
00000040: 003c 003c 003c 003c 003c 003c 003c 003c
00000050: 003c 003c 003c 003c 003c 003c 003c 003c

bias f2 [48]
0.1984 -0.06003 -0.04572 0.04993 -0.3792 0.2104 -0.2045 0.2203
0.00543 0.1927 -0.05573 0.2515 0.03568 0.0974 0.1958 0.0772
0.0984 0.347 0.2876 0.314 -0.012085 0.1504 -0.01184 0.02296
0.0815 0.2281 0.02325 0.007156 0.1671 -0.1099 0.1113 0.1164
-0.2113 0.2343 0.2123 0.1829 0.2189 -0.0323 0.08856 -0.02411
-0.2893 0.2162 0.1844 -0.08966 -0.00929 0.1669 -0.08136 0.1796
00000000: 5932 afab daa9 642a 11b6 bc32 8bb2 0d33
00000010: 8f1d 2b32 22ab 0634 9128 3c2e 4432 f12c
00000020: 4c2e 8d35 9a34 0635 30a2 d030 10a2 e125
00000030: 372d 4d33 f425 541f 5931 09af 202f 732f
00000040: c3b2 7f33 cb32 da31 0133 22a8 ab2d 2ca6
00000050: a1b4 eb32 e731 bdad c2a0 5731 35ad bf31

running_mean f2 [48]
-0.1902 -0.0445 -0.1279 0.2822 -0.06168 0.1279 0.05902 -0.511
0.02998 0.251 0.599 -0.1791 -0.3818 0.1621 -0.0948 -0.005077
0.3884 0.5205 0.08215 -0.1168 0.1754 -0.2205 -0.09216 -0.144
-0.10693 -0.2357 0.059 -0.1044 -0.1625 0.2369 0.1936 -0.1862
0.217 -0.0769 -0.3994 -0.2297 -0.2339 -0.3098 0.02095 -0.545
0.404 -0.1886 -0.2783 -0.4382 -0.03503 0.2203 0.2026 -0.1993
00000000: 16b2 b2a9 18b0 8434 e5ab 1830 8e2b 17b8
00000010: ad27 0434 cb38 bbb1 1cb6 3031 11ae 339d
00000020: 3736 2a38 422d 7aaf 9d31 0eb3 e6ad 9cb0
00000030: d8ae 8bb3 8d2b aeae 33b1 9533 3232 f5b1
00000040: f232 ecac 64b6 5ab3 7cb3 f5b4 5d25 5cb8
00000050: 7736 09b2 74b4 03b7 7ca8 0d33 7c32 61b2
